<?xml version="1.0"?>
<net name="torch_jit" version="11">
	<layers>
		<layer id="0" name="images" type="Parameter" version="opset1">
			<data shape="1,3,480,480" element_type="f32" />
			<output>
				<port id="0" precision="FP32" names="images">
					<dim>1</dim>
					<dim>3</dim>
					<dim>480</dim>
					<dim>480</dim>
				</port>
			</output>
		</layer>
		<layer id="1" name="/model.23/Constant_9" type="Const" version="opset1">
			<data element_type="f32" shape="1, 2, 4725" offset="0" size="37800" />
			<output>
				<port id="0" precision="FP32" names="/model.23/Constant_9_output_0">
					<dim>1</dim>
					<dim>2</dim>
					<dim>4725</dim>
				</port>
			</output>
		</layer>
		<layer id="2" name="images/fq_output_0/input_low" type="Const" version="opset1">
			<data element_type="f32" shape="" offset="37800" size="4" />
			<output>
				<port id="0" precision="FP32" />
			</output>
		</layer>
		<layer id="3" name="images/fq_output_0/input_high" type="Const" version="opset1">
			<data element_type="f32" shape="" offset="37804" size="4" />
			<output>
				<port id="0" precision="FP32" />
			</output>
		</layer>
		<layer id="4" name="images/fq_output_0/output_low" type="Const" version="opset1">
			<data element_type="f32" shape="" offset="37800" size="4" />
			<output>
				<port id="0" precision="FP32" />
			</output>
		</layer>
		<layer id="5" name="images/fq_output_0/output_high" type="Const" version="opset1">
			<data element_type="f32" shape="" offset="37804" size="4" />
			<output>
				<port id="0" precision="FP32" />
			</output>
		</layer>
		<layer id="6" name="images/fq_output_0" type="FakeQuantize" version="opset1">
			<data levels="256" auto_broadcast="numpy" />
			<input>
				<port id="0" precision="FP32">
					<dim>1</dim>
					<dim>3</dim>
					<dim>480</dim>
					<dim>480</dim>
				</port>
				<port id="1" precision="FP32" />
				<port id="2" precision="FP32" />
				<port id="3" precision="FP32" />
				<port id="4" precision="FP32" />
			</input>
			<output>
				<port id="5" precision="FP32">
					<dim>1</dim>
					<dim>3</dim>
					<dim>480</dim>
					<dim>480</dim>
				</port>
			</output>
		</layer>
		<layer id="7" name="Constant_377693" type="Const" version="opset1">
			<data element_type="i8" shape="16, 3, 3, 3" offset="37808" size="432" />
			<output>
				<port id="0" precision="I8">
					<dim>16</dim>
					<dim>3</dim>
					<dim>3</dim>
					<dim>3</dim>
				</port>
			</output>
		</layer>
		<layer id="8" name="Convert_377694" type="Convert" version="opset1">
			<data destination_type="f32" />
			<input>
				<port id="0" precision="I8">
					<dim>16</dim>
					<dim>3</dim>
					<dim>3</dim>
					<dim>3</dim>
				</port>
			</input>
			<output>
				<port id="1" precision="FP32">
					<dim>16</dim>
					<dim>3</dim>
					<dim>3</dim>
					<dim>3</dim>
				</port>
			</output>
		</layer>
		<layer id="9" name="Constant_377695" type="Const" version="opset1">
			<data element_type="f32" shape="16, 1, 1, 1" offset="38240" size="64" />
			<output>
				<port id="0" precision="FP32">
					<dim>16</dim>
					<dim>1</dim>
					<dim>1</dim>
					<dim>1</dim>
				</port>
			</output>
		</layer>
		<layer id="10" name="/model.0/conv/Conv/WithoutBiases/fq_weights_1" type="Multiply" version="opset1">
			<data auto_broadcast="numpy" />
			<input>
				<port id="0" precision="FP32">
					<dim>16</dim>
					<dim>3</dim>
					<dim>3</dim>
					<dim>3</dim>
				</port>
				<port id="1" precision="FP32">
					<dim>16</dim>
					<dim>1</dim>
					<dim>1</dim>
					<dim>1</dim>
				</port>
			</input>
			<output>
				<port id="2" precision="FP32">
					<dim>16</dim>
					<dim>3</dim>
					<dim>3</dim>
					<dim>3</dim>
				</port>
			</output>
		</layer>
		<layer id="11" name="/model.0/conv/Conv/WithoutBiases" type="Convolution" version="opset1">
			<data strides="2, 2" dilations="1, 1" pads_begin="1, 1" pads_end="1, 1" auto_pad="explicit" />
			<input>
				<port id="0" precision="FP32">
					<dim>1</dim>
					<dim>3</dim>
					<dim>480</dim>
					<dim>480</dim>
				</port>
				<port id="1" precision="FP32">
					<dim>16</dim>
					<dim>3</dim>
					<dim>3</dim>
					<dim>3</dim>
				</port>
			</input>
			<output>
				<port id="2" precision="FP32">
					<dim>1</dim>
					<dim>16</dim>
					<dim>240</dim>
					<dim>240</dim>
				</port>
			</output>
		</layer>
		<layer id="12" name="model.0.conv.bias" type="Const" version="opset1">
			<data element_type="f32" shape="16" offset="38304" size="64" />
			<output>
				<port id="0" precision="FP32" names="model.0.conv.bias">
					<dim>16</dim>
				</port>
			</output>
		</layer>
		<layer id="13" name="Constant_334293" type="Const" version="opset1">
			<data element_type="i64" shape="1" offset="38368" size="8" />
			<output>
				<port id="0" precision="I64">
					<dim>1</dim>
				</port>
			</output>
		</layer>
		<layer id="14" name="ShapeOf_334300" type="ShapeOf" version="opset3">
			<data output_type="i64" />
			<input>
				<port id="0" precision="FP32">
					<dim>16</dim>
				</port>
			</input>
			<output>
				<port id="1" precision="I64">
					<dim>1</dim>
				</port>
			</output>
		</layer>
		<layer id="15" name="ShapeOf_334291" type="ShapeOf" version="opset3">
			<data output_type="i64" />
			<input>
				<port id="0" precision="FP32">
					<dim>1</dim>
					<dim>16</dim>
					<dim>240</dim>
					<dim>240</dim>
				</port>
			</input>
			<output>
				<port id="1" precision="I64">
					<dim>4</dim>
				</port>
			</output>
		</layer>
		<layer id="16" name="ShapeOf_334292" type="ShapeOf" version="opset3">
			<data output_type="i64" />
			<input>
				<port id="0" precision="I64">
					<dim>4</dim>
				</port>
			</input>
			<output>
				<port id="1" precision="I64">
					<dim>1</dim>
				</port>
			</output>
		</layer>
		<layer id="17" name="Constant_334294" type="Const" version="opset1">
			<data element_type="i64" shape="1" offset="38376" size="8" />
			<output>
				<port id="0" precision="I64">
					<dim>1</dim>
				</port>
			</output>
		</layer>
		<layer id="18" name="Subtract_334295" type="Subtract" version="opset1">
			<data auto_broadcast="numpy" />
			<input>
				<port id="0" precision="I64">
					<dim>1</dim>
				</port>
				<port id="1" precision="I64">
					<dim>1</dim>
				</port>
			</input>
			<output>
				<port id="2" precision="I64">
					<dim>1</dim>
				</port>
			</output>
		</layer>
		<layer id="19" name="Broadcast_334296" type="Broadcast" version="opset3">
			<data mode="numpy" />
			<input>
				<port id="0" precision="I64">
					<dim>1</dim>
				</port>
				<port id="1" precision="I64">
					<dim>1</dim>
				</port>
			</input>
			<output>
				<port id="2" precision="I64">
					<dim>2</dim>
				</port>
			</output>
		</layer>
		<layer id="20" name="Concat_334301" type="Concat" version="opset1">
			<data axis="0" />
			<input>
				<port id="0" precision="I64">
					<dim>1</dim>
				</port>
				<port id="1" precision="I64">
					<dim>1</dim>
				</port>
				<port id="2" precision="I64">
					<dim>2</dim>
				</port>
			</input>
			<output>
				<port id="3" precision="I64">
					<dim>4</dim>
				</port>
			</output>
		</layer>
		<layer id="21" name="Reshape_334302" type="Reshape" version="opset1">
			<data special_zero="false" />
			<input>
				<port id="0" precision="FP32">
					<dim>16</dim>
				</port>
				<port id="1" precision="I64">
					<dim>4</dim>
				</port>
			</input>
			<output>
				<port id="2" precision="FP32">
					<dim>1</dim>
					<dim>16</dim>
					<dim>1</dim>
					<dim>1</dim>
				</port>
			</output>
		</layer>
		<layer id="22" name="/model.0/conv/Conv" type="Add" version="opset1">
			<data auto_broadcast="numpy" />
			<input>
				<port id="0" precision="FP32">
					<dim>1</dim>
					<dim>16</dim>
					<dim>240</dim>
					<dim>240</dim>
				</port>
				<port id="1" precision="FP32">
					<dim>1</dim>
					<dim>16</dim>
					<dim>1</dim>
					<dim>1</dim>
				</port>
			</input>
			<output>
				<port id="2" precision="FP32" names="/model.0/conv/Conv_output_0">
					<dim>1</dim>
					<dim>16</dim>
					<dim>240</dim>
					<dim>240</dim>
				</port>
			</output>
		</layer>
		<layer id="23" name="/model.0/act/Mul/fq_input_0/input_low" type="Const" version="opset1">
			<data element_type="f32" shape="" offset="38384" size="4" />
			<output>
				<port id="0" precision="FP32" />
			</output>
		</layer>
		<layer id="24" name="/model.0/act/Mul/fq_input_0/input_high" type="Const" version="opset1">
			<data element_type="f32" shape="" offset="38388" size="4" />
			<output>
				<port id="0" precision="FP32" />
			</output>
		</layer>
		<layer id="25" name="/model.0/act/Mul/fq_input_0/output_low" type="Const" version="opset1">
			<data element_type="f32" shape="" offset="38384" size="4" />
			<output>
				<port id="0" precision="FP32" />
			</output>
		</layer>
		<layer id="26" name="/model.0/act/Mul/fq_input_0/output_high" type="Const" version="opset1">
			<data element_type="f32" shape="" offset="38388" size="4" />
			<output>
				<port id="0" precision="FP32" />
			</output>
		</layer>
		<layer id="27" name="/model.0/act/Mul/fq_input_0" type="FakeQuantize" version="opset1">
			<data levels="256" auto_broadcast="numpy" />
			<input>
				<port id="0" precision="FP32">
					<dim>1</dim>
					<dim>16</dim>
					<dim>240</dim>
					<dim>240</dim>
				</port>
				<port id="1" precision="FP32" />
				<port id="2" precision="FP32" />
				<port id="3" precision="FP32" />
				<port id="4" precision="FP32" />
			</input>
			<output>
				<port id="5" precision="FP32">
					<dim>1</dim>
					<dim>16</dim>
					<dim>240</dim>
					<dim>240</dim>
				</port>
			</output>
		</layer>
		<layer id="28" name="/model.0/act/Sigmoid" type="Sigmoid" version="opset1">
			<input>
				<port id="0" precision="FP32">
					<dim>1</dim>
					<dim>16</dim>
					<dim>240</dim>
					<dim>240</dim>
				</port>
			</input>
			<output>
				<port id="1" precision="FP32" names="/model.0/act/Sigmoid_output_0">
					<dim>1</dim>
					<dim>16</dim>
					<dim>240</dim>
					<dim>240</dim>
				</port>
			</output>
		</layer>
		<layer id="29" name="/model.0/act/Sigmoid/fq_output_0/input_low" type="Const" version="opset1">
			<data element_type="f32" shape="" offset="37800" size="4" />
			<output>
				<port id="0" precision="FP32" />
			</output>
		</layer>
		<layer id="30" name="/model.0/act/Sigmoid/fq_output_0/input_high" type="Const" version="opset1">
			<data element_type="f32" shape="" offset="38392" size="4" />
			<output>
				<port id="0" precision="FP32" />
			</output>
		</layer>
		<layer id="31" name="/model.0/act/Sigmoid/fq_output_0/output_low" type="Const" version="opset1">
			<data element_type="f32" shape="" offset="37800" size="4" />
			<output>
				<port id="0" precision="FP32" />
			</output>
		</layer>
		<layer id="32" name="/model.0/act/Sigmoid/fq_output_0/output_high" type="Const" version="opset1">
			<data element_type="f32" shape="" offset="38392" size="4" />
			<output>
				<port id="0" precision="FP32" />
			</output>
		</layer>
		<layer id="33" name="/model.0/act/Sigmoid/fq_output_0" type="FakeQuantize" version="opset1">
			<data levels="256" auto_broadcast="numpy" />
			<input>
				<port id="0" precision="FP32">
					<dim>1</dim>
					<dim>16</dim>
					<dim>240</dim>
					<dim>240</dim>
				</port>
				<port id="1" precision="FP32" />
				<port id="2" precision="FP32" />
				<port id="3" precision="FP32" />
				<port id="4" precision="FP32" />
			</input>
			<output>
				<port id="5" precision="FP32">
					<dim>1</dim>
					<dim>16</dim>
					<dim>240</dim>
					<dim>240</dim>
				</port>
			</output>
		</layer>
		<layer id="34" name="/model.0/act/Mul" type="Multiply" version="opset1">
			<data auto_broadcast="numpy" />
			<input>
				<port id="0" precision="FP32">
					<dim>1</dim>
					<dim>16</dim>
					<dim>240</dim>
					<dim>240</dim>
				</port>
				<port id="1" precision="FP32">
					<dim>1</dim>
					<dim>16</dim>
					<dim>240</dim>
					<dim>240</dim>
				</port>
			</input>
			<output>
				<port id="2" precision="FP32" names="/model.0/act/Mul_output_0">
					<dim>1</dim>
					<dim>16</dim>
					<dim>240</dim>
					<dim>240</dim>
				</port>
			</output>
		</layer>
		<layer id="35" name="/model.0/act/Mul/fq_output_0/input_low" type="Const" version="opset1">
			<data element_type="f32" shape="" offset="38396" size="4" />
			<output>
				<port id="0" precision="FP32" />
			</output>
		</layer>
		<layer id="36" name="/model.0/act/Mul/fq_output_0/input_high" type="Const" version="opset1">
			<data element_type="f32" shape="" offset="38400" size="4" />
			<output>
				<port id="0" precision="FP32" />
			</output>
		</layer>
		<layer id="37" name="/model.0/act/Mul/fq_output_0/output_low" type="Const" version="opset1">
			<data element_type="f32" shape="" offset="38396" size="4" />
			<output>
				<port id="0" precision="FP32" />
			</output>
		</layer>
		<layer id="38" name="/model.0/act/Mul/fq_output_0/output_high" type="Const" version="opset1">
			<data element_type="f32" shape="" offset="38400" size="4" />
			<output>
				<port id="0" precision="FP32" />
			</output>
		</layer>
		<layer id="39" name="/model.0/act/Mul/fq_output_0" type="FakeQuantize" version="opset1">
			<data levels="256" auto_broadcast="numpy" />
			<input>
				<port id="0" precision="FP32">
					<dim>1</dim>
					<dim>16</dim>
					<dim>240</dim>
					<dim>240</dim>
				</port>
				<port id="1" precision="FP32" />
				<port id="2" precision="FP32" />
				<port id="3" precision="FP32" />
				<port id="4" precision="FP32" />
			</input>
			<output>
				<port id="5" precision="FP32">
					<dim>1</dim>
					<dim>16</dim>
					<dim>240</dim>
					<dim>240</dim>
				</port>
			</output>
		</layer>
		<layer id="40" name="Constant_377697" type="Const" version="opset1">
			<data element_type="i8" shape="32, 16, 3, 3" offset="38404" size="4608" />
			<output>
				<port id="0" precision="I8">
					<dim>32</dim>
					<dim>16</dim>
					<dim>3</dim>
					<dim>3</dim>
				</port>
			</output>
		</layer>
		<layer id="41" name="Convert_377698" type="Convert" version="opset1">
			<data destination_type="f32" />
			<input>
				<port id="0" precision="I8">
					<dim>32</dim>
					<dim>16</dim>
					<dim>3</dim>
					<dim>3</dim>
				</port>
			</input>
			<output>
				<port id="1" precision="FP32">
					<dim>32</dim>
					<dim>16</dim>
					<dim>3</dim>
					<dim>3</dim>
				</port>
			</output>
		</layer>
		<layer id="42" name="Constant_377699" type="Const" version="opset1">
			<data element_type="f32" shape="32, 1, 1, 1" offset="43012" size="128" />
			<output>
				<port id="0" precision="FP32">
					<dim>32</dim>
					<dim>1</dim>
					<dim>1</dim>
					<dim>1</dim>
				</port>
			</output>
		</layer>
		<layer id="43" name="/model.1/conv/Conv/WithoutBiases/fq_weights_1" type="Multiply" version="opset1">
			<data auto_broadcast="numpy" />
			<input>
				<port id="0" precision="FP32">
					<dim>32</dim>
					<dim>16</dim>
					<dim>3</dim>
					<dim>3</dim>
				</port>
				<port id="1" precision="FP32">
					<dim>32</dim>
					<dim>1</dim>
					<dim>1</dim>
					<dim>1</dim>
				</port>
			</input>
			<output>
				<port id="2" precision="FP32">
					<dim>32</dim>
					<dim>16</dim>
					<dim>3</dim>
					<dim>3</dim>
				</port>
			</output>
		</layer>
		<layer id="44" name="/model.1/conv/Conv/WithoutBiases" type="Convolution" version="opset1">
			<data strides="2, 2" dilations="1, 1" pads_begin="1, 1" pads_end="1, 1" auto_pad="explicit" />
			<input>
				<port id="0" precision="FP32">
					<dim>1</dim>
					<dim>16</dim>
					<dim>240</dim>
					<dim>240</dim>
				</port>
				<port id="1" precision="FP32">
					<dim>32</dim>
					<dim>16</dim>
					<dim>3</dim>
					<dim>3</dim>
				</port>
			</input>
			<output>
				<port id="2" precision="FP32">
					<dim>1</dim>
					<dim>32</dim>
					<dim>120</dim>
					<dim>120</dim>
				</port>
			</output>
		</layer>
		<layer id="45" name="model.1.conv.bias" type="Const" version="opset1">
			<data element_type="f32" shape="32" offset="43140" size="128" />
			<output>
				<port id="0" precision="FP32" names="model.1.conv.bias">
					<dim>32</dim>
				</port>
			</output>
		</layer>
		<layer id="46" name="Constant_334311" type="Const" version="opset1">
			<data element_type="i64" shape="1" offset="38368" size="8" />
			<output>
				<port id="0" precision="I64">
					<dim>1</dim>
				</port>
			</output>
		</layer>
		<layer id="47" name="ShapeOf_334318" type="ShapeOf" version="opset3">
			<data output_type="i64" />
			<input>
				<port id="0" precision="FP32">
					<dim>32</dim>
				</port>
			</input>
			<output>
				<port id="1" precision="I64">
					<dim>1</dim>
				</port>
			</output>
		</layer>
		<layer id="48" name="ShapeOf_334309" type="ShapeOf" version="opset3">
			<data output_type="i64" />
			<input>
				<port id="0" precision="FP32">
					<dim>1</dim>
					<dim>32</dim>
					<dim>120</dim>
					<dim>120</dim>
				</port>
			</input>
			<output>
				<port id="1" precision="I64">
					<dim>4</dim>
				</port>
			</output>
		</layer>
		<layer id="49" name="ShapeOf_334310" type="ShapeOf" version="opset3">
			<data output_type="i64" />
			<input>
				<port id="0" precision="I64">
					<dim>4</dim>
				</port>
			</input>
			<output>
				<port id="1" precision="I64">
					<dim>1</dim>
				</port>
			</output>
		</layer>
		<layer id="50" name="Constant_334312" type="Const" version="opset1">
			<data element_type="i64" shape="1" offset="38376" size="8" />
			<output>
				<port id="0" precision="I64">
					<dim>1</dim>
				</port>
			</output>
		</layer>
		<layer id="51" name="Subtract_334313" type="Subtract" version="opset1">
			<data auto_broadcast="numpy" />
			<input>
				<port id="0" precision="I64">
					<dim>1</dim>
				</port>
				<port id="1" precision="I64">
					<dim>1</dim>
				</port>
			</input>
			<output>
				<port id="2" precision="I64">
					<dim>1</dim>
				</port>
			</output>
		</layer>
		<layer id="52" name="Broadcast_334314" type="Broadcast" version="opset3">
			<data mode="numpy" />
			<input>
				<port id="0" precision="I64">
					<dim>1</dim>
				</port>
				<port id="1" precision="I64">
					<dim>1</dim>
				</port>
			</input>
			<output>
				<port id="2" precision="I64">
					<dim>2</dim>
				</port>
			</output>
		</layer>
		<layer id="53" name="Concat_334319" type="Concat" version="opset1">
			<data axis="0" />
			<input>
				<port id="0" precision="I64">
					<dim>1</dim>
				</port>
				<port id="1" precision="I64">
					<dim>1</dim>
				</port>
				<port id="2" precision="I64">
					<dim>2</dim>
				</port>
			</input>
			<output>
				<port id="3" precision="I64">
					<dim>4</dim>
				</port>
			</output>
		</layer>
		<layer id="54" name="Reshape_334320" type="Reshape" version="opset1">
			<data special_zero="false" />
			<input>
				<port id="0" precision="FP32">
					<dim>32</dim>
				</port>
				<port id="1" precision="I64">
					<dim>4</dim>
				</port>
			</input>
			<output>
				<port id="2" precision="FP32">
					<dim>1</dim>
					<dim>32</dim>
					<dim>1</dim>
					<dim>1</dim>
				</port>
			</output>
		</layer>
		<layer id="55" name="/model.1/conv/Conv" type="Add" version="opset1">
			<data auto_broadcast="numpy" />
			<input>
				<port id="0" precision="FP32">
					<dim>1</dim>
					<dim>32</dim>
					<dim>120</dim>
					<dim>120</dim>
				</port>
				<port id="1" precision="FP32">
					<dim>1</dim>
					<dim>32</dim>
					<dim>1</dim>
					<dim>1</dim>
				</port>
			</input>
			<output>
				<port id="2" precision="FP32" names="/model.1/conv/Conv_output_0">
					<dim>1</dim>
					<dim>32</dim>
					<dim>120</dim>
					<dim>120</dim>
				</port>
			</output>
		</layer>
		<layer id="56" name="/model.1/act/Mul/fq_input_0/input_low" type="Const" version="opset1">
			<data element_type="f32" shape="" offset="43268" size="4" />
			<output>
				<port id="0" precision="FP32" />
			</output>
		</layer>
		<layer id="57" name="/model.1/act/Mul/fq_input_0/input_high" type="Const" version="opset1">
			<data element_type="f32" shape="" offset="43272" size="4" />
			<output>
				<port id="0" precision="FP32" />
			</output>
		</layer>
		<layer id="58" name="/model.1/act/Mul/fq_input_0/output_low" type="Const" version="opset1">
			<data element_type="f32" shape="" offset="43268" size="4" />
			<output>
				<port id="0" precision="FP32" />
			</output>
		</layer>
		<layer id="59" name="/model.1/act/Mul/fq_input_0/output_high" type="Const" version="opset1">
			<data element_type="f32" shape="" offset="43272" size="4" />
			<output>
				<port id="0" precision="FP32" />
			</output>
		</layer>
		<layer id="60" name="/model.1/act/Mul/fq_input_0" type="FakeQuantize" version="opset1">
			<data levels="256" auto_broadcast="numpy" />
			<input>
				<port id="0" precision="FP32">
					<dim>1</dim>
					<dim>32</dim>
					<dim>120</dim>
					<dim>120</dim>
				</port>
				<port id="1" precision="FP32" />
				<port id="2" precision="FP32" />
				<port id="3" precision="FP32" />
				<port id="4" precision="FP32" />
			</input>
			<output>
				<port id="5" precision="FP32">
					<dim>1</dim>
					<dim>32</dim>
					<dim>120</dim>
					<dim>120</dim>
				</port>
			</output>
		</layer>
		<layer id="61" name="/model.1/act/Sigmoid" type="Sigmoid" version="opset1">
			<input>
				<port id="0" precision="FP32">
					<dim>1</dim>
					<dim>32</dim>
					<dim>120</dim>
					<dim>120</dim>
				</port>
			</input>
			<output>
				<port id="1" precision="FP32" names="/model.1/act/Sigmoid_output_0">
					<dim>1</dim>
					<dim>32</dim>
					<dim>120</dim>
					<dim>120</dim>
				</port>
			</output>
		</layer>
		<layer id="62" name="/model.1/act/Sigmoid/fq_output_0/input_low" type="Const" version="opset1">
			<data element_type="f32" shape="" offset="37800" size="4" />
			<output>
				<port id="0" precision="FP32" />
			</output>
		</layer>
		<layer id="63" name="/model.1/act/Sigmoid/fq_output_0/input_high" type="Const" version="opset1">
			<data element_type="f32" shape="" offset="43276" size="4" />
			<output>
				<port id="0" precision="FP32" />
			</output>
		</layer>
		<layer id="64" name="/model.1/act/Sigmoid/fq_output_0/output_low" type="Const" version="opset1">
			<data element_type="f32" shape="" offset="37800" size="4" />
			<output>
				<port id="0" precision="FP32" />
			</output>
		</layer>
		<layer id="65" name="/model.1/act/Sigmoid/fq_output_0/output_high" type="Const" version="opset1">
			<data element_type="f32" shape="" offset="43276" size="4" />
			<output>
				<port id="0" precision="FP32" />
			</output>
		</layer>
		<layer id="66" name="/model.1/act/Sigmoid/fq_output_0" type="FakeQuantize" version="opset1">
			<data levels="256" auto_broadcast="numpy" />
			<input>
				<port id="0" precision="FP32">
					<dim>1</dim>
					<dim>32</dim>
					<dim>120</dim>
					<dim>120</dim>
				</port>
				<port id="1" precision="FP32" />
				<port id="2" precision="FP32" />
				<port id="3" precision="FP32" />
				<port id="4" precision="FP32" />
			</input>
			<output>
				<port id="5" precision="FP32">
					<dim>1</dim>
					<dim>32</dim>
					<dim>120</dim>
					<dim>120</dim>
				</port>
			</output>
		</layer>
		<layer id="67" name="/model.1/act/Mul" type="Multiply" version="opset1">
			<data auto_broadcast="numpy" />
			<input>
				<port id="0" precision="FP32">
					<dim>1</dim>
					<dim>32</dim>
					<dim>120</dim>
					<dim>120</dim>
				</port>
				<port id="1" precision="FP32">
					<dim>1</dim>
					<dim>32</dim>
					<dim>120</dim>
					<dim>120</dim>
				</port>
			</input>
			<output>
				<port id="2" precision="FP32" names="/model.1/act/Mul_output_0">
					<dim>1</dim>
					<dim>32</dim>
					<dim>120</dim>
					<dim>120</dim>
				</port>
			</output>
		</layer>
		<layer id="68" name="/model.1/act/Mul/fq_output_0/input_low" type="Const" version="opset1">
			<data element_type="f32" shape="" offset="43280" size="4" />
			<output>
				<port id="0" precision="FP32" />
			</output>
		</layer>
		<layer id="69" name="/model.1/act/Mul/fq_output_0/input_high" type="Const" version="opset1">
			<data element_type="f32" shape="" offset="43284" size="4" />
			<output>
				<port id="0" precision="FP32" />
			</output>
		</layer>
		<layer id="70" name="/model.1/act/Mul/fq_output_0/output_low" type="Const" version="opset1">
			<data element_type="f32" shape="" offset="43280" size="4" />
			<output>
				<port id="0" precision="FP32" />
			</output>
		</layer>
		<layer id="71" name="/model.1/act/Mul/fq_output_0/output_high" type="Const" version="opset1">
			<data element_type="f32" shape="" offset="43284" size="4" />
			<output>
				<port id="0" precision="FP32" />
			</output>
		</layer>
		<layer id="72" name="/model.1/act/Mul/fq_output_0" type="FakeQuantize" version="opset1">
			<data levels="256" auto_broadcast="numpy" />
			<input>
				<port id="0" precision="FP32">
					<dim>1</dim>
					<dim>32</dim>
					<dim>120</dim>
					<dim>120</dim>
				</port>
				<port id="1" precision="FP32" />
				<port id="2" precision="FP32" />
				<port id="3" precision="FP32" />
				<port id="4" precision="FP32" />
			</input>
			<output>
				<port id="5" precision="FP32">
					<dim>1</dim>
					<dim>32</dim>
					<dim>120</dim>
					<dim>120</dim>
				</port>
			</output>
		</layer>
		<layer id="73" name="Constant_377701" type="Const" version="opset1">
			<data element_type="i8" shape="32, 32, 1, 1" offset="43288" size="1024" />
			<output>
				<port id="0" precision="I8">
					<dim>32</dim>
					<dim>32</dim>
					<dim>1</dim>
					<dim>1</dim>
				</port>
			</output>
		</layer>
		<layer id="74" name="Convert_377702" type="Convert" version="opset1">
			<data destination_type="f32" />
			<input>
				<port id="0" precision="I8">
					<dim>32</dim>
					<dim>32</dim>
					<dim>1</dim>
					<dim>1</dim>
				</port>
			</input>
			<output>
				<port id="1" precision="FP32">
					<dim>32</dim>
					<dim>32</dim>
					<dim>1</dim>
					<dim>1</dim>
				</port>
			</output>
		</layer>
		<layer id="75" name="Constant_377703" type="Const" version="opset1">
			<data element_type="f32" shape="32, 1, 1, 1" offset="44312" size="128" />
			<output>
				<port id="0" precision="FP32">
					<dim>32</dim>
					<dim>1</dim>
					<dim>1</dim>
					<dim>1</dim>
				</port>
			</output>
		</layer>
		<layer id="76" name="/model.2/cv1/conv/Conv/WithoutBiases/fq_weights_1" type="Multiply" version="opset1">
			<data auto_broadcast="numpy" />
			<input>
				<port id="0" precision="FP32">
					<dim>32</dim>
					<dim>32</dim>
					<dim>1</dim>
					<dim>1</dim>
				</port>
				<port id="1" precision="FP32">
					<dim>32</dim>
					<dim>1</dim>
					<dim>1</dim>
					<dim>1</dim>
				</port>
			</input>
			<output>
				<port id="2" precision="FP32">
					<dim>32</dim>
					<dim>32</dim>
					<dim>1</dim>
					<dim>1</dim>
				</port>
			</output>
		</layer>
		<layer id="77" name="/model.2/cv1/conv/Conv/WithoutBiases" type="Convolution" version="opset1">
			<data strides="1, 1" dilations="1, 1" pads_begin="0, 0" pads_end="0, 0" auto_pad="explicit" />
			<input>
				<port id="0" precision="FP32">
					<dim>1</dim>
					<dim>32</dim>
					<dim>120</dim>
					<dim>120</dim>
				</port>
				<port id="1" precision="FP32">
					<dim>32</dim>
					<dim>32</dim>
					<dim>1</dim>
					<dim>1</dim>
				</port>
			</input>
			<output>
				<port id="2" precision="FP32">
					<dim>1</dim>
					<dim>32</dim>
					<dim>120</dim>
					<dim>120</dim>
				</port>
			</output>
		</layer>
		<layer id="78" name="model.2.cv1.conv.bias" type="Const" version="opset1">
			<data element_type="f32" shape="32" offset="44440" size="128" />
			<output>
				<port id="0" precision="FP32" names="model.2.cv1.conv.bias">
					<dim>32</dim>
				</port>
			</output>
		</layer>
		<layer id="79" name="Constant_334329" type="Const" version="opset1">
			<data element_type="i64" shape="1" offset="38368" size="8" />
			<output>
				<port id="0" precision="I64">
					<dim>1</dim>
				</port>
			</output>
		</layer>
		<layer id="80" name="ShapeOf_334336" type="ShapeOf" version="opset3">
			<data output_type="i64" />
			<input>
				<port id="0" precision="FP32">
					<dim>32</dim>
				</port>
			</input>
			<output>
				<port id="1" precision="I64">
					<dim>1</dim>
				</port>
			</output>
		</layer>
		<layer id="81" name="ShapeOf_334327" type="ShapeOf" version="opset3">
			<data output_type="i64" />
			<input>
				<port id="0" precision="FP32">
					<dim>1</dim>
					<dim>32</dim>
					<dim>120</dim>
					<dim>120</dim>
				</port>
			</input>
			<output>
				<port id="1" precision="I64">
					<dim>4</dim>
				</port>
			</output>
		</layer>
		<layer id="82" name="ShapeOf_334328" type="ShapeOf" version="opset3">
			<data output_type="i64" />
			<input>
				<port id="0" precision="I64">
					<dim>4</dim>
				</port>
			</input>
			<output>
				<port id="1" precision="I64">
					<dim>1</dim>
				</port>
			</output>
		</layer>
		<layer id="83" name="Constant_334330" type="Const" version="opset1">
			<data element_type="i64" shape="1" offset="38376" size="8" />
			<output>
				<port id="0" precision="I64">
					<dim>1</dim>
				</port>
			</output>
		</layer>
		<layer id="84" name="Subtract_334331" type="Subtract" version="opset1">
			<data auto_broadcast="numpy" />
			<input>
				<port id="0" precision="I64">
					<dim>1</dim>
				</port>
				<port id="1" precision="I64">
					<dim>1</dim>
				</port>
			</input>
			<output>
				<port id="2" precision="I64">
					<dim>1</dim>
				</port>
			</output>
		</layer>
		<layer id="85" name="Broadcast_334332" type="Broadcast" version="opset3">
			<data mode="numpy" />
			<input>
				<port id="0" precision="I64">
					<dim>1</dim>
				</port>
				<port id="1" precision="I64">
					<dim>1</dim>
				</port>
			</input>
			<output>
				<port id="2" precision="I64">
					<dim>2</dim>
				</port>
			</output>
		</layer>
		<layer id="86" name="Concat_334337" type="Concat" version="opset1">
			<data axis="0" />
			<input>
				<port id="0" precision="I64">
					<dim>1</dim>
				</port>
				<port id="1" precision="I64">
					<dim>1</dim>
				</port>
				<port id="2" precision="I64">
					<dim>2</dim>
				</port>
			</input>
			<output>
				<port id="3" precision="I64">
					<dim>4</dim>
				</port>
			</output>
		</layer>
		<layer id="87" name="Reshape_334338" type="Reshape" version="opset1">
			<data special_zero="false" />
			<input>
				<port id="0" precision="FP32">
					<dim>32</dim>
				</port>
				<port id="1" precision="I64">
					<dim>4</dim>
				</port>
			</input>
			<output>
				<port id="2" precision="FP32">
					<dim>1</dim>
					<dim>32</dim>
					<dim>1</dim>
					<dim>1</dim>
				</port>
			</output>
		</layer>
		<layer id="88" name="/model.2/cv1/conv/Conv" type="Add" version="opset1">
			<data auto_broadcast="numpy" />
			<input>
				<port id="0" precision="FP32">
					<dim>1</dim>
					<dim>32</dim>
					<dim>120</dim>
					<dim>120</dim>
				</port>
				<port id="1" precision="FP32">
					<dim>1</dim>
					<dim>32</dim>
					<dim>1</dim>
					<dim>1</dim>
				</port>
			</input>
			<output>
				<port id="2" precision="FP32" names="/model.2/cv1/conv/Conv_output_0">
					<dim>1</dim>
					<dim>32</dim>
					<dim>120</dim>
					<dim>120</dim>
				</port>
			</output>
		</layer>
		<layer id="89" name="/model.2/cv1/act/Mul/fq_input_0/input_low" type="Const" version="opset1">
			<data element_type="f32" shape="" offset="44568" size="4" />
			<output>
				<port id="0" precision="FP32" />
			</output>
		</layer>
		<layer id="90" name="/model.2/cv1/act/Mul/fq_input_0/input_high" type="Const" version="opset1">
			<data element_type="f32" shape="" offset="44572" size="4" />
			<output>
				<port id="0" precision="FP32" />
			</output>
		</layer>
		<layer id="91" name="/model.2/cv1/act/Mul/fq_input_0/output_low" type="Const" version="opset1">
			<data element_type="f32" shape="" offset="44568" size="4" />
			<output>
				<port id="0" precision="FP32" />
			</output>
		</layer>
		<layer id="92" name="/model.2/cv1/act/Mul/fq_input_0/output_high" type="Const" version="opset1">
			<data element_type="f32" shape="" offset="44572" size="4" />
			<output>
				<port id="0" precision="FP32" />
			</output>
		</layer>
		<layer id="93" name="/model.2/cv1/act/Mul/fq_input_0" type="FakeQuantize" version="opset1">
			<data levels="256" auto_broadcast="numpy" />
			<input>
				<port id="0" precision="FP32">
					<dim>1</dim>
					<dim>32</dim>
					<dim>120</dim>
					<dim>120</dim>
				</port>
				<port id="1" precision="FP32" />
				<port id="2" precision="FP32" />
				<port id="3" precision="FP32" />
				<port id="4" precision="FP32" />
			</input>
			<output>
				<port id="5" precision="FP32">
					<dim>1</dim>
					<dim>32</dim>
					<dim>120</dim>
					<dim>120</dim>
				</port>
			</output>
		</layer>
		<layer id="94" name="/model.2/cv1/act/Sigmoid" type="Sigmoid" version="opset1">
			<input>
				<port id="0" precision="FP32">
					<dim>1</dim>
					<dim>32</dim>
					<dim>120</dim>
					<dim>120</dim>
				</port>
			</input>
			<output>
				<port id="1" precision="FP32" names="/model.2/cv1/act/Sigmoid_output_0">
					<dim>1</dim>
					<dim>32</dim>
					<dim>120</dim>
					<dim>120</dim>
				</port>
			</output>
		</layer>
		<layer id="95" name="/model.2/cv1/act/Sigmoid/fq_output_0/input_low" type="Const" version="opset1">
			<data element_type="f32" shape="" offset="37800" size="4" />
			<output>
				<port id="0" precision="FP32" />
			</output>
		</layer>
		<layer id="96" name="/model.2/cv1/act/Sigmoid/fq_output_0/input_high" type="Const" version="opset1">
			<data element_type="f32" shape="" offset="44576" size="4" />
			<output>
				<port id="0" precision="FP32" />
			</output>
		</layer>
		<layer id="97" name="/model.2/cv1/act/Sigmoid/fq_output_0/output_low" type="Const" version="opset1">
			<data element_type="f32" shape="" offset="37800" size="4" />
			<output>
				<port id="0" precision="FP32" />
			</output>
		</layer>
		<layer id="98" name="/model.2/cv1/act/Sigmoid/fq_output_0/output_high" type="Const" version="opset1">
			<data element_type="f32" shape="" offset="44576" size="4" />
			<output>
				<port id="0" precision="FP32" />
			</output>
		</layer>
		<layer id="99" name="/model.2/cv1/act/Sigmoid/fq_output_0" type="FakeQuantize" version="opset1">
			<data levels="256" auto_broadcast="numpy" />
			<input>
				<port id="0" precision="FP32">
					<dim>1</dim>
					<dim>32</dim>
					<dim>120</dim>
					<dim>120</dim>
				</port>
				<port id="1" precision="FP32" />
				<port id="2" precision="FP32" />
				<port id="3" precision="FP32" />
				<port id="4" precision="FP32" />
			</input>
			<output>
				<port id="5" precision="FP32">
					<dim>1</dim>
					<dim>32</dim>
					<dim>120</dim>
					<dim>120</dim>
				</port>
			</output>
		</layer>
		<layer id="100" name="/model.2/cv1/act/Mul" type="Multiply" version="opset1">
			<data auto_broadcast="numpy" />
			<input>
				<port id="0" precision="FP32">
					<dim>1</dim>
					<dim>32</dim>
					<dim>120</dim>
					<dim>120</dim>
				</port>
				<port id="1" precision="FP32">
					<dim>1</dim>
					<dim>32</dim>
					<dim>120</dim>
					<dim>120</dim>
				</port>
			</input>
			<output>
				<port id="2" precision="FP32" names="/model.2/cv1/act/Mul_output_0">
					<dim>1</dim>
					<dim>32</dim>
					<dim>120</dim>
					<dim>120</dim>
				</port>
			</output>
		</layer>
		<layer id="101" name="/model.2/cv1/act/Mul/fq_output_0/input_low" type="Const" version="opset1">
			<data element_type="f32" shape="" offset="44580" size="4" />
			<output>
				<port id="0" precision="FP32" />
			</output>
		</layer>
		<layer id="102" name="/model.2/cv1/act/Mul/fq_output_0/input_high" type="Const" version="opset1">
			<data element_type="f32" shape="" offset="44584" size="4" />
			<output>
				<port id="0" precision="FP32" />
			</output>
		</layer>
		<layer id="103" name="/model.2/cv1/act/Mul/fq_output_0/output_low" type="Const" version="opset1">
			<data element_type="f32" shape="" offset="44580" size="4" />
			<output>
				<port id="0" precision="FP32" />
			</output>
		</layer>
		<layer id="104" name="/model.2/cv1/act/Mul/fq_output_0/output_high" type="Const" version="opset1">
			<data element_type="f32" shape="" offset="44584" size="4" />
			<output>
				<port id="0" precision="FP32" />
			</output>
		</layer>
		<layer id="105" name="/model.2/cv1/act/Mul/fq_output_0" type="FakeQuantize" version="opset1">
			<data levels="256" auto_broadcast="numpy" />
			<input>
				<port id="0" precision="FP32">
					<dim>1</dim>
					<dim>32</dim>
					<dim>120</dim>
					<dim>120</dim>
				</port>
				<port id="1" precision="FP32" />
				<port id="2" precision="FP32" />
				<port id="3" precision="FP32" />
				<port id="4" precision="FP32" />
			</input>
			<output>
				<port id="5" precision="FP32">
					<dim>1</dim>
					<dim>32</dim>
					<dim>120</dim>
					<dim>120</dim>
				</port>
			</output>
		</layer>
		<layer id="106" name="Constant_334345" type="Const" version="opset1">
			<data element_type="i64" shape="" offset="38368" size="8" />
			<output>
				<port id="0" precision="I64" />
			</output>
		</layer>
		<layer id="107" name="Constant_9" type="Const" version="opset1">
			<data element_type="i64" shape="2" offset="44588" size="16" />
			<output>
				<port id="0" precision="I64" names="onnx::Split_224">
					<dim>2</dim>
				</port>
			</output>
		</layer>
		<layer id="108" name="/model.2/Split" type="VariadicSplit" version="opset1">
			<input>
				<port id="0" precision="FP32">
					<dim>1</dim>
					<dim>32</dim>
					<dim>120</dim>
					<dim>120</dim>
				</port>
				<port id="1" precision="I64" />
				<port id="2" precision="I64">
					<dim>2</dim>
				</port>
			</input>
			<output>
				<port id="3" precision="FP32" names="/model.2/Split_output_0">
					<dim>1</dim>
					<dim>16</dim>
					<dim>120</dim>
					<dim>120</dim>
				</port>
				<port id="4" precision="FP32" names="/model.2/Split_output_1">
					<dim>1</dim>
					<dim>16</dim>
					<dim>120</dim>
					<dim>120</dim>
				</port>
			</output>
		</layer>
		<layer id="109" name="Constant_377705" type="Const" version="opset1">
			<data element_type="i8" shape="16, 16, 3, 3" offset="44604" size="2304" />
			<output>
				<port id="0" precision="I8">
					<dim>16</dim>
					<dim>16</dim>
					<dim>3</dim>
					<dim>3</dim>
				</port>
			</output>
		</layer>
		<layer id="110" name="Convert_377706" type="Convert" version="opset1">
			<data destination_type="f32" />
			<input>
				<port id="0" precision="I8">
					<dim>16</dim>
					<dim>16</dim>
					<dim>3</dim>
					<dim>3</dim>
				</port>
			</input>
			<output>
				<port id="1" precision="FP32">
					<dim>16</dim>
					<dim>16</dim>
					<dim>3</dim>
					<dim>3</dim>
				</port>
			</output>
		</layer>
		<layer id="111" name="Constant_377707" type="Const" version="opset1">
			<data element_type="f32" shape="16, 1, 1, 1" offset="46908" size="64" />
			<output>
				<port id="0" precision="FP32">
					<dim>16</dim>
					<dim>1</dim>
					<dim>1</dim>
					<dim>1</dim>
				</port>
			</output>
		</layer>
		<layer id="112" name="/model.2/m.0/cv1/conv/Conv/WithoutBiases/fq_weights_1" type="Multiply" version="opset1">
			<data auto_broadcast="numpy" />
			<input>
				<port id="0" precision="FP32">
					<dim>16</dim>
					<dim>16</dim>
					<dim>3</dim>
					<dim>3</dim>
				</port>
				<port id="1" precision="FP32">
					<dim>16</dim>
					<dim>1</dim>
					<dim>1</dim>
					<dim>1</dim>
				</port>
			</input>
			<output>
				<port id="2" precision="FP32">
					<dim>16</dim>
					<dim>16</dim>
					<dim>3</dim>
					<dim>3</dim>
				</port>
			</output>
		</layer>
		<layer id="113" name="/model.2/m.0/cv1/conv/Conv/WithoutBiases" type="Convolution" version="opset1">
			<data strides="1, 1" dilations="1, 1" pads_begin="1, 1" pads_end="1, 1" auto_pad="explicit" />
			<input>
				<port id="0" precision="FP32">
					<dim>1</dim>
					<dim>16</dim>
					<dim>120</dim>
					<dim>120</dim>
				</port>
				<port id="1" precision="FP32">
					<dim>16</dim>
					<dim>16</dim>
					<dim>3</dim>
					<dim>3</dim>
				</port>
			</input>
			<output>
				<port id="2" precision="FP32">
					<dim>1</dim>
					<dim>16</dim>
					<dim>120</dim>
					<dim>120</dim>
				</port>
			</output>
		</layer>
		<layer id="114" name="model.2.m.0.cv1.conv.bias" type="Const" version="opset1">
			<data element_type="f32" shape="16" offset="46972" size="64" />
			<output>
				<port id="0" precision="FP32" names="model.2.m.0.cv1.conv.bias">
					<dim>16</dim>
				</port>
			</output>
		</layer>
		<layer id="115" name="Constant_334350" type="Const" version="opset1">
			<data element_type="i64" shape="1" offset="38368" size="8" />
			<output>
				<port id="0" precision="I64">
					<dim>1</dim>
				</port>
			</output>
		</layer>
		<layer id="116" name="ShapeOf_334357" type="ShapeOf" version="opset3">
			<data output_type="i64" />
			<input>
				<port id="0" precision="FP32">
					<dim>16</dim>
				</port>
			</input>
			<output>
				<port id="1" precision="I64">
					<dim>1</dim>
				</port>
			</output>
		</layer>
		<layer id="117" name="ShapeOf_334348" type="ShapeOf" version="opset3">
			<data output_type="i64" />
			<input>
				<port id="0" precision="FP32">
					<dim>1</dim>
					<dim>16</dim>
					<dim>120</dim>
					<dim>120</dim>
				</port>
			</input>
			<output>
				<port id="1" precision="I64">
					<dim>4</dim>
				</port>
			</output>
		</layer>
		<layer id="118" name="ShapeOf_334349" type="ShapeOf" version="opset3">
			<data output_type="i64" />
			<input>
				<port id="0" precision="I64">
					<dim>4</dim>
				</port>
			</input>
			<output>
				<port id="1" precision="I64">
					<dim>1</dim>
				</port>
			</output>
		</layer>
		<layer id="119" name="Constant_334351" type="Const" version="opset1">
			<data element_type="i64" shape="1" offset="38376" size="8" />
			<output>
				<port id="0" precision="I64">
					<dim>1</dim>
				</port>
			</output>
		</layer>
		<layer id="120" name="Subtract_334352" type="Subtract" version="opset1">
			<data auto_broadcast="numpy" />
			<input>
				<port id="0" precision="I64">
					<dim>1</dim>
				</port>
				<port id="1" precision="I64">
					<dim>1</dim>
				</port>
			</input>
			<output>
				<port id="2" precision="I64">
					<dim>1</dim>
				</port>
			</output>
		</layer>
		<layer id="121" name="Broadcast_334353" type="Broadcast" version="opset3">
			<data mode="numpy" />
			<input>
				<port id="0" precision="I64">
					<dim>1</dim>
				</port>
				<port id="1" precision="I64">
					<dim>1</dim>
				</port>
			</input>
			<output>
				<port id="2" precision="I64">
					<dim>2</dim>
				</port>
			</output>
		</layer>
		<layer id="122" name="Concat_334358" type="Concat" version="opset1">
			<data axis="0" />
			<input>
				<port id="0" precision="I64">
					<dim>1</dim>
				</port>
				<port id="1" precision="I64">
					<dim>1</dim>
				</port>
				<port id="2" precision="I64">
					<dim>2</dim>
				</port>
			</input>
			<output>
				<port id="3" precision="I64">
					<dim>4</dim>
				</port>
			</output>
		</layer>
		<layer id="123" name="Reshape_334359" type="Reshape" version="opset1">
			<data special_zero="false" />
			<input>
				<port id="0" precision="FP32">
					<dim>16</dim>
				</port>
				<port id="1" precision="I64">
					<dim>4</dim>
				</port>
			</input>
			<output>
				<port id="2" precision="FP32">
					<dim>1</dim>
					<dim>16</dim>
					<dim>1</dim>
					<dim>1</dim>
				</port>
			</output>
		</layer>
		<layer id="124" name="/model.2/m.0/cv1/conv/Conv" type="Add" version="opset1">
			<data auto_broadcast="numpy" />
			<input>
				<port id="0" precision="FP32">
					<dim>1</dim>
					<dim>16</dim>
					<dim>120</dim>
					<dim>120</dim>
				</port>
				<port id="1" precision="FP32">
					<dim>1</dim>
					<dim>16</dim>
					<dim>1</dim>
					<dim>1</dim>
				</port>
			</input>
			<output>
				<port id="2" precision="FP32" names="/model.2/m.0/cv1/conv/Conv_output_0">
					<dim>1</dim>
					<dim>16</dim>
					<dim>120</dim>
					<dim>120</dim>
				</port>
			</output>
		</layer>
		<layer id="125" name="/model.2/m.0/cv1/act/Mul/fq_input_0/input_low" type="Const" version="opset1">
			<data element_type="f32" shape="" offset="47036" size="4" />
			<output>
				<port id="0" precision="FP32" />
			</output>
		</layer>
		<layer id="126" name="/model.2/m.0/cv1/act/Mul/fq_input_0/input_high" type="Const" version="opset1">
			<data element_type="f32" shape="" offset="47040" size="4" />
			<output>
				<port id="0" precision="FP32" />
			</output>
		</layer>
		<layer id="127" name="/model.2/m.0/cv1/act/Mul/fq_input_0/output_low" type="Const" version="opset1">
			<data element_type="f32" shape="" offset="47036" size="4" />
			<output>
				<port id="0" precision="FP32" />
			</output>
		</layer>
		<layer id="128" name="/model.2/m.0/cv1/act/Mul/fq_input_0/output_high" type="Const" version="opset1">
			<data element_type="f32" shape="" offset="47040" size="4" />
			<output>
				<port id="0" precision="FP32" />
			</output>
		</layer>
		<layer id="129" name="/model.2/m.0/cv1/act/Mul/fq_input_0" type="FakeQuantize" version="opset1">
			<data levels="256" auto_broadcast="numpy" />
			<input>
				<port id="0" precision="FP32">
					<dim>1</dim>
					<dim>16</dim>
					<dim>120</dim>
					<dim>120</dim>
				</port>
				<port id="1" precision="FP32" />
				<port id="2" precision="FP32" />
				<port id="3" precision="FP32" />
				<port id="4" precision="FP32" />
			</input>
			<output>
				<port id="5" precision="FP32">
					<dim>1</dim>
					<dim>16</dim>
					<dim>120</dim>
					<dim>120</dim>
				</port>
			</output>
		</layer>
		<layer id="130" name="/model.2/m.0/cv1/act/Sigmoid" type="Sigmoid" version="opset1">
			<input>
				<port id="0" precision="FP32">
					<dim>1</dim>
					<dim>16</dim>
					<dim>120</dim>
					<dim>120</dim>
				</port>
			</input>
			<output>
				<port id="1" precision="FP32" names="/model.2/m.0/cv1/act/Sigmoid_output_0">
					<dim>1</dim>
					<dim>16</dim>
					<dim>120</dim>
					<dim>120</dim>
				</port>
			</output>
		</layer>
		<layer id="131" name="/model.2/m.0/cv1/act/Sigmoid/fq_output_0/input_low" type="Const" version="opset1">
			<data element_type="f32" shape="" offset="37800" size="4" />
			<output>
				<port id="0" precision="FP32" />
			</output>
		</layer>
		<layer id="132" name="/model.2/m.0/cv1/act/Sigmoid/fq_output_0/input_high" type="Const" version="opset1">
			<data element_type="f32" shape="" offset="47044" size="4" />
			<output>
				<port id="0" precision="FP32" />
			</output>
		</layer>
		<layer id="133" name="/model.2/m.0/cv1/act/Sigmoid/fq_output_0/output_low" type="Const" version="opset1">
			<data element_type="f32" shape="" offset="37800" size="4" />
			<output>
				<port id="0" precision="FP32" />
			</output>
		</layer>
		<layer id="134" name="/model.2/m.0/cv1/act/Sigmoid/fq_output_0/output_high" type="Const" version="opset1">
			<data element_type="f32" shape="" offset="47044" size="4" />
			<output>
				<port id="0" precision="FP32" />
			</output>
		</layer>
		<layer id="135" name="/model.2/m.0/cv1/act/Sigmoid/fq_output_0" type="FakeQuantize" version="opset1">
			<data levels="256" auto_broadcast="numpy" />
			<input>
				<port id="0" precision="FP32">
					<dim>1</dim>
					<dim>16</dim>
					<dim>120</dim>
					<dim>120</dim>
				</port>
				<port id="1" precision="FP32" />
				<port id="2" precision="FP32" />
				<port id="3" precision="FP32" />
				<port id="4" precision="FP32" />
			</input>
			<output>
				<port id="5" precision="FP32">
					<dim>1</dim>
					<dim>16</dim>
					<dim>120</dim>
					<dim>120</dim>
				</port>
			</output>
		</layer>
		<layer id="136" name="/model.2/m.0/cv1/act/Mul" type="Multiply" version="opset1">
			<data auto_broadcast="numpy" />
			<input>
				<port id="0" precision="FP32">
					<dim>1</dim>
					<dim>16</dim>
					<dim>120</dim>
					<dim>120</dim>
				</port>
				<port id="1" precision="FP32">
					<dim>1</dim>
					<dim>16</dim>
					<dim>120</dim>
					<dim>120</dim>
				</port>
			</input>
			<output>
				<port id="2" precision="FP32" names="/model.2/m.0/cv1/act/Mul_output_0">
					<dim>1</dim>
					<dim>16</dim>
					<dim>120</dim>
					<dim>120</dim>
				</port>
			</output>
		</layer>
		<layer id="137" name="/model.2/m.0/cv1/act/Mul/fq_output_0/input_low" type="Const" version="opset1">
			<data element_type="f32" shape="" offset="47048" size="4" />
			<output>
				<port id="0" precision="FP32" />
			</output>
		</layer>
		<layer id="138" name="/model.2/m.0/cv1/act/Mul/fq_output_0/input_high" type="Const" version="opset1">
			<data element_type="f32" shape="" offset="47052" size="4" />
			<output>
				<port id="0" precision="FP32" />
			</output>
		</layer>
		<layer id="139" name="/model.2/m.0/cv1/act/Mul/fq_output_0/output_low" type="Const" version="opset1">
			<data element_type="f32" shape="" offset="47048" size="4" />
			<output>
				<port id="0" precision="FP32" />
			</output>
		</layer>
		<layer id="140" name="/model.2/m.0/cv1/act/Mul/fq_output_0/output_high" type="Const" version="opset1">
			<data element_type="f32" shape="" offset="47052" size="4" />
			<output>
				<port id="0" precision="FP32" />
			</output>
		</layer>
		<layer id="141" name="/model.2/m.0/cv1/act/Mul/fq_output_0" type="FakeQuantize" version="opset1">
			<data levels="256" auto_broadcast="numpy" />
			<input>
				<port id="0" precision="FP32">
					<dim>1</dim>
					<dim>16</dim>
					<dim>120</dim>
					<dim>120</dim>
				</port>
				<port id="1" precision="FP32" />
				<port id="2" precision="FP32" />
				<port id="3" precision="FP32" />
				<port id="4" precision="FP32" />
			</input>
			<output>
				<port id="5" precision="FP32">
					<dim>1</dim>
					<dim>16</dim>
					<dim>120</dim>
					<dim>120</dim>
				</port>
			</output>
		</layer>
		<layer id="142" name="Constant_377709" type="Const" version="opset1">
			<data element_type="i8" shape="16, 16, 3, 3" offset="47056" size="2304" />
			<output>
				<port id="0" precision="I8">
					<dim>16</dim>
					<dim>16</dim>
					<dim>3</dim>
					<dim>3</dim>
				</port>
			</output>
		</layer>
		<layer id="143" name="Convert_377710" type="Convert" version="opset1">
			<data destination_type="f32" />
			<input>
				<port id="0" precision="I8">
					<dim>16</dim>
					<dim>16</dim>
					<dim>3</dim>
					<dim>3</dim>
				</port>
			</input>
			<output>
				<port id="1" precision="FP32">
					<dim>16</dim>
					<dim>16</dim>
					<dim>3</dim>
					<dim>3</dim>
				</port>
			</output>
		</layer>
		<layer id="144" name="Constant_377711" type="Const" version="opset1">
			<data element_type="f32" shape="16, 1, 1, 1" offset="49360" size="64" />
			<output>
				<port id="0" precision="FP32">
					<dim>16</dim>
					<dim>1</dim>
					<dim>1</dim>
					<dim>1</dim>
				</port>
			</output>
		</layer>
		<layer id="145" name="/model.2/m.0/cv2/conv/Conv/WithoutBiases/fq_weights_1" type="Multiply" version="opset1">
			<data auto_broadcast="numpy" />
			<input>
				<port id="0" precision="FP32">
					<dim>16</dim>
					<dim>16</dim>
					<dim>3</dim>
					<dim>3</dim>
				</port>
				<port id="1" precision="FP32">
					<dim>16</dim>
					<dim>1</dim>
					<dim>1</dim>
					<dim>1</dim>
				</port>
			</input>
			<output>
				<port id="2" precision="FP32">
					<dim>16</dim>
					<dim>16</dim>
					<dim>3</dim>
					<dim>3</dim>
				</port>
			</output>
		</layer>
		<layer id="146" name="/model.2/m.0/cv2/conv/Conv/WithoutBiases" type="Convolution" version="opset1">
			<data strides="1, 1" dilations="1, 1" pads_begin="1, 1" pads_end="1, 1" auto_pad="explicit" />
			<input>
				<port id="0" precision="FP32">
					<dim>1</dim>
					<dim>16</dim>
					<dim>120</dim>
					<dim>120</dim>
				</port>
				<port id="1" precision="FP32">
					<dim>16</dim>
					<dim>16</dim>
					<dim>3</dim>
					<dim>3</dim>
				</port>
			</input>
			<output>
				<port id="2" precision="FP32">
					<dim>1</dim>
					<dim>16</dim>
					<dim>120</dim>
					<dim>120</dim>
				</port>
			</output>
		</layer>
		<layer id="147" name="model.2.m.0.cv2.conv.bias" type="Const" version="opset1">
			<data element_type="f32" shape="16" offset="49424" size="64" />
			<output>
				<port id="0" precision="FP32" names="model.2.m.0.cv2.conv.bias">
					<dim>16</dim>
				</port>
			</output>
		</layer>
		<layer id="148" name="Constant_334368" type="Const" version="opset1">
			<data element_type="i64" shape="1" offset="38368" size="8" />
			<output>
				<port id="0" precision="I64">
					<dim>1</dim>
				</port>
			</output>
		</layer>
		<layer id="149" name="ShapeOf_334375" type="ShapeOf" version="opset3">
			<data output_type="i64" />
			<input>
				<port id="0" precision="FP32">
					<dim>16</dim>
				</port>
			</input>
			<output>
				<port id="1" precision="I64">
					<dim>1</dim>
				</port>
			</output>
		</layer>
		<layer id="150" name="ShapeOf_334366" type="ShapeOf" version="opset3">
			<data output_type="i64" />
			<input>
				<port id="0" precision="FP32">
					<dim>1</dim>
					<dim>16</dim>
					<dim>120</dim>
					<dim>120</dim>
				</port>
			</input>
			<output>
				<port id="1" precision="I64">
					<dim>4</dim>
				</port>
			</output>
		</layer>
		<layer id="151" name="ShapeOf_334367" type="ShapeOf" version="opset3">
			<data output_type="i64" />
			<input>
				<port id="0" precision="I64">
					<dim>4</dim>
				</port>
			</input>
			<output>
				<port id="1" precision="I64">
					<dim>1</dim>
				</port>
			</output>
		</layer>
		<layer id="152" name="Constant_334369" type="Const" version="opset1">
			<data element_type="i64" shape="1" offset="38376" size="8" />
			<output>
				<port id="0" precision="I64">
					<dim>1</dim>
				</port>
			</output>
		</layer>
		<layer id="153" name="Subtract_334370" type="Subtract" version="opset1">
			<data auto_broadcast="numpy" />
			<input>
				<port id="0" precision="I64">
					<dim>1</dim>
				</port>
				<port id="1" precision="I64">
					<dim>1</dim>
				</port>
			</input>
			<output>
				<port id="2" precision="I64">
					<dim>1</dim>
				</port>
			</output>
		</layer>
		<layer id="154" name="Broadcast_334371" type="Broadcast" version="opset3">
			<data mode="numpy" />
			<input>
				<port id="0" precision="I64">
					<dim>1</dim>
				</port>
				<port id="1" precision="I64">
					<dim>1</dim>
				</port>
			</input>
			<output>
				<port id="2" precision="I64">
					<dim>2</dim>
				</port>
			</output>
		</layer>
		<layer id="155" name="Concat_334376" type="Concat" version="opset1">
			<data axis="0" />
			<input>
				<port id="0" precision="I64">
					<dim>1</dim>
				</port>
				<port id="1" precision="I64">
					<dim>1</dim>
				</port>
				<port id="2" precision="I64">
					<dim>2</dim>
				</port>
			</input>
			<output>
				<port id="3" precision="I64">
					<dim>4</dim>
				</port>
			</output>
		</layer>
		<layer id="156" name="Reshape_334377" type="Reshape" version="opset1">
			<data special_zero="false" />
			<input>
				<port id="0" precision="FP32">
					<dim>16</dim>
				</port>
				<port id="1" precision="I64">
					<dim>4</dim>
				</port>
			</input>
			<output>
				<port id="2" precision="FP32">
					<dim>1</dim>
					<dim>16</dim>
					<dim>1</dim>
					<dim>1</dim>
				</port>
			</output>
		</layer>
		<layer id="157" name="/model.2/m.0/cv2/conv/Conv" type="Add" version="opset1">
			<data auto_broadcast="numpy" />
			<input>
				<port id="0" precision="FP32">
					<dim>1</dim>
					<dim>16</dim>
					<dim>120</dim>
					<dim>120</dim>
				</port>
				<port id="1" precision="FP32">
					<dim>1</dim>
					<dim>16</dim>
					<dim>1</dim>
					<dim>1</dim>
				</port>
			</input>
			<output>
				<port id="2" precision="FP32" names="/model.2/m.0/cv2/conv/Conv_output_0">
					<dim>1</dim>
					<dim>16</dim>
					<dim>120</dim>
					<dim>120</dim>
				</port>
			</output>
		</layer>
		<layer id="158" name="/model.2/m.0/cv2/act/Mul/fq_input_0/input_low" type="Const" version="opset1">
			<data element_type="f32" shape="" offset="49488" size="4" />
			<output>
				<port id="0" precision="FP32" />
			</output>
		</layer>
		<layer id="159" name="/model.2/m.0/cv2/act/Mul/fq_input_0/input_high" type="Const" version="opset1">
			<data element_type="f32" shape="" offset="49492" size="4" />
			<output>
				<port id="0" precision="FP32" />
			</output>
		</layer>
		<layer id="160" name="/model.2/m.0/cv2/act/Mul/fq_input_0/output_low" type="Const" version="opset1">
			<data element_type="f32" shape="" offset="49488" size="4" />
			<output>
				<port id="0" precision="FP32" />
			</output>
		</layer>
		<layer id="161" name="/model.2/m.0/cv2/act/Mul/fq_input_0/output_high" type="Const" version="opset1">
			<data element_type="f32" shape="" offset="49492" size="4" />
			<output>
				<port id="0" precision="FP32" />
			</output>
		</layer>
		<layer id="162" name="/model.2/m.0/cv2/act/Mul/fq_input_0" type="FakeQuantize" version="opset1">
			<data levels="256" auto_broadcast="numpy" />
			<input>
				<port id="0" precision="FP32">
					<dim>1</dim>
					<dim>16</dim>
					<dim>120</dim>
					<dim>120</dim>
				</port>
				<port id="1" precision="FP32" />
				<port id="2" precision="FP32" />
				<port id="3" precision="FP32" />
				<port id="4" precision="FP32" />
			</input>
			<output>
				<port id="5" precision="FP32">
					<dim>1</dim>
					<dim>16</dim>
					<dim>120</dim>
					<dim>120</dim>
				</port>
			</output>
		</layer>
		<layer id="163" name="/model.2/m.0/cv2/act/Sigmoid" type="Sigmoid" version="opset1">
			<input>
				<port id="0" precision="FP32">
					<dim>1</dim>
					<dim>16</dim>
					<dim>120</dim>
					<dim>120</dim>
				</port>
			</input>
			<output>
				<port id="1" precision="FP32" names="/model.2/m.0/cv2/act/Sigmoid_output_0">
					<dim>1</dim>
					<dim>16</dim>
					<dim>120</dim>
					<dim>120</dim>
				</port>
			</output>
		</layer>
		<layer id="164" name="/model.2/m.0/cv2/act/Sigmoid/fq_output_0/input_low" type="Const" version="opset1">
			<data element_type="f32" shape="" offset="37800" size="4" />
			<output>
				<port id="0" precision="FP32" />
			</output>
		</layer>
		<layer id="165" name="/model.2/m.0/cv2/act/Sigmoid/fq_output_0/input_high" type="Const" version="opset1">
			<data element_type="f32" shape="" offset="49496" size="4" />
			<output>
				<port id="0" precision="FP32" />
			</output>
		</layer>
		<layer id="166" name="/model.2/m.0/cv2/act/Sigmoid/fq_output_0/output_low" type="Const" version="opset1">
			<data element_type="f32" shape="" offset="37800" size="4" />
			<output>
				<port id="0" precision="FP32" />
			</output>
		</layer>
		<layer id="167" name="/model.2/m.0/cv2/act/Sigmoid/fq_output_0/output_high" type="Const" version="opset1">
			<data element_type="f32" shape="" offset="49496" size="4" />
			<output>
				<port id="0" precision="FP32" />
			</output>
		</layer>
		<layer id="168" name="/model.2/m.0/cv2/act/Sigmoid/fq_output_0" type="FakeQuantize" version="opset1">
			<data levels="256" auto_broadcast="numpy" />
			<input>
				<port id="0" precision="FP32">
					<dim>1</dim>
					<dim>16</dim>
					<dim>120</dim>
					<dim>120</dim>
				</port>
				<port id="1" precision="FP32" />
				<port id="2" precision="FP32" />
				<port id="3" precision="FP32" />
				<port id="4" precision="FP32" />
			</input>
			<output>
				<port id="5" precision="FP32">
					<dim>1</dim>
					<dim>16</dim>
					<dim>120</dim>
					<dim>120</dim>
				</port>
			</output>
		</layer>
		<layer id="169" name="/model.2/m.0/cv2/act/Mul" type="Multiply" version="opset1">
			<data auto_broadcast="numpy" />
			<input>
				<port id="0" precision="FP32">
					<dim>1</dim>
					<dim>16</dim>
					<dim>120</dim>
					<dim>120</dim>
				</port>
				<port id="1" precision="FP32">
					<dim>1</dim>
					<dim>16</dim>
					<dim>120</dim>
					<dim>120</dim>
				</port>
			</input>
			<output>
				<port id="2" precision="FP32" names="/model.2/m.0/cv2/act/Mul_output_0">
					<dim>1</dim>
					<dim>16</dim>
					<dim>120</dim>
					<dim>120</dim>
				</port>
			</output>
		</layer>
		<layer id="170" name="/model.2/m.0/cv2/act/Mul/fq_output_0/input_low" type="Const" version="opset1">
			<data element_type="f32" shape="" offset="49500" size="4" />
			<output>
				<port id="0" precision="FP32" />
			</output>
		</layer>
		<layer id="171" name="/model.2/m.0/cv2/act/Mul/fq_output_0/input_high" type="Const" version="opset1">
			<data element_type="f32" shape="" offset="49504" size="4" />
			<output>
				<port id="0" precision="FP32" />
			</output>
		</layer>
		<layer id="172" name="/model.2/m.0/cv2/act/Mul/fq_output_0/output_low" type="Const" version="opset1">
			<data element_type="f32" shape="" offset="49500" size="4" />
			<output>
				<port id="0" precision="FP32" />
			</output>
		</layer>
		<layer id="173" name="/model.2/m.0/cv2/act/Mul/fq_output_0/output_high" type="Const" version="opset1">
			<data element_type="f32" shape="" offset="49504" size="4" />
			<output>
				<port id="0" precision="FP32" />
			</output>
		</layer>
		<layer id="174" name="/model.2/m.0/cv2/act/Mul/fq_output_0" type="FakeQuantize" version="opset1">
			<data levels="256" auto_broadcast="numpy" />
			<input>
				<port id="0" precision="FP32">
					<dim>1</dim>
					<dim>16</dim>
					<dim>120</dim>
					<dim>120</dim>
				</port>
				<port id="1" precision="FP32" />
				<port id="2" precision="FP32" />
				<port id="3" precision="FP32" />
				<port id="4" precision="FP32" />
			</input>
			<output>
				<port id="5" precision="FP32">
					<dim>1</dim>
					<dim>16</dim>
					<dim>120</dim>
					<dim>120</dim>
				</port>
			</output>
		</layer>
		<layer id="175" name="/model.2/m.0/Add" type="Add" version="opset1">
			<data auto_broadcast="numpy" />
			<input>
				<port id="0" precision="FP32">
					<dim>1</dim>
					<dim>16</dim>
					<dim>120</dim>
					<dim>120</dim>
				</port>
				<port id="1" precision="FP32">
					<dim>1</dim>
					<dim>16</dim>
					<dim>120</dim>
					<dim>120</dim>
				</port>
			</input>
			<output>
				<port id="2" precision="FP32" names="/model.2/m.0/Add_output_0">
					<dim>1</dim>
					<dim>16</dim>
					<dim>120</dim>
					<dim>120</dim>
				</port>
			</output>
		</layer>
		<layer id="176" name="/model.2/m.0/Add/fq_output_0/input_low" type="Const" version="opset1">
			<data element_type="f32" shape="" offset="44580" size="4" />
			<output>
				<port id="0" precision="FP32" />
			</output>
		</layer>
		<layer id="177" name="/model.2/m.0/Add/fq_output_0/input_high" type="Const" version="opset1">
			<data element_type="f32" shape="" offset="44584" size="4" />
			<output>
				<port id="0" precision="FP32" />
			</output>
		</layer>
		<layer id="178" name="/model.2/m.0/Add/fq_output_0/output_low" type="Const" version="opset1">
			<data element_type="f32" shape="" offset="44580" size="4" />
			<output>
				<port id="0" precision="FP32" />
			</output>
		</layer>
		<layer id="179" name="/model.2/m.0/Add/fq_output_0/output_high" type="Const" version="opset1">
			<data element_type="f32" shape="" offset="44584" size="4" />
			<output>
				<port id="0" precision="FP32" />
			</output>
		</layer>
		<layer id="180" name="/model.2/m.0/Add/fq_output_0" type="FakeQuantize" version="opset1">
			<data levels="256" auto_broadcast="numpy" />
			<input>
				<port id="0" precision="FP32">
					<dim>1</dim>
					<dim>16</dim>
					<dim>120</dim>
					<dim>120</dim>
				</port>
				<port id="1" precision="FP32" />
				<port id="2" precision="FP32" />
				<port id="3" precision="FP32" />
				<port id="4" precision="FP32" />
			</input>
			<output>
				<port id="5" precision="FP32">
					<dim>1</dim>
					<dim>16</dim>
					<dim>120</dim>
					<dim>120</dim>
				</port>
			</output>
		</layer>
		<layer id="181" name="/model.2/Concat" type="Concat" version="opset1">
			<data axis="1" />
			<input>
				<port id="0" precision="FP32">
					<dim>1</dim>
					<dim>16</dim>
					<dim>120</dim>
					<dim>120</dim>
				</port>
				<port id="1" precision="FP32">
					<dim>1</dim>
					<dim>16</dim>
					<dim>120</dim>
					<dim>120</dim>
				</port>
				<port id="2" precision="FP32">
					<dim>1</dim>
					<dim>16</dim>
					<dim>120</dim>
					<dim>120</dim>
				</port>
			</input>
			<output>
				<port id="3" precision="FP32" names="/model.2/Concat_output_0">
					<dim>1</dim>
					<dim>48</dim>
					<dim>120</dim>
					<dim>120</dim>
				</port>
			</output>
		</layer>
		<layer id="182" name="Constant_377713" type="Const" version="opset1">
			<data element_type="i8" shape="32, 48, 1, 1" offset="49508" size="1536" />
			<output>
				<port id="0" precision="I8">
					<dim>32</dim>
					<dim>48</dim>
					<dim>1</dim>
					<dim>1</dim>
				</port>
			</output>
		</layer>
		<layer id="183" name="Convert_377714" type="Convert" version="opset1">
			<data destination_type="f32" />
			<input>
				<port id="0" precision="I8">
					<dim>32</dim>
					<dim>48</dim>
					<dim>1</dim>
					<dim>1</dim>
				</port>
			</input>
			<output>
				<port id="1" precision="FP32">
					<dim>32</dim>
					<dim>48</dim>
					<dim>1</dim>
					<dim>1</dim>
				</port>
			</output>
		</layer>
		<layer id="184" name="Constant_377715" type="Const" version="opset1">
			<data element_type="f32" shape="32, 1, 1, 1" offset="51044" size="128" />
			<output>
				<port id="0" precision="FP32">
					<dim>32</dim>
					<dim>1</dim>
					<dim>1</dim>
					<dim>1</dim>
				</port>
			</output>
		</layer>
		<layer id="185" name="/model.2/cv2/conv/Conv/WithoutBiases/fq_weights_1" type="Multiply" version="opset1">
			<data auto_broadcast="numpy" />
			<input>
				<port id="0" precision="FP32">
					<dim>32</dim>
					<dim>48</dim>
					<dim>1</dim>
					<dim>1</dim>
				</port>
				<port id="1" precision="FP32">
					<dim>32</dim>
					<dim>1</dim>
					<dim>1</dim>
					<dim>1</dim>
				</port>
			</input>
			<output>
				<port id="2" precision="FP32">
					<dim>32</dim>
					<dim>48</dim>
					<dim>1</dim>
					<dim>1</dim>
				</port>
			</output>
		</layer>
		<layer id="186" name="/model.2/cv2/conv/Conv/WithoutBiases" type="Convolution" version="opset1">
			<data strides="1, 1" dilations="1, 1" pads_begin="0, 0" pads_end="0, 0" auto_pad="explicit" />
			<input>
				<port id="0" precision="FP32">
					<dim>1</dim>
					<dim>48</dim>
					<dim>120</dim>
					<dim>120</dim>
				</port>
				<port id="1" precision="FP32">
					<dim>32</dim>
					<dim>48</dim>
					<dim>1</dim>
					<dim>1</dim>
				</port>
			</input>
			<output>
				<port id="2" precision="FP32">
					<dim>1</dim>
					<dim>32</dim>
					<dim>120</dim>
					<dim>120</dim>
				</port>
			</output>
		</layer>
		<layer id="187" name="model.2.cv2.conv.bias" type="Const" version="opset1">
			<data element_type="f32" shape="32" offset="51172" size="128" />
			<output>
				<port id="0" precision="FP32" names="model.2.cv2.conv.bias">
					<dim>32</dim>
				</port>
			</output>
		</layer>
		<layer id="188" name="Constant_334388" type="Const" version="opset1">
			<data element_type="i64" shape="1" offset="38368" size="8" />
			<output>
				<port id="0" precision="I64">
					<dim>1</dim>
				</port>
			</output>
		</layer>
		<layer id="189" name="ShapeOf_334395" type="ShapeOf" version="opset3">
			<data output_type="i64" />
			<input>
				<port id="0" precision="FP32">
					<dim>32</dim>
				</port>
			</input>
			<output>
				<port id="1" precision="I64">
					<dim>1</dim>
				</port>
			</output>
		</layer>
		<layer id="190" name="ShapeOf_334386" type="ShapeOf" version="opset3">
			<data output_type="i64" />
			<input>
				<port id="0" precision="FP32">
					<dim>1</dim>
					<dim>32</dim>
					<dim>120</dim>
					<dim>120</dim>
				</port>
			</input>
			<output>
				<port id="1" precision="I64">
					<dim>4</dim>
				</port>
			</output>
		</layer>
		<layer id="191" name="ShapeOf_334387" type="ShapeOf" version="opset3">
			<data output_type="i64" />
			<input>
				<port id="0" precision="I64">
					<dim>4</dim>
				</port>
			</input>
			<output>
				<port id="1" precision="I64">
					<dim>1</dim>
				</port>
			</output>
		</layer>
		<layer id="192" name="Constant_334389" type="Const" version="opset1">
			<data element_type="i64" shape="1" offset="38376" size="8" />
			<output>
				<port id="0" precision="I64">
					<dim>1</dim>
				</port>
			</output>
		</layer>
		<layer id="193" name="Subtract_334390" type="Subtract" version="opset1">
			<data auto_broadcast="numpy" />
			<input>
				<port id="0" precision="I64">
					<dim>1</dim>
				</port>
				<port id="1" precision="I64">
					<dim>1</dim>
				</port>
			</input>
			<output>
				<port id="2" precision="I64">
					<dim>1</dim>
				</port>
			</output>
		</layer>
		<layer id="194" name="Broadcast_334391" type="Broadcast" version="opset3">
			<data mode="numpy" />
			<input>
				<port id="0" precision="I64">
					<dim>1</dim>
				</port>
				<port id="1" precision="I64">
					<dim>1</dim>
				</port>
			</input>
			<output>
				<port id="2" precision="I64">
					<dim>2</dim>
				</port>
			</output>
		</layer>
		<layer id="195" name="Concat_334396" type="Concat" version="opset1">
			<data axis="0" />
			<input>
				<port id="0" precision="I64">
					<dim>1</dim>
				</port>
				<port id="1" precision="I64">
					<dim>1</dim>
				</port>
				<port id="2" precision="I64">
					<dim>2</dim>
				</port>
			</input>
			<output>
				<port id="3" precision="I64">
					<dim>4</dim>
				</port>
			</output>
		</layer>
		<layer id="196" name="Reshape_334397" type="Reshape" version="opset1">
			<data special_zero="false" />
			<input>
				<port id="0" precision="FP32">
					<dim>32</dim>
				</port>
				<port id="1" precision="I64">
					<dim>4</dim>
				</port>
			</input>
			<output>
				<port id="2" precision="FP32">
					<dim>1</dim>
					<dim>32</dim>
					<dim>1</dim>
					<dim>1</dim>
				</port>
			</output>
		</layer>
		<layer id="197" name="/model.2/cv2/conv/Conv" type="Add" version="opset1">
			<data auto_broadcast="numpy" />
			<input>
				<port id="0" precision="FP32">
					<dim>1</dim>
					<dim>32</dim>
					<dim>120</dim>
					<dim>120</dim>
				</port>
				<port id="1" precision="FP32">
					<dim>1</dim>
					<dim>32</dim>
					<dim>1</dim>
					<dim>1</dim>
				</port>
			</input>
			<output>
				<port id="2" precision="FP32" names="/model.2/cv2/conv/Conv_output_0">
					<dim>1</dim>
					<dim>32</dim>
					<dim>120</dim>
					<dim>120</dim>
				</port>
			</output>
		</layer>
		<layer id="198" name="/model.2/cv2/act/Mul/fq_input_0/input_low" type="Const" version="opset1">
			<data element_type="f32" shape="" offset="51300" size="4" />
			<output>
				<port id="0" precision="FP32" />
			</output>
		</layer>
		<layer id="199" name="/model.2/cv2/act/Mul/fq_input_0/input_high" type="Const" version="opset1">
			<data element_type="f32" shape="" offset="51304" size="4" />
			<output>
				<port id="0" precision="FP32" />
			</output>
		</layer>
		<layer id="200" name="/model.2/cv2/act/Mul/fq_input_0/output_low" type="Const" version="opset1">
			<data element_type="f32" shape="" offset="51300" size="4" />
			<output>
				<port id="0" precision="FP32" />
			</output>
		</layer>
		<layer id="201" name="/model.2/cv2/act/Mul/fq_input_0/output_high" type="Const" version="opset1">
			<data element_type="f32" shape="" offset="51304" size="4" />
			<output>
				<port id="0" precision="FP32" />
			</output>
		</layer>
		<layer id="202" name="/model.2/cv2/act/Mul/fq_input_0" type="FakeQuantize" version="opset1">
			<data levels="256" auto_broadcast="numpy" />
			<input>
				<port id="0" precision="FP32">
					<dim>1</dim>
					<dim>32</dim>
					<dim>120</dim>
					<dim>120</dim>
				</port>
				<port id="1" precision="FP32" />
				<port id="2" precision="FP32" />
				<port id="3" precision="FP32" />
				<port id="4" precision="FP32" />
			</input>
			<output>
				<port id="5" precision="FP32">
					<dim>1</dim>
					<dim>32</dim>
					<dim>120</dim>
					<dim>120</dim>
				</port>
			</output>
		</layer>
		<layer id="203" name="/model.2/cv2/act/Sigmoid" type="Sigmoid" version="opset1">
			<input>
				<port id="0" precision="FP32">
					<dim>1</dim>
					<dim>32</dim>
					<dim>120</dim>
					<dim>120</dim>
				</port>
			</input>
			<output>
				<port id="1" precision="FP32" names="/model.2/cv2/act/Sigmoid_output_0">
					<dim>1</dim>
					<dim>32</dim>
					<dim>120</dim>
					<dim>120</dim>
				</port>
			</output>
		</layer>
		<layer id="204" name="/model.2/cv2/act/Sigmoid/fq_output_0/input_low" type="Const" version="opset1">
			<data element_type="f32" shape="" offset="37800" size="4" />
			<output>
				<port id="0" precision="FP32" />
			</output>
		</layer>
		<layer id="205" name="/model.2/cv2/act/Sigmoid/fq_output_0/input_high" type="Const" version="opset1">
			<data element_type="f32" shape="" offset="51308" size="4" />
			<output>
				<port id="0" precision="FP32" />
			</output>
		</layer>
		<layer id="206" name="/model.2/cv2/act/Sigmoid/fq_output_0/output_low" type="Const" version="opset1">
			<data element_type="f32" shape="" offset="37800" size="4" />
			<output>
				<port id="0" precision="FP32" />
			</output>
		</layer>
		<layer id="207" name="/model.2/cv2/act/Sigmoid/fq_output_0/output_high" type="Const" version="opset1">
			<data element_type="f32" shape="" offset="51308" size="4" />
			<output>
				<port id="0" precision="FP32" />
			</output>
		</layer>
		<layer id="208" name="/model.2/cv2/act/Sigmoid/fq_output_0" type="FakeQuantize" version="opset1">
			<data levels="256" auto_broadcast="numpy" />
			<input>
				<port id="0" precision="FP32">
					<dim>1</dim>
					<dim>32</dim>
					<dim>120</dim>
					<dim>120</dim>
				</port>
				<port id="1" precision="FP32" />
				<port id="2" precision="FP32" />
				<port id="3" precision="FP32" />
				<port id="4" precision="FP32" />
			</input>
			<output>
				<port id="5" precision="FP32">
					<dim>1</dim>
					<dim>32</dim>
					<dim>120</dim>
					<dim>120</dim>
				</port>
			</output>
		</layer>
		<layer id="209" name="/model.2/cv2/act/Mul" type="Multiply" version="opset1">
			<data auto_broadcast="numpy" />
			<input>
				<port id="0" precision="FP32">
					<dim>1</dim>
					<dim>32</dim>
					<dim>120</dim>
					<dim>120</dim>
				</port>
				<port id="1" precision="FP32">
					<dim>1</dim>
					<dim>32</dim>
					<dim>120</dim>
					<dim>120</dim>
				</port>
			</input>
			<output>
				<port id="2" precision="FP32" names="/model.2/cv2/act/Mul_output_0">
					<dim>1</dim>
					<dim>32</dim>
					<dim>120</dim>
					<dim>120</dim>
				</port>
			</output>
		</layer>
		<layer id="210" name="/model.2/cv2/act/Mul/fq_output_0/input_low" type="Const" version="opset1">
			<data element_type="f32" shape="" offset="51312" size="4" />
			<output>
				<port id="0" precision="FP32" />
			</output>
		</layer>
		<layer id="211" name="/model.2/cv2/act/Mul/fq_output_0/input_high" type="Const" version="opset1">
			<data element_type="f32" shape="" offset="51316" size="4" />
			<output>
				<port id="0" precision="FP32" />
			</output>
		</layer>
		<layer id="212" name="/model.2/cv2/act/Mul/fq_output_0/output_low" type="Const" version="opset1">
			<data element_type="f32" shape="" offset="51312" size="4" />
			<output>
				<port id="0" precision="FP32" />
			</output>
		</layer>
		<layer id="213" name="/model.2/cv2/act/Mul/fq_output_0/output_high" type="Const" version="opset1">
			<data element_type="f32" shape="" offset="51316" size="4" />
			<output>
				<port id="0" precision="FP32" />
			</output>
		</layer>
		<layer id="214" name="/model.2/cv2/act/Mul/fq_output_0" type="FakeQuantize" version="opset1">
			<data levels="256" auto_broadcast="numpy" />
			<input>
				<port id="0" precision="FP32">
					<dim>1</dim>
					<dim>32</dim>
					<dim>120</dim>
					<dim>120</dim>
				</port>
				<port id="1" precision="FP32" />
				<port id="2" precision="FP32" />
				<port id="3" precision="FP32" />
				<port id="4" precision="FP32" />
			</input>
			<output>
				<port id="5" precision="FP32">
					<dim>1</dim>
					<dim>32</dim>
					<dim>120</dim>
					<dim>120</dim>
				</port>
			</output>
		</layer>
		<layer id="215" name="Constant_377717" type="Const" version="opset1">
			<data element_type="i8" shape="64, 32, 3, 3" offset="51320" size="18432" />
			<output>
				<port id="0" precision="I8">
					<dim>64</dim>
					<dim>32</dim>
					<dim>3</dim>
					<dim>3</dim>
				</port>
			</output>
		</layer>
		<layer id="216" name="Convert_377718" type="Convert" version="opset1">
			<data destination_type="f32" />
			<input>
				<port id="0" precision="I8">
					<dim>64</dim>
					<dim>32</dim>
					<dim>3</dim>
					<dim>3</dim>
				</port>
			</input>
			<output>
				<port id="1" precision="FP32">
					<dim>64</dim>
					<dim>32</dim>
					<dim>3</dim>
					<dim>3</dim>
				</port>
			</output>
		</layer>
		<layer id="217" name="Constant_377719" type="Const" version="opset1">
			<data element_type="f32" shape="64, 1, 1, 1" offset="69752" size="256" />
			<output>
				<port id="0" precision="FP32">
					<dim>64</dim>
					<dim>1</dim>
					<dim>1</dim>
					<dim>1</dim>
				</port>
			</output>
		</layer>
		<layer id="218" name="/model.3/conv/Conv/WithoutBiases/fq_weights_1" type="Multiply" version="opset1">
			<data auto_broadcast="numpy" />
			<input>
				<port id="0" precision="FP32">
					<dim>64</dim>
					<dim>32</dim>
					<dim>3</dim>
					<dim>3</dim>
				</port>
				<port id="1" precision="FP32">
					<dim>64</dim>
					<dim>1</dim>
					<dim>1</dim>
					<dim>1</dim>
				</port>
			</input>
			<output>
				<port id="2" precision="FP32">
					<dim>64</dim>
					<dim>32</dim>
					<dim>3</dim>
					<dim>3</dim>
				</port>
			</output>
		</layer>
		<layer id="219" name="/model.3/conv/Conv/WithoutBiases" type="Convolution" version="opset1">
			<data strides="2, 2" dilations="1, 1" pads_begin="1, 1" pads_end="1, 1" auto_pad="explicit" />
			<input>
				<port id="0" precision="FP32">
					<dim>1</dim>
					<dim>32</dim>
					<dim>120</dim>
					<dim>120</dim>
				</port>
				<port id="1" precision="FP32">
					<dim>64</dim>
					<dim>32</dim>
					<dim>3</dim>
					<dim>3</dim>
				</port>
			</input>
			<output>
				<port id="2" precision="FP32">
					<dim>1</dim>
					<dim>64</dim>
					<dim>60</dim>
					<dim>60</dim>
				</port>
			</output>
		</layer>
		<layer id="220" name="model.3.conv.bias" type="Const" version="opset1">
			<data element_type="f32" shape="64" offset="70008" size="256" />
			<output>
				<port id="0" precision="FP32" names="model.3.conv.bias">
					<dim>64</dim>
				</port>
			</output>
		</layer>
		<layer id="221" name="Constant_334406" type="Const" version="opset1">
			<data element_type="i64" shape="1" offset="38368" size="8" />
			<output>
				<port id="0" precision="I64">
					<dim>1</dim>
				</port>
			</output>
		</layer>
		<layer id="222" name="ShapeOf_334413" type="ShapeOf" version="opset3">
			<data output_type="i64" />
			<input>
				<port id="0" precision="FP32">
					<dim>64</dim>
				</port>
			</input>
			<output>
				<port id="1" precision="I64">
					<dim>1</dim>
				</port>
			</output>
		</layer>
		<layer id="223" name="ShapeOf_334404" type="ShapeOf" version="opset3">
			<data output_type="i64" />
			<input>
				<port id="0" precision="FP32">
					<dim>1</dim>
					<dim>64</dim>
					<dim>60</dim>
					<dim>60</dim>
				</port>
			</input>
			<output>
				<port id="1" precision="I64">
					<dim>4</dim>
				</port>
			</output>
		</layer>
		<layer id="224" name="ShapeOf_334405" type="ShapeOf" version="opset3">
			<data output_type="i64" />
			<input>
				<port id="0" precision="I64">
					<dim>4</dim>
				</port>
			</input>
			<output>
				<port id="1" precision="I64">
					<dim>1</dim>
				</port>
			</output>
		</layer>
		<layer id="225" name="Constant_334407" type="Const" version="opset1">
			<data element_type="i64" shape="1" offset="38376" size="8" />
			<output>
				<port id="0" precision="I64">
					<dim>1</dim>
				</port>
			</output>
		</layer>
		<layer id="226" name="Subtract_334408" type="Subtract" version="opset1">
			<data auto_broadcast="numpy" />
			<input>
				<port id="0" precision="I64">
					<dim>1</dim>
				</port>
				<port id="1" precision="I64">
					<dim>1</dim>
				</port>
			</input>
			<output>
				<port id="2" precision="I64">
					<dim>1</dim>
				</port>
			</output>
		</layer>
		<layer id="227" name="Broadcast_334409" type="Broadcast" version="opset3">
			<data mode="numpy" />
			<input>
				<port id="0" precision="I64">
					<dim>1</dim>
				</port>
				<port id="1" precision="I64">
					<dim>1</dim>
				</port>
			</input>
			<output>
				<port id="2" precision="I64">
					<dim>2</dim>
				</port>
			</output>
		</layer>
		<layer id="228" name="Concat_334414" type="Concat" version="opset1">
			<data axis="0" />
			<input>
				<port id="0" precision="I64">
					<dim>1</dim>
				</port>
				<port id="1" precision="I64">
					<dim>1</dim>
				</port>
				<port id="2" precision="I64">
					<dim>2</dim>
				</port>
			</input>
			<output>
				<port id="3" precision="I64">
					<dim>4</dim>
				</port>
			</output>
		</layer>
		<layer id="229" name="Reshape_334415" type="Reshape" version="opset1">
			<data special_zero="false" />
			<input>
				<port id="0" precision="FP32">
					<dim>64</dim>
				</port>
				<port id="1" precision="I64">
					<dim>4</dim>
				</port>
			</input>
			<output>
				<port id="2" precision="FP32">
					<dim>1</dim>
					<dim>64</dim>
					<dim>1</dim>
					<dim>1</dim>
				</port>
			</output>
		</layer>
		<layer id="230" name="/model.3/conv/Conv" type="Add" version="opset1">
			<data auto_broadcast="numpy" />
			<input>
				<port id="0" precision="FP32">
					<dim>1</dim>
					<dim>64</dim>
					<dim>60</dim>
					<dim>60</dim>
				</port>
				<port id="1" precision="FP32">
					<dim>1</dim>
					<dim>64</dim>
					<dim>1</dim>
					<dim>1</dim>
				</port>
			</input>
			<output>
				<port id="2" precision="FP32" names="/model.3/conv/Conv_output_0">
					<dim>1</dim>
					<dim>64</dim>
					<dim>60</dim>
					<dim>60</dim>
				</port>
			</output>
		</layer>
		<layer id="231" name="/model.3/act/Mul/fq_input_0/input_low" type="Const" version="opset1">
			<data element_type="f32" shape="" offset="70264" size="4" />
			<output>
				<port id="0" precision="FP32" />
			</output>
		</layer>
		<layer id="232" name="/model.3/act/Mul/fq_input_0/input_high" type="Const" version="opset1">
			<data element_type="f32" shape="" offset="70268" size="4" />
			<output>
				<port id="0" precision="FP32" />
			</output>
		</layer>
		<layer id="233" name="/model.3/act/Mul/fq_input_0/output_low" type="Const" version="opset1">
			<data element_type="f32" shape="" offset="70264" size="4" />
			<output>
				<port id="0" precision="FP32" />
			</output>
		</layer>
		<layer id="234" name="/model.3/act/Mul/fq_input_0/output_high" type="Const" version="opset1">
			<data element_type="f32" shape="" offset="70268" size="4" />
			<output>
				<port id="0" precision="FP32" />
			</output>
		</layer>
		<layer id="235" name="/model.3/act/Mul/fq_input_0" type="FakeQuantize" version="opset1">
			<data levels="256" auto_broadcast="numpy" />
			<input>
				<port id="0" precision="FP32">
					<dim>1</dim>
					<dim>64</dim>
					<dim>60</dim>
					<dim>60</dim>
				</port>
				<port id="1" precision="FP32" />
				<port id="2" precision="FP32" />
				<port id="3" precision="FP32" />
				<port id="4" precision="FP32" />
			</input>
			<output>
				<port id="5" precision="FP32">
					<dim>1</dim>
					<dim>64</dim>
					<dim>60</dim>
					<dim>60</dim>
				</port>
			</output>
		</layer>
		<layer id="236" name="/model.3/act/Sigmoid" type="Sigmoid" version="opset1">
			<input>
				<port id="0" precision="FP32">
					<dim>1</dim>
					<dim>64</dim>
					<dim>60</dim>
					<dim>60</dim>
				</port>
			</input>
			<output>
				<port id="1" precision="FP32" names="/model.3/act/Sigmoid_output_0">
					<dim>1</dim>
					<dim>64</dim>
					<dim>60</dim>
					<dim>60</dim>
				</port>
			</output>
		</layer>
		<layer id="237" name="/model.3/act/Sigmoid/fq_output_0/input_low" type="Const" version="opset1">
			<data element_type="f32" shape="" offset="37800" size="4" />
			<output>
				<port id="0" precision="FP32" />
			</output>
		</layer>
		<layer id="238" name="/model.3/act/Sigmoid/fq_output_0/input_high" type="Const" version="opset1">
			<data element_type="f32" shape="" offset="70272" size="4" />
			<output>
				<port id="0" precision="FP32" />
			</output>
		</layer>
		<layer id="239" name="/model.3/act/Sigmoid/fq_output_0/output_low" type="Const" version="opset1">
			<data element_type="f32" shape="" offset="37800" size="4" />
			<output>
				<port id="0" precision="FP32" />
			</output>
		</layer>
		<layer id="240" name="/model.3/act/Sigmoid/fq_output_0/output_high" type="Const" version="opset1">
			<data element_type="f32" shape="" offset="70272" size="4" />
			<output>
				<port id="0" precision="FP32" />
			</output>
		</layer>
		<layer id="241" name="/model.3/act/Sigmoid/fq_output_0" type="FakeQuantize" version="opset1">
			<data levels="256" auto_broadcast="numpy" />
			<input>
				<port id="0" precision="FP32">
					<dim>1</dim>
					<dim>64</dim>
					<dim>60</dim>
					<dim>60</dim>
				</port>
				<port id="1" precision="FP32" />
				<port id="2" precision="FP32" />
				<port id="3" precision="FP32" />
				<port id="4" precision="FP32" />
			</input>
			<output>
				<port id="5" precision="FP32">
					<dim>1</dim>
					<dim>64</dim>
					<dim>60</dim>
					<dim>60</dim>
				</port>
			</output>
		</layer>
		<layer id="242" name="/model.3/act/Mul" type="Multiply" version="opset1">
			<data auto_broadcast="numpy" />
			<input>
				<port id="0" precision="FP32">
					<dim>1</dim>
					<dim>64</dim>
					<dim>60</dim>
					<dim>60</dim>
				</port>
				<port id="1" precision="FP32">
					<dim>1</dim>
					<dim>64</dim>
					<dim>60</dim>
					<dim>60</dim>
				</port>
			</input>
			<output>
				<port id="2" precision="FP32" names="/model.3/act/Mul_output_0">
					<dim>1</dim>
					<dim>64</dim>
					<dim>60</dim>
					<dim>60</dim>
				</port>
			</output>
		</layer>
		<layer id="243" name="/model.3/act/Mul/fq_output_0/input_low" type="Const" version="opset1">
			<data element_type="f32" shape="" offset="70276" size="4" />
			<output>
				<port id="0" precision="FP32" />
			</output>
		</layer>
		<layer id="244" name="/model.3/act/Mul/fq_output_0/input_high" type="Const" version="opset1">
			<data element_type="f32" shape="" offset="70280" size="4" />
			<output>
				<port id="0" precision="FP32" />
			</output>
		</layer>
		<layer id="245" name="/model.3/act/Mul/fq_output_0/output_low" type="Const" version="opset1">
			<data element_type="f32" shape="" offset="70276" size="4" />
			<output>
				<port id="0" precision="FP32" />
			</output>
		</layer>
		<layer id="246" name="/model.3/act/Mul/fq_output_0/output_high" type="Const" version="opset1">
			<data element_type="f32" shape="" offset="70280" size="4" />
			<output>
				<port id="0" precision="FP32" />
			</output>
		</layer>
		<layer id="247" name="/model.3/act/Mul/fq_output_0" type="FakeQuantize" version="opset1">
			<data levels="256" auto_broadcast="numpy" />
			<input>
				<port id="0" precision="FP32">
					<dim>1</dim>
					<dim>64</dim>
					<dim>60</dim>
					<dim>60</dim>
				</port>
				<port id="1" precision="FP32" />
				<port id="2" precision="FP32" />
				<port id="3" precision="FP32" />
				<port id="4" precision="FP32" />
			</input>
			<output>
				<port id="5" precision="FP32">
					<dim>1</dim>
					<dim>64</dim>
					<dim>60</dim>
					<dim>60</dim>
				</port>
			</output>
		</layer>
		<layer id="248" name="Constant_377721" type="Const" version="opset1">
			<data element_type="i8" shape="64, 64, 1, 1" offset="70284" size="4096" />
			<output>
				<port id="0" precision="I8">
					<dim>64</dim>
					<dim>64</dim>
					<dim>1</dim>
					<dim>1</dim>
				</port>
			</output>
		</layer>
		<layer id="249" name="Convert_377722" type="Convert" version="opset1">
			<data destination_type="f32" />
			<input>
				<port id="0" precision="I8">
					<dim>64</dim>
					<dim>64</dim>
					<dim>1</dim>
					<dim>1</dim>
				</port>
			</input>
			<output>
				<port id="1" precision="FP32">
					<dim>64</dim>
					<dim>64</dim>
					<dim>1</dim>
					<dim>1</dim>
				</port>
			</output>
		</layer>
		<layer id="250" name="Constant_377723" type="Const" version="opset1">
			<data element_type="f32" shape="64, 1, 1, 1" offset="74380" size="256" />
			<output>
				<port id="0" precision="FP32">
					<dim>64</dim>
					<dim>1</dim>
					<dim>1</dim>
					<dim>1</dim>
				</port>
			</output>
		</layer>
		<layer id="251" name="/model.4/cv1/conv/Conv/WithoutBiases/fq_weights_1" type="Multiply" version="opset1">
			<data auto_broadcast="numpy" />
			<input>
				<port id="0" precision="FP32">
					<dim>64</dim>
					<dim>64</dim>
					<dim>1</dim>
					<dim>1</dim>
				</port>
				<port id="1" precision="FP32">
					<dim>64</dim>
					<dim>1</dim>
					<dim>1</dim>
					<dim>1</dim>
				</port>
			</input>
			<output>
				<port id="2" precision="FP32">
					<dim>64</dim>
					<dim>64</dim>
					<dim>1</dim>
					<dim>1</dim>
				</port>
			</output>
		</layer>
		<layer id="252" name="/model.4/cv1/conv/Conv/WithoutBiases" type="Convolution" version="opset1">
			<data strides="1, 1" dilations="1, 1" pads_begin="0, 0" pads_end="0, 0" auto_pad="explicit" />
			<input>
				<port id="0" precision="FP32">
					<dim>1</dim>
					<dim>64</dim>
					<dim>60</dim>
					<dim>60</dim>
				</port>
				<port id="1" precision="FP32">
					<dim>64</dim>
					<dim>64</dim>
					<dim>1</dim>
					<dim>1</dim>
				</port>
			</input>
			<output>
				<port id="2" precision="FP32">
					<dim>1</dim>
					<dim>64</dim>
					<dim>60</dim>
					<dim>60</dim>
				</port>
			</output>
		</layer>
		<layer id="253" name="model.4.cv1.conv.bias" type="Const" version="opset1">
			<data element_type="f32" shape="64" offset="74636" size="256" />
			<output>
				<port id="0" precision="FP32" names="model.4.cv1.conv.bias">
					<dim>64</dim>
				</port>
			</output>
		</layer>
		<layer id="254" name="Constant_334424" type="Const" version="opset1">
			<data element_type="i64" shape="1" offset="38368" size="8" />
			<output>
				<port id="0" precision="I64">
					<dim>1</dim>
				</port>
			</output>
		</layer>
		<layer id="255" name="ShapeOf_334431" type="ShapeOf" version="opset3">
			<data output_type="i64" />
			<input>
				<port id="0" precision="FP32">
					<dim>64</dim>
				</port>
			</input>
			<output>
				<port id="1" precision="I64">
					<dim>1</dim>
				</port>
			</output>
		</layer>
		<layer id="256" name="ShapeOf_334422" type="ShapeOf" version="opset3">
			<data output_type="i64" />
			<input>
				<port id="0" precision="FP32">
					<dim>1</dim>
					<dim>64</dim>
					<dim>60</dim>
					<dim>60</dim>
				</port>
			</input>
			<output>
				<port id="1" precision="I64">
					<dim>4</dim>
				</port>
			</output>
		</layer>
		<layer id="257" name="ShapeOf_334423" type="ShapeOf" version="opset3">
			<data output_type="i64" />
			<input>
				<port id="0" precision="I64">
					<dim>4</dim>
				</port>
			</input>
			<output>
				<port id="1" precision="I64">
					<dim>1</dim>
				</port>
			</output>
		</layer>
		<layer id="258" name="Constant_334425" type="Const" version="opset1">
			<data element_type="i64" shape="1" offset="38376" size="8" />
			<output>
				<port id="0" precision="I64">
					<dim>1</dim>
				</port>
			</output>
		</layer>
		<layer id="259" name="Subtract_334426" type="Subtract" version="opset1">
			<data auto_broadcast="numpy" />
			<input>
				<port id="0" precision="I64">
					<dim>1</dim>
				</port>
				<port id="1" precision="I64">
					<dim>1</dim>
				</port>
			</input>
			<output>
				<port id="2" precision="I64">
					<dim>1</dim>
				</port>
			</output>
		</layer>
		<layer id="260" name="Broadcast_334427" type="Broadcast" version="opset3">
			<data mode="numpy" />
			<input>
				<port id="0" precision="I64">
					<dim>1</dim>
				</port>
				<port id="1" precision="I64">
					<dim>1</dim>
				</port>
			</input>
			<output>
				<port id="2" precision="I64">
					<dim>2</dim>
				</port>
			</output>
		</layer>
		<layer id="261" name="Concat_334432" type="Concat" version="opset1">
			<data axis="0" />
			<input>
				<port id="0" precision="I64">
					<dim>1</dim>
				</port>
				<port id="1" precision="I64">
					<dim>1</dim>
				</port>
				<port id="2" precision="I64">
					<dim>2</dim>
				</port>
			</input>
			<output>
				<port id="3" precision="I64">
					<dim>4</dim>
				</port>
			</output>
		</layer>
		<layer id="262" name="Reshape_334433" type="Reshape" version="opset1">
			<data special_zero="false" />
			<input>
				<port id="0" precision="FP32">
					<dim>64</dim>
				</port>
				<port id="1" precision="I64">
					<dim>4</dim>
				</port>
			</input>
			<output>
				<port id="2" precision="FP32">
					<dim>1</dim>
					<dim>64</dim>
					<dim>1</dim>
					<dim>1</dim>
				</port>
			</output>
		</layer>
		<layer id="263" name="/model.4/cv1/conv/Conv" type="Add" version="opset1">
			<data auto_broadcast="numpy" />
			<input>
				<port id="0" precision="FP32">
					<dim>1</dim>
					<dim>64</dim>
					<dim>60</dim>
					<dim>60</dim>
				</port>
				<port id="1" precision="FP32">
					<dim>1</dim>
					<dim>64</dim>
					<dim>1</dim>
					<dim>1</dim>
				</port>
			</input>
			<output>
				<port id="2" precision="FP32" names="/model.4/cv1/conv/Conv_output_0">
					<dim>1</dim>
					<dim>64</dim>
					<dim>60</dim>
					<dim>60</dim>
				</port>
			</output>
		</layer>
		<layer id="264" name="/model.4/cv1/act/Mul/fq_input_0/input_low" type="Const" version="opset1">
			<data element_type="f32" shape="" offset="74892" size="4" />
			<output>
				<port id="0" precision="FP32" />
			</output>
		</layer>
		<layer id="265" name="/model.4/cv1/act/Mul/fq_input_0/input_high" type="Const" version="opset1">
			<data element_type="f32" shape="" offset="74896" size="4" />
			<output>
				<port id="0" precision="FP32" />
			</output>
		</layer>
		<layer id="266" name="/model.4/cv1/act/Mul/fq_input_0/output_low" type="Const" version="opset1">
			<data element_type="f32" shape="" offset="74892" size="4" />
			<output>
				<port id="0" precision="FP32" />
			</output>
		</layer>
		<layer id="267" name="/model.4/cv1/act/Mul/fq_input_0/output_high" type="Const" version="opset1">
			<data element_type="f32" shape="" offset="74896" size="4" />
			<output>
				<port id="0" precision="FP32" />
			</output>
		</layer>
		<layer id="268" name="/model.4/cv1/act/Mul/fq_input_0" type="FakeQuantize" version="opset1">
			<data levels="256" auto_broadcast="numpy" />
			<input>
				<port id="0" precision="FP32">
					<dim>1</dim>
					<dim>64</dim>
					<dim>60</dim>
					<dim>60</dim>
				</port>
				<port id="1" precision="FP32" />
				<port id="2" precision="FP32" />
				<port id="3" precision="FP32" />
				<port id="4" precision="FP32" />
			</input>
			<output>
				<port id="5" precision="FP32">
					<dim>1</dim>
					<dim>64</dim>
					<dim>60</dim>
					<dim>60</dim>
				</port>
			</output>
		</layer>
		<layer id="269" name="/model.4/cv1/act/Sigmoid" type="Sigmoid" version="opset1">
			<input>
				<port id="0" precision="FP32">
					<dim>1</dim>
					<dim>64</dim>
					<dim>60</dim>
					<dim>60</dim>
				</port>
			</input>
			<output>
				<port id="1" precision="FP32" names="/model.4/cv1/act/Sigmoid_output_0">
					<dim>1</dim>
					<dim>64</dim>
					<dim>60</dim>
					<dim>60</dim>
				</port>
			</output>
		</layer>
		<layer id="270" name="/model.4/cv1/act/Sigmoid/fq_output_0/input_low" type="Const" version="opset1">
			<data element_type="f32" shape="" offset="37800" size="4" />
			<output>
				<port id="0" precision="FP32" />
			</output>
		</layer>
		<layer id="271" name="/model.4/cv1/act/Sigmoid/fq_output_0/input_high" type="Const" version="opset1">
			<data element_type="f32" shape="" offset="74900" size="4" />
			<output>
				<port id="0" precision="FP32" />
			</output>
		</layer>
		<layer id="272" name="/model.4/cv1/act/Sigmoid/fq_output_0/output_low" type="Const" version="opset1">
			<data element_type="f32" shape="" offset="37800" size="4" />
			<output>
				<port id="0" precision="FP32" />
			</output>
		</layer>
		<layer id="273" name="/model.4/cv1/act/Sigmoid/fq_output_0/output_high" type="Const" version="opset1">
			<data element_type="f32" shape="" offset="74900" size="4" />
			<output>
				<port id="0" precision="FP32" />
			</output>
		</layer>
		<layer id="274" name="/model.4/cv1/act/Sigmoid/fq_output_0" type="FakeQuantize" version="opset1">
			<data levels="256" auto_broadcast="numpy" />
			<input>
				<port id="0" precision="FP32">
					<dim>1</dim>
					<dim>64</dim>
					<dim>60</dim>
					<dim>60</dim>
				</port>
				<port id="1" precision="FP32" />
				<port id="2" precision="FP32" />
				<port id="3" precision="FP32" />
				<port id="4" precision="FP32" />
			</input>
			<output>
				<port id="5" precision="FP32">
					<dim>1</dim>
					<dim>64</dim>
					<dim>60</dim>
					<dim>60</dim>
				</port>
			</output>
		</layer>
		<layer id="275" name="/model.4/cv1/act/Mul" type="Multiply" version="opset1">
			<data auto_broadcast="numpy" />
			<input>
				<port id="0" precision="FP32">
					<dim>1</dim>
					<dim>64</dim>
					<dim>60</dim>
					<dim>60</dim>
				</port>
				<port id="1" precision="FP32">
					<dim>1</dim>
					<dim>64</dim>
					<dim>60</dim>
					<dim>60</dim>
				</port>
			</input>
			<output>
				<port id="2" precision="FP32" names="/model.4/cv1/act/Mul_output_0">
					<dim>1</dim>
					<dim>64</dim>
					<dim>60</dim>
					<dim>60</dim>
				</port>
			</output>
		</layer>
		<layer id="276" name="/model.4/cv1/act/Mul/fq_output_0/input_low" type="Const" version="opset1">
			<data element_type="f32" shape="" offset="74904" size="4" />
			<output>
				<port id="0" precision="FP32" />
			</output>
		</layer>
		<layer id="277" name="/model.4/cv1/act/Mul/fq_output_0/input_high" type="Const" version="opset1">
			<data element_type="f32" shape="" offset="74908" size="4" />
			<output>
				<port id="0" precision="FP32" />
			</output>
		</layer>
		<layer id="278" name="/model.4/cv1/act/Mul/fq_output_0/output_low" type="Const" version="opset1">
			<data element_type="f32" shape="" offset="74904" size="4" />
			<output>
				<port id="0" precision="FP32" />
			</output>
		</layer>
		<layer id="279" name="/model.4/cv1/act/Mul/fq_output_0/output_high" type="Const" version="opset1">
			<data element_type="f32" shape="" offset="74908" size="4" />
			<output>
				<port id="0" precision="FP32" />
			</output>
		</layer>
		<layer id="280" name="/model.4/cv1/act/Mul/fq_output_0" type="FakeQuantize" version="opset1">
			<data levels="256" auto_broadcast="numpy" />
			<input>
				<port id="0" precision="FP32">
					<dim>1</dim>
					<dim>64</dim>
					<dim>60</dim>
					<dim>60</dim>
				</port>
				<port id="1" precision="FP32" />
				<port id="2" precision="FP32" />
				<port id="3" precision="FP32" />
				<port id="4" precision="FP32" />
			</input>
			<output>
				<port id="5" precision="FP32">
					<dim>1</dim>
					<dim>64</dim>
					<dim>60</dim>
					<dim>60</dim>
				</port>
			</output>
		</layer>
		<layer id="281" name="Constant_334440" type="Const" version="opset1">
			<data element_type="i64" shape="" offset="38368" size="8" />
			<output>
				<port id="0" precision="I64" />
			</output>
		</layer>
		<layer id="282" name="Constant_28" type="Const" version="opset1">
			<data element_type="i64" shape="2" offset="74912" size="16" />
			<output>
				<port id="0" precision="I64" names="onnx::Split_244">
					<dim>2</dim>
				</port>
			</output>
		</layer>
		<layer id="283" name="/model.4/Split" type="VariadicSplit" version="opset1">
			<input>
				<port id="0" precision="FP32">
					<dim>1</dim>
					<dim>64</dim>
					<dim>60</dim>
					<dim>60</dim>
				</port>
				<port id="1" precision="I64" />
				<port id="2" precision="I64">
					<dim>2</dim>
				</port>
			</input>
			<output>
				<port id="3" precision="FP32" names="/model.4/Split_output_0">
					<dim>1</dim>
					<dim>32</dim>
					<dim>60</dim>
					<dim>60</dim>
				</port>
				<port id="4" precision="FP32" names="/model.4/Split_output_1">
					<dim>1</dim>
					<dim>32</dim>
					<dim>60</dim>
					<dim>60</dim>
				</port>
			</output>
		</layer>
		<layer id="284" name="Constant_377725" type="Const" version="opset1">
			<data element_type="i8" shape="32, 32, 3, 3" offset="74928" size="9216" />
			<output>
				<port id="0" precision="I8">
					<dim>32</dim>
					<dim>32</dim>
					<dim>3</dim>
					<dim>3</dim>
				</port>
			</output>
		</layer>
		<layer id="285" name="Convert_377726" type="Convert" version="opset1">
			<data destination_type="f32" />
			<input>
				<port id="0" precision="I8">
					<dim>32</dim>
					<dim>32</dim>
					<dim>3</dim>
					<dim>3</dim>
				</port>
			</input>
			<output>
				<port id="1" precision="FP32">
					<dim>32</dim>
					<dim>32</dim>
					<dim>3</dim>
					<dim>3</dim>
				</port>
			</output>
		</layer>
		<layer id="286" name="Constant_377727" type="Const" version="opset1">
			<data element_type="f32" shape="32, 1, 1, 1" offset="84144" size="128" />
			<output>
				<port id="0" precision="FP32">
					<dim>32</dim>
					<dim>1</dim>
					<dim>1</dim>
					<dim>1</dim>
				</port>
			</output>
		</layer>
		<layer id="287" name="/model.4/m.0/cv1/conv/Conv/WithoutBiases/fq_weights_1" type="Multiply" version="opset1">
			<data auto_broadcast="numpy" />
			<input>
				<port id="0" precision="FP32">
					<dim>32</dim>
					<dim>32</dim>
					<dim>3</dim>
					<dim>3</dim>
				</port>
				<port id="1" precision="FP32">
					<dim>32</dim>
					<dim>1</dim>
					<dim>1</dim>
					<dim>1</dim>
				</port>
			</input>
			<output>
				<port id="2" precision="FP32">
					<dim>32</dim>
					<dim>32</dim>
					<dim>3</dim>
					<dim>3</dim>
				</port>
			</output>
		</layer>
		<layer id="288" name="/model.4/m.0/cv1/conv/Conv/WithoutBiases" type="Convolution" version="opset1">
			<data strides="1, 1" dilations="1, 1" pads_begin="1, 1" pads_end="1, 1" auto_pad="explicit" />
			<input>
				<port id="0" precision="FP32">
					<dim>1</dim>
					<dim>32</dim>
					<dim>60</dim>
					<dim>60</dim>
				</port>
				<port id="1" precision="FP32">
					<dim>32</dim>
					<dim>32</dim>
					<dim>3</dim>
					<dim>3</dim>
				</port>
			</input>
			<output>
				<port id="2" precision="FP32">
					<dim>1</dim>
					<dim>32</dim>
					<dim>60</dim>
					<dim>60</dim>
				</port>
			</output>
		</layer>
		<layer id="289" name="model.4.m.0.cv1.conv.bias" type="Const" version="opset1">
			<data element_type="f32" shape="32" offset="84272" size="128" />
			<output>
				<port id="0" precision="FP32" names="model.4.m.0.cv1.conv.bias">
					<dim>32</dim>
				</port>
			</output>
		</layer>
		<layer id="290" name="Constant_334445" type="Const" version="opset1">
			<data element_type="i64" shape="1" offset="38368" size="8" />
			<output>
				<port id="0" precision="I64">
					<dim>1</dim>
				</port>
			</output>
		</layer>
		<layer id="291" name="ShapeOf_334452" type="ShapeOf" version="opset3">
			<data output_type="i64" />
			<input>
				<port id="0" precision="FP32">
					<dim>32</dim>
				</port>
			</input>
			<output>
				<port id="1" precision="I64">
					<dim>1</dim>
				</port>
			</output>
		</layer>
		<layer id="292" name="ShapeOf_334443" type="ShapeOf" version="opset3">
			<data output_type="i64" />
			<input>
				<port id="0" precision="FP32">
					<dim>1</dim>
					<dim>32</dim>
					<dim>60</dim>
					<dim>60</dim>
				</port>
			</input>
			<output>
				<port id="1" precision="I64">
					<dim>4</dim>
				</port>
			</output>
		</layer>
		<layer id="293" name="ShapeOf_334444" type="ShapeOf" version="opset3">
			<data output_type="i64" />
			<input>
				<port id="0" precision="I64">
					<dim>4</dim>
				</port>
			</input>
			<output>
				<port id="1" precision="I64">
					<dim>1</dim>
				</port>
			</output>
		</layer>
		<layer id="294" name="Constant_334446" type="Const" version="opset1">
			<data element_type="i64" shape="1" offset="38376" size="8" />
			<output>
				<port id="0" precision="I64">
					<dim>1</dim>
				</port>
			</output>
		</layer>
		<layer id="295" name="Subtract_334447" type="Subtract" version="opset1">
			<data auto_broadcast="numpy" />
			<input>
				<port id="0" precision="I64">
					<dim>1</dim>
				</port>
				<port id="1" precision="I64">
					<dim>1</dim>
				</port>
			</input>
			<output>
				<port id="2" precision="I64">
					<dim>1</dim>
				</port>
			</output>
		</layer>
		<layer id="296" name="Broadcast_334448" type="Broadcast" version="opset3">
			<data mode="numpy" />
			<input>
				<port id="0" precision="I64">
					<dim>1</dim>
				</port>
				<port id="1" precision="I64">
					<dim>1</dim>
				</port>
			</input>
			<output>
				<port id="2" precision="I64">
					<dim>2</dim>
				</port>
			</output>
		</layer>
		<layer id="297" name="Concat_334453" type="Concat" version="opset1">
			<data axis="0" />
			<input>
				<port id="0" precision="I64">
					<dim>1</dim>
				</port>
				<port id="1" precision="I64">
					<dim>1</dim>
				</port>
				<port id="2" precision="I64">
					<dim>2</dim>
				</port>
			</input>
			<output>
				<port id="3" precision="I64">
					<dim>4</dim>
				</port>
			</output>
		</layer>
		<layer id="298" name="Reshape_334454" type="Reshape" version="opset1">
			<data special_zero="false" />
			<input>
				<port id="0" precision="FP32">
					<dim>32</dim>
				</port>
				<port id="1" precision="I64">
					<dim>4</dim>
				</port>
			</input>
			<output>
				<port id="2" precision="FP32">
					<dim>1</dim>
					<dim>32</dim>
					<dim>1</dim>
					<dim>1</dim>
				</port>
			</output>
		</layer>
		<layer id="299" name="/model.4/m.0/cv1/conv/Conv" type="Add" version="opset1">
			<data auto_broadcast="numpy" />
			<input>
				<port id="0" precision="FP32">
					<dim>1</dim>
					<dim>32</dim>
					<dim>60</dim>
					<dim>60</dim>
				</port>
				<port id="1" precision="FP32">
					<dim>1</dim>
					<dim>32</dim>
					<dim>1</dim>
					<dim>1</dim>
				</port>
			</input>
			<output>
				<port id="2" precision="FP32" names="/model.4/m.0/cv1/conv/Conv_output_0">
					<dim>1</dim>
					<dim>32</dim>
					<dim>60</dim>
					<dim>60</dim>
				</port>
			</output>
		</layer>
		<layer id="300" name="/model.4/m.0/cv1/act/Mul/fq_input_0/input_low" type="Const" version="opset1">
			<data element_type="f32" shape="" offset="84400" size="4" />
			<output>
				<port id="0" precision="FP32" />
			</output>
		</layer>
		<layer id="301" name="/model.4/m.0/cv1/act/Mul/fq_input_0/input_high" type="Const" version="opset1">
			<data element_type="f32" shape="" offset="84404" size="4" />
			<output>
				<port id="0" precision="FP32" />
			</output>
		</layer>
		<layer id="302" name="/model.4/m.0/cv1/act/Mul/fq_input_0/output_low" type="Const" version="opset1">
			<data element_type="f32" shape="" offset="84400" size="4" />
			<output>
				<port id="0" precision="FP32" />
			</output>
		</layer>
		<layer id="303" name="/model.4/m.0/cv1/act/Mul/fq_input_0/output_high" type="Const" version="opset1">
			<data element_type="f32" shape="" offset="84404" size="4" />
			<output>
				<port id="0" precision="FP32" />
			</output>
		</layer>
		<layer id="304" name="/model.4/m.0/cv1/act/Mul/fq_input_0" type="FakeQuantize" version="opset1">
			<data levels="256" auto_broadcast="numpy" />
			<input>
				<port id="0" precision="FP32">
					<dim>1</dim>
					<dim>32</dim>
					<dim>60</dim>
					<dim>60</dim>
				</port>
				<port id="1" precision="FP32" />
				<port id="2" precision="FP32" />
				<port id="3" precision="FP32" />
				<port id="4" precision="FP32" />
			</input>
			<output>
				<port id="5" precision="FP32">
					<dim>1</dim>
					<dim>32</dim>
					<dim>60</dim>
					<dim>60</dim>
				</port>
			</output>
		</layer>
		<layer id="305" name="/model.4/m.0/cv1/act/Sigmoid" type="Sigmoid" version="opset1">
			<input>
				<port id="0" precision="FP32">
					<dim>1</dim>
					<dim>32</dim>
					<dim>60</dim>
					<dim>60</dim>
				</port>
			</input>
			<output>
				<port id="1" precision="FP32" names="/model.4/m.0/cv1/act/Sigmoid_output_0">
					<dim>1</dim>
					<dim>32</dim>
					<dim>60</dim>
					<dim>60</dim>
				</port>
			</output>
		</layer>
		<layer id="306" name="/model.4/m.0/cv1/act/Sigmoid/fq_output_0/input_low" type="Const" version="opset1">
			<data element_type="f32" shape="" offset="37800" size="4" />
			<output>
				<port id="0" precision="FP32" />
			</output>
		</layer>
		<layer id="307" name="/model.4/m.0/cv1/act/Sigmoid/fq_output_0/input_high" type="Const" version="opset1">
			<data element_type="f32" shape="" offset="84408" size="4" />
			<output>
				<port id="0" precision="FP32" />
			</output>
		</layer>
		<layer id="308" name="/model.4/m.0/cv1/act/Sigmoid/fq_output_0/output_low" type="Const" version="opset1">
			<data element_type="f32" shape="" offset="37800" size="4" />
			<output>
				<port id="0" precision="FP32" />
			</output>
		</layer>
		<layer id="309" name="/model.4/m.0/cv1/act/Sigmoid/fq_output_0/output_high" type="Const" version="opset1">
			<data element_type="f32" shape="" offset="84408" size="4" />
			<output>
				<port id="0" precision="FP32" />
			</output>
		</layer>
		<layer id="310" name="/model.4/m.0/cv1/act/Sigmoid/fq_output_0" type="FakeQuantize" version="opset1">
			<data levels="256" auto_broadcast="numpy" />
			<input>
				<port id="0" precision="FP32">
					<dim>1</dim>
					<dim>32</dim>
					<dim>60</dim>
					<dim>60</dim>
				</port>
				<port id="1" precision="FP32" />
				<port id="2" precision="FP32" />
				<port id="3" precision="FP32" />
				<port id="4" precision="FP32" />
			</input>
			<output>
				<port id="5" precision="FP32">
					<dim>1</dim>
					<dim>32</dim>
					<dim>60</dim>
					<dim>60</dim>
				</port>
			</output>
		</layer>
		<layer id="311" name="/model.4/m.0/cv1/act/Mul" type="Multiply" version="opset1">
			<data auto_broadcast="numpy" />
			<input>
				<port id="0" precision="FP32">
					<dim>1</dim>
					<dim>32</dim>
					<dim>60</dim>
					<dim>60</dim>
				</port>
				<port id="1" precision="FP32">
					<dim>1</dim>
					<dim>32</dim>
					<dim>60</dim>
					<dim>60</dim>
				</port>
			</input>
			<output>
				<port id="2" precision="FP32" names="/model.4/m.0/cv1/act/Mul_output_0">
					<dim>1</dim>
					<dim>32</dim>
					<dim>60</dim>
					<dim>60</dim>
				</port>
			</output>
		</layer>
		<layer id="312" name="/model.4/m.0/cv1/act/Mul/fq_output_0/input_low" type="Const" version="opset1">
			<data element_type="f32" shape="" offset="84412" size="4" />
			<output>
				<port id="0" precision="FP32" />
			</output>
		</layer>
		<layer id="313" name="/model.4/m.0/cv1/act/Mul/fq_output_0/input_high" type="Const" version="opset1">
			<data element_type="f32" shape="" offset="84416" size="4" />
			<output>
				<port id="0" precision="FP32" />
			</output>
		</layer>
		<layer id="314" name="/model.4/m.0/cv1/act/Mul/fq_output_0/output_low" type="Const" version="opset1">
			<data element_type="f32" shape="" offset="84412" size="4" />
			<output>
				<port id="0" precision="FP32" />
			</output>
		</layer>
		<layer id="315" name="/model.4/m.0/cv1/act/Mul/fq_output_0/output_high" type="Const" version="opset1">
			<data element_type="f32" shape="" offset="84416" size="4" />
			<output>
				<port id="0" precision="FP32" />
			</output>
		</layer>
		<layer id="316" name="/model.4/m.0/cv1/act/Mul/fq_output_0" type="FakeQuantize" version="opset1">
			<data levels="256" auto_broadcast="numpy" />
			<input>
				<port id="0" precision="FP32">
					<dim>1</dim>
					<dim>32</dim>
					<dim>60</dim>
					<dim>60</dim>
				</port>
				<port id="1" precision="FP32" />
				<port id="2" precision="FP32" />
				<port id="3" precision="FP32" />
				<port id="4" precision="FP32" />
			</input>
			<output>
				<port id="5" precision="FP32">
					<dim>1</dim>
					<dim>32</dim>
					<dim>60</dim>
					<dim>60</dim>
				</port>
			</output>
		</layer>
		<layer id="317" name="Constant_377729" type="Const" version="opset1">
			<data element_type="i8" shape="32, 32, 3, 3" offset="84420" size="9216" />
			<output>
				<port id="0" precision="I8">
					<dim>32</dim>
					<dim>32</dim>
					<dim>3</dim>
					<dim>3</dim>
				</port>
			</output>
		</layer>
		<layer id="318" name="Convert_377730" type="Convert" version="opset1">
			<data destination_type="f32" />
			<input>
				<port id="0" precision="I8">
					<dim>32</dim>
					<dim>32</dim>
					<dim>3</dim>
					<dim>3</dim>
				</port>
			</input>
			<output>
				<port id="1" precision="FP32">
					<dim>32</dim>
					<dim>32</dim>
					<dim>3</dim>
					<dim>3</dim>
				</port>
			</output>
		</layer>
		<layer id="319" name="Constant_377731" type="Const" version="opset1">
			<data element_type="f32" shape="32, 1, 1, 1" offset="93636" size="128" />
			<output>
				<port id="0" precision="FP32">
					<dim>32</dim>
					<dim>1</dim>
					<dim>1</dim>
					<dim>1</dim>
				</port>
			</output>
		</layer>
		<layer id="320" name="/model.4/m.0/cv2/conv/Conv/WithoutBiases/fq_weights_1" type="Multiply" version="opset1">
			<data auto_broadcast="numpy" />
			<input>
				<port id="0" precision="FP32">
					<dim>32</dim>
					<dim>32</dim>
					<dim>3</dim>
					<dim>3</dim>
				</port>
				<port id="1" precision="FP32">
					<dim>32</dim>
					<dim>1</dim>
					<dim>1</dim>
					<dim>1</dim>
				</port>
			</input>
			<output>
				<port id="2" precision="FP32">
					<dim>32</dim>
					<dim>32</dim>
					<dim>3</dim>
					<dim>3</dim>
				</port>
			</output>
		</layer>
		<layer id="321" name="/model.4/m.0/cv2/conv/Conv/WithoutBiases" type="Convolution" version="opset1">
			<data strides="1, 1" dilations="1, 1" pads_begin="1, 1" pads_end="1, 1" auto_pad="explicit" />
			<input>
				<port id="0" precision="FP32">
					<dim>1</dim>
					<dim>32</dim>
					<dim>60</dim>
					<dim>60</dim>
				</port>
				<port id="1" precision="FP32">
					<dim>32</dim>
					<dim>32</dim>
					<dim>3</dim>
					<dim>3</dim>
				</port>
			</input>
			<output>
				<port id="2" precision="FP32">
					<dim>1</dim>
					<dim>32</dim>
					<dim>60</dim>
					<dim>60</dim>
				</port>
			</output>
		</layer>
		<layer id="322" name="model.4.m.0.cv2.conv.bias" type="Const" version="opset1">
			<data element_type="f32" shape="32" offset="93764" size="128" />
			<output>
				<port id="0" precision="FP32" names="model.4.m.0.cv2.conv.bias">
					<dim>32</dim>
				</port>
			</output>
		</layer>
		<layer id="323" name="Constant_334463" type="Const" version="opset1">
			<data element_type="i64" shape="1" offset="38368" size="8" />
			<output>
				<port id="0" precision="I64">
					<dim>1</dim>
				</port>
			</output>
		</layer>
		<layer id="324" name="ShapeOf_334470" type="ShapeOf" version="opset3">
			<data output_type="i64" />
			<input>
				<port id="0" precision="FP32">
					<dim>32</dim>
				</port>
			</input>
			<output>
				<port id="1" precision="I64">
					<dim>1</dim>
				</port>
			</output>
		</layer>
		<layer id="325" name="ShapeOf_334461" type="ShapeOf" version="opset3">
			<data output_type="i64" />
			<input>
				<port id="0" precision="FP32">
					<dim>1</dim>
					<dim>32</dim>
					<dim>60</dim>
					<dim>60</dim>
				</port>
			</input>
			<output>
				<port id="1" precision="I64">
					<dim>4</dim>
				</port>
			</output>
		</layer>
		<layer id="326" name="ShapeOf_334462" type="ShapeOf" version="opset3">
			<data output_type="i64" />
			<input>
				<port id="0" precision="I64">
					<dim>4</dim>
				</port>
			</input>
			<output>
				<port id="1" precision="I64">
					<dim>1</dim>
				</port>
			</output>
		</layer>
		<layer id="327" name="Constant_334464" type="Const" version="opset1">
			<data element_type="i64" shape="1" offset="38376" size="8" />
			<output>
				<port id="0" precision="I64">
					<dim>1</dim>
				</port>
			</output>
		</layer>
		<layer id="328" name="Subtract_334465" type="Subtract" version="opset1">
			<data auto_broadcast="numpy" />
			<input>
				<port id="0" precision="I64">
					<dim>1</dim>
				</port>
				<port id="1" precision="I64">
					<dim>1</dim>
				</port>
			</input>
			<output>
				<port id="2" precision="I64">
					<dim>1</dim>
				</port>
			</output>
		</layer>
		<layer id="329" name="Broadcast_334466" type="Broadcast" version="opset3">
			<data mode="numpy" />
			<input>
				<port id="0" precision="I64">
					<dim>1</dim>
				</port>
				<port id="1" precision="I64">
					<dim>1</dim>
				</port>
			</input>
			<output>
				<port id="2" precision="I64">
					<dim>2</dim>
				</port>
			</output>
		</layer>
		<layer id="330" name="Concat_334471" type="Concat" version="opset1">
			<data axis="0" />
			<input>
				<port id="0" precision="I64">
					<dim>1</dim>
				</port>
				<port id="1" precision="I64">
					<dim>1</dim>
				</port>
				<port id="2" precision="I64">
					<dim>2</dim>
				</port>
			</input>
			<output>
				<port id="3" precision="I64">
					<dim>4</dim>
				</port>
			</output>
		</layer>
		<layer id="331" name="Reshape_334472" type="Reshape" version="opset1">
			<data special_zero="false" />
			<input>
				<port id="0" precision="FP32">
					<dim>32</dim>
				</port>
				<port id="1" precision="I64">
					<dim>4</dim>
				</port>
			</input>
			<output>
				<port id="2" precision="FP32">
					<dim>1</dim>
					<dim>32</dim>
					<dim>1</dim>
					<dim>1</dim>
				</port>
			</output>
		</layer>
		<layer id="332" name="/model.4/m.0/cv2/conv/Conv" type="Add" version="opset1">
			<data auto_broadcast="numpy" />
			<input>
				<port id="0" precision="FP32">
					<dim>1</dim>
					<dim>32</dim>
					<dim>60</dim>
					<dim>60</dim>
				</port>
				<port id="1" precision="FP32">
					<dim>1</dim>
					<dim>32</dim>
					<dim>1</dim>
					<dim>1</dim>
				</port>
			</input>
			<output>
				<port id="2" precision="FP32" names="/model.4/m.0/cv2/conv/Conv_output_0">
					<dim>1</dim>
					<dim>32</dim>
					<dim>60</dim>
					<dim>60</dim>
				</port>
			</output>
		</layer>
		<layer id="333" name="/model.4/m.0/cv2/act/Mul/fq_input_0/input_low" type="Const" version="opset1">
			<data element_type="f32" shape="" offset="93892" size="4" />
			<output>
				<port id="0" precision="FP32" />
			</output>
		</layer>
		<layer id="334" name="/model.4/m.0/cv2/act/Mul/fq_input_0/input_high" type="Const" version="opset1">
			<data element_type="f32" shape="" offset="93896" size="4" />
			<output>
				<port id="0" precision="FP32" />
			</output>
		</layer>
		<layer id="335" name="/model.4/m.0/cv2/act/Mul/fq_input_0/output_low" type="Const" version="opset1">
			<data element_type="f32" shape="" offset="93892" size="4" />
			<output>
				<port id="0" precision="FP32" />
			</output>
		</layer>
		<layer id="336" name="/model.4/m.0/cv2/act/Mul/fq_input_0/output_high" type="Const" version="opset1">
			<data element_type="f32" shape="" offset="93896" size="4" />
			<output>
				<port id="0" precision="FP32" />
			</output>
		</layer>
		<layer id="337" name="/model.4/m.0/cv2/act/Mul/fq_input_0" type="FakeQuantize" version="opset1">
			<data levels="256" auto_broadcast="numpy" />
			<input>
				<port id="0" precision="FP32">
					<dim>1</dim>
					<dim>32</dim>
					<dim>60</dim>
					<dim>60</dim>
				</port>
				<port id="1" precision="FP32" />
				<port id="2" precision="FP32" />
				<port id="3" precision="FP32" />
				<port id="4" precision="FP32" />
			</input>
			<output>
				<port id="5" precision="FP32">
					<dim>1</dim>
					<dim>32</dim>
					<dim>60</dim>
					<dim>60</dim>
				</port>
			</output>
		</layer>
		<layer id="338" name="/model.4/m.0/cv2/act/Sigmoid" type="Sigmoid" version="opset1">
			<input>
				<port id="0" precision="FP32">
					<dim>1</dim>
					<dim>32</dim>
					<dim>60</dim>
					<dim>60</dim>
				</port>
			</input>
			<output>
				<port id="1" precision="FP32" names="/model.4/m.0/cv2/act/Sigmoid_output_0">
					<dim>1</dim>
					<dim>32</dim>
					<dim>60</dim>
					<dim>60</dim>
				</port>
			</output>
		</layer>
		<layer id="339" name="/model.4/m.0/cv2/act/Sigmoid/fq_output_0/input_low" type="Const" version="opset1">
			<data element_type="f32" shape="" offset="37800" size="4" />
			<output>
				<port id="0" precision="FP32" />
			</output>
		</layer>
		<layer id="340" name="/model.4/m.0/cv2/act/Sigmoid/fq_output_0/input_high" type="Const" version="opset1">
			<data element_type="f32" shape="" offset="93900" size="4" />
			<output>
				<port id="0" precision="FP32" />
			</output>
		</layer>
		<layer id="341" name="/model.4/m.0/cv2/act/Sigmoid/fq_output_0/output_low" type="Const" version="opset1">
			<data element_type="f32" shape="" offset="37800" size="4" />
			<output>
				<port id="0" precision="FP32" />
			</output>
		</layer>
		<layer id="342" name="/model.4/m.0/cv2/act/Sigmoid/fq_output_0/output_high" type="Const" version="opset1">
			<data element_type="f32" shape="" offset="93900" size="4" />
			<output>
				<port id="0" precision="FP32" />
			</output>
		</layer>
		<layer id="343" name="/model.4/m.0/cv2/act/Sigmoid/fq_output_0" type="FakeQuantize" version="opset1">
			<data levels="256" auto_broadcast="numpy" />
			<input>
				<port id="0" precision="FP32">
					<dim>1</dim>
					<dim>32</dim>
					<dim>60</dim>
					<dim>60</dim>
				</port>
				<port id="1" precision="FP32" />
				<port id="2" precision="FP32" />
				<port id="3" precision="FP32" />
				<port id="4" precision="FP32" />
			</input>
			<output>
				<port id="5" precision="FP32">
					<dim>1</dim>
					<dim>32</dim>
					<dim>60</dim>
					<dim>60</dim>
				</port>
			</output>
		</layer>
		<layer id="344" name="/model.4/m.0/cv2/act/Mul" type="Multiply" version="opset1">
			<data auto_broadcast="numpy" />
			<input>
				<port id="0" precision="FP32">
					<dim>1</dim>
					<dim>32</dim>
					<dim>60</dim>
					<dim>60</dim>
				</port>
				<port id="1" precision="FP32">
					<dim>1</dim>
					<dim>32</dim>
					<dim>60</dim>
					<dim>60</dim>
				</port>
			</input>
			<output>
				<port id="2" precision="FP32" names="/model.4/m.0/cv2/act/Mul_output_0">
					<dim>1</dim>
					<dim>32</dim>
					<dim>60</dim>
					<dim>60</dim>
				</port>
			</output>
		</layer>
		<layer id="345" name="/model.4/m.0/cv2/act/Mul/fq_output_0/input_low" type="Const" version="opset1">
			<data element_type="f32" shape="" offset="93904" size="4" />
			<output>
				<port id="0" precision="FP32" />
			</output>
		</layer>
		<layer id="346" name="/model.4/m.0/cv2/act/Mul/fq_output_0/input_high" type="Const" version="opset1">
			<data element_type="f32" shape="" offset="93908" size="4" />
			<output>
				<port id="0" precision="FP32" />
			</output>
		</layer>
		<layer id="347" name="/model.4/m.0/cv2/act/Mul/fq_output_0/output_low" type="Const" version="opset1">
			<data element_type="f32" shape="" offset="93904" size="4" />
			<output>
				<port id="0" precision="FP32" />
			</output>
		</layer>
		<layer id="348" name="/model.4/m.0/cv2/act/Mul/fq_output_0/output_high" type="Const" version="opset1">
			<data element_type="f32" shape="" offset="93908" size="4" />
			<output>
				<port id="0" precision="FP32" />
			</output>
		</layer>
		<layer id="349" name="/model.4/m.0/cv2/act/Mul/fq_output_0" type="FakeQuantize" version="opset1">
			<data levels="256" auto_broadcast="numpy" />
			<input>
				<port id="0" precision="FP32">
					<dim>1</dim>
					<dim>32</dim>
					<dim>60</dim>
					<dim>60</dim>
				</port>
				<port id="1" precision="FP32" />
				<port id="2" precision="FP32" />
				<port id="3" precision="FP32" />
				<port id="4" precision="FP32" />
			</input>
			<output>
				<port id="5" precision="FP32">
					<dim>1</dim>
					<dim>32</dim>
					<dim>60</dim>
					<dim>60</dim>
				</port>
			</output>
		</layer>
		<layer id="350" name="/model.4/m.0/Add" type="Add" version="opset1">
			<data auto_broadcast="numpy" />
			<input>
				<port id="0" precision="FP32">
					<dim>1</dim>
					<dim>32</dim>
					<dim>60</dim>
					<dim>60</dim>
				</port>
				<port id="1" precision="FP32">
					<dim>1</dim>
					<dim>32</dim>
					<dim>60</dim>
					<dim>60</dim>
				</port>
			</input>
			<output>
				<port id="2" precision="FP32" names="/model.4/m.0/Add_output_0">
					<dim>1</dim>
					<dim>32</dim>
					<dim>60</dim>
					<dim>60</dim>
				</port>
			</output>
		</layer>
		<layer id="351" name="/model.4/m.0/Add/fq_output_0/input_low" type="Const" version="opset1">
			<data element_type="f32" shape="" offset="74904" size="4" />
			<output>
				<port id="0" precision="FP32" />
			</output>
		</layer>
		<layer id="352" name="/model.4/m.0/Add/fq_output_0/input_high" type="Const" version="opset1">
			<data element_type="f32" shape="" offset="74908" size="4" />
			<output>
				<port id="0" precision="FP32" />
			</output>
		</layer>
		<layer id="353" name="/model.4/m.0/Add/fq_output_0/output_low" type="Const" version="opset1">
			<data element_type="f32" shape="" offset="74904" size="4" />
			<output>
				<port id="0" precision="FP32" />
			</output>
		</layer>
		<layer id="354" name="/model.4/m.0/Add/fq_output_0/output_high" type="Const" version="opset1">
			<data element_type="f32" shape="" offset="74908" size="4" />
			<output>
				<port id="0" precision="FP32" />
			</output>
		</layer>
		<layer id="355" name="/model.4/m.0/Add/fq_output_0" type="FakeQuantize" version="opset1">
			<data levels="256" auto_broadcast="numpy" />
			<input>
				<port id="0" precision="FP32">
					<dim>1</dim>
					<dim>32</dim>
					<dim>60</dim>
					<dim>60</dim>
				</port>
				<port id="1" precision="FP32" />
				<port id="2" precision="FP32" />
				<port id="3" precision="FP32" />
				<port id="4" precision="FP32" />
			</input>
			<output>
				<port id="5" precision="FP32">
					<dim>1</dim>
					<dim>32</dim>
					<dim>60</dim>
					<dim>60</dim>
				</port>
			</output>
		</layer>
		<layer id="356" name="Constant_377733" type="Const" version="opset1">
			<data element_type="i8" shape="32, 32, 3, 3" offset="93912" size="9216" />
			<output>
				<port id="0" precision="I8">
					<dim>32</dim>
					<dim>32</dim>
					<dim>3</dim>
					<dim>3</dim>
				</port>
			</output>
		</layer>
		<layer id="357" name="Convert_377734" type="Convert" version="opset1">
			<data destination_type="f32" />
			<input>
				<port id="0" precision="I8">
					<dim>32</dim>
					<dim>32</dim>
					<dim>3</dim>
					<dim>3</dim>
				</port>
			</input>
			<output>
				<port id="1" precision="FP32">
					<dim>32</dim>
					<dim>32</dim>
					<dim>3</dim>
					<dim>3</dim>
				</port>
			</output>
		</layer>
		<layer id="358" name="Constant_377735" type="Const" version="opset1">
			<data element_type="f32" shape="32, 1, 1, 1" offset="103128" size="128" />
			<output>
				<port id="0" precision="FP32">
					<dim>32</dim>
					<dim>1</dim>
					<dim>1</dim>
					<dim>1</dim>
				</port>
			</output>
		</layer>
		<layer id="359" name="/model.4/m.1/cv1/conv/Conv/WithoutBiases/fq_weights_1" type="Multiply" version="opset1">
			<data auto_broadcast="numpy" />
			<input>
				<port id="0" precision="FP32">
					<dim>32</dim>
					<dim>32</dim>
					<dim>3</dim>
					<dim>3</dim>
				</port>
				<port id="1" precision="FP32">
					<dim>32</dim>
					<dim>1</dim>
					<dim>1</dim>
					<dim>1</dim>
				</port>
			</input>
			<output>
				<port id="2" precision="FP32">
					<dim>32</dim>
					<dim>32</dim>
					<dim>3</dim>
					<dim>3</dim>
				</port>
			</output>
		</layer>
		<layer id="360" name="/model.4/m.1/cv1/conv/Conv/WithoutBiases" type="Convolution" version="opset1">
			<data strides="1, 1" dilations="1, 1" pads_begin="1, 1" pads_end="1, 1" auto_pad="explicit" />
			<input>
				<port id="0" precision="FP32">
					<dim>1</dim>
					<dim>32</dim>
					<dim>60</dim>
					<dim>60</dim>
				</port>
				<port id="1" precision="FP32">
					<dim>32</dim>
					<dim>32</dim>
					<dim>3</dim>
					<dim>3</dim>
				</port>
			</input>
			<output>
				<port id="2" precision="FP32">
					<dim>1</dim>
					<dim>32</dim>
					<dim>60</dim>
					<dim>60</dim>
				</port>
			</output>
		</layer>
		<layer id="361" name="model.4.m.1.cv1.conv.bias" type="Const" version="opset1">
			<data element_type="f32" shape="32" offset="103256" size="128" />
			<output>
				<port id="0" precision="FP32" names="model.4.m.1.cv1.conv.bias">
					<dim>32</dim>
				</port>
			</output>
		</layer>
		<layer id="362" name="Constant_334482" type="Const" version="opset1">
			<data element_type="i64" shape="1" offset="38368" size="8" />
			<output>
				<port id="0" precision="I64">
					<dim>1</dim>
				</port>
			</output>
		</layer>
		<layer id="363" name="ShapeOf_334489" type="ShapeOf" version="opset3">
			<data output_type="i64" />
			<input>
				<port id="0" precision="FP32">
					<dim>32</dim>
				</port>
			</input>
			<output>
				<port id="1" precision="I64">
					<dim>1</dim>
				</port>
			</output>
		</layer>
		<layer id="364" name="ShapeOf_334480" type="ShapeOf" version="opset3">
			<data output_type="i64" />
			<input>
				<port id="0" precision="FP32">
					<dim>1</dim>
					<dim>32</dim>
					<dim>60</dim>
					<dim>60</dim>
				</port>
			</input>
			<output>
				<port id="1" precision="I64">
					<dim>4</dim>
				</port>
			</output>
		</layer>
		<layer id="365" name="ShapeOf_334481" type="ShapeOf" version="opset3">
			<data output_type="i64" />
			<input>
				<port id="0" precision="I64">
					<dim>4</dim>
				</port>
			</input>
			<output>
				<port id="1" precision="I64">
					<dim>1</dim>
				</port>
			</output>
		</layer>
		<layer id="366" name="Constant_334483" type="Const" version="opset1">
			<data element_type="i64" shape="1" offset="38376" size="8" />
			<output>
				<port id="0" precision="I64">
					<dim>1</dim>
				</port>
			</output>
		</layer>
		<layer id="367" name="Subtract_334484" type="Subtract" version="opset1">
			<data auto_broadcast="numpy" />
			<input>
				<port id="0" precision="I64">
					<dim>1</dim>
				</port>
				<port id="1" precision="I64">
					<dim>1</dim>
				</port>
			</input>
			<output>
				<port id="2" precision="I64">
					<dim>1</dim>
				</port>
			</output>
		</layer>
		<layer id="368" name="Broadcast_334485" type="Broadcast" version="opset3">
			<data mode="numpy" />
			<input>
				<port id="0" precision="I64">
					<dim>1</dim>
				</port>
				<port id="1" precision="I64">
					<dim>1</dim>
				</port>
			</input>
			<output>
				<port id="2" precision="I64">
					<dim>2</dim>
				</port>
			</output>
		</layer>
		<layer id="369" name="Concat_334490" type="Concat" version="opset1">
			<data axis="0" />
			<input>
				<port id="0" precision="I64">
					<dim>1</dim>
				</port>
				<port id="1" precision="I64">
					<dim>1</dim>
				</port>
				<port id="2" precision="I64">
					<dim>2</dim>
				</port>
			</input>
			<output>
				<port id="3" precision="I64">
					<dim>4</dim>
				</port>
			</output>
		</layer>
		<layer id="370" name="Reshape_334491" type="Reshape" version="opset1">
			<data special_zero="false" />
			<input>
				<port id="0" precision="FP32">
					<dim>32</dim>
				</port>
				<port id="1" precision="I64">
					<dim>4</dim>
				</port>
			</input>
			<output>
				<port id="2" precision="FP32">
					<dim>1</dim>
					<dim>32</dim>
					<dim>1</dim>
					<dim>1</dim>
				</port>
			</output>
		</layer>
		<layer id="371" name="/model.4/m.1/cv1/conv/Conv" type="Add" version="opset1">
			<data auto_broadcast="numpy" />
			<input>
				<port id="0" precision="FP32">
					<dim>1</dim>
					<dim>32</dim>
					<dim>60</dim>
					<dim>60</dim>
				</port>
				<port id="1" precision="FP32">
					<dim>1</dim>
					<dim>32</dim>
					<dim>1</dim>
					<dim>1</dim>
				</port>
			</input>
			<output>
				<port id="2" precision="FP32" names="/model.4/m.1/cv1/conv/Conv_output_0">
					<dim>1</dim>
					<dim>32</dim>
					<dim>60</dim>
					<dim>60</dim>
				</port>
			</output>
		</layer>
		<layer id="372" name="/model.4/m.1/cv1/act/Mul/fq_input_0/input_low" type="Const" version="opset1">
			<data element_type="f32" shape="" offset="103384" size="4" />
			<output>
				<port id="0" precision="FP32" />
			</output>
		</layer>
		<layer id="373" name="/model.4/m.1/cv1/act/Mul/fq_input_0/input_high" type="Const" version="opset1">
			<data element_type="f32" shape="" offset="103388" size="4" />
			<output>
				<port id="0" precision="FP32" />
			</output>
		</layer>
		<layer id="374" name="/model.4/m.1/cv1/act/Mul/fq_input_0/output_low" type="Const" version="opset1">
			<data element_type="f32" shape="" offset="103384" size="4" />
			<output>
				<port id="0" precision="FP32" />
			</output>
		</layer>
		<layer id="375" name="/model.4/m.1/cv1/act/Mul/fq_input_0/output_high" type="Const" version="opset1">
			<data element_type="f32" shape="" offset="103388" size="4" />
			<output>
				<port id="0" precision="FP32" />
			</output>
		</layer>
		<layer id="376" name="/model.4/m.1/cv1/act/Mul/fq_input_0" type="FakeQuantize" version="opset1">
			<data levels="256" auto_broadcast="numpy" />
			<input>
				<port id="0" precision="FP32">
					<dim>1</dim>
					<dim>32</dim>
					<dim>60</dim>
					<dim>60</dim>
				</port>
				<port id="1" precision="FP32" />
				<port id="2" precision="FP32" />
				<port id="3" precision="FP32" />
				<port id="4" precision="FP32" />
			</input>
			<output>
				<port id="5" precision="FP32">
					<dim>1</dim>
					<dim>32</dim>
					<dim>60</dim>
					<dim>60</dim>
				</port>
			</output>
		</layer>
		<layer id="377" name="/model.4/m.1/cv1/act/Sigmoid" type="Sigmoid" version="opset1">
			<input>
				<port id="0" precision="FP32">
					<dim>1</dim>
					<dim>32</dim>
					<dim>60</dim>
					<dim>60</dim>
				</port>
			</input>
			<output>
				<port id="1" precision="FP32" names="/model.4/m.1/cv1/act/Sigmoid_output_0">
					<dim>1</dim>
					<dim>32</dim>
					<dim>60</dim>
					<dim>60</dim>
				</port>
			</output>
		</layer>
		<layer id="378" name="/model.4/m.1/cv1/act/Sigmoid/fq_output_0/input_low" type="Const" version="opset1">
			<data element_type="f32" shape="" offset="37800" size="4" />
			<output>
				<port id="0" precision="FP32" />
			</output>
		</layer>
		<layer id="379" name="/model.4/m.1/cv1/act/Sigmoid/fq_output_0/input_high" type="Const" version="opset1">
			<data element_type="f32" shape="" offset="103392" size="4" />
			<output>
				<port id="0" precision="FP32" />
			</output>
		</layer>
		<layer id="380" name="/model.4/m.1/cv1/act/Sigmoid/fq_output_0/output_low" type="Const" version="opset1">
			<data element_type="f32" shape="" offset="37800" size="4" />
			<output>
				<port id="0" precision="FP32" />
			</output>
		</layer>
		<layer id="381" name="/model.4/m.1/cv1/act/Sigmoid/fq_output_0/output_high" type="Const" version="opset1">
			<data element_type="f32" shape="" offset="103392" size="4" />
			<output>
				<port id="0" precision="FP32" />
			</output>
		</layer>
		<layer id="382" name="/model.4/m.1/cv1/act/Sigmoid/fq_output_0" type="FakeQuantize" version="opset1">
			<data levels="256" auto_broadcast="numpy" />
			<input>
				<port id="0" precision="FP32">
					<dim>1</dim>
					<dim>32</dim>
					<dim>60</dim>
					<dim>60</dim>
				</port>
				<port id="1" precision="FP32" />
				<port id="2" precision="FP32" />
				<port id="3" precision="FP32" />
				<port id="4" precision="FP32" />
			</input>
			<output>
				<port id="5" precision="FP32">
					<dim>1</dim>
					<dim>32</dim>
					<dim>60</dim>
					<dim>60</dim>
				</port>
			</output>
		</layer>
		<layer id="383" name="/model.4/m.1/cv1/act/Mul" type="Multiply" version="opset1">
			<data auto_broadcast="numpy" />
			<input>
				<port id="0" precision="FP32">
					<dim>1</dim>
					<dim>32</dim>
					<dim>60</dim>
					<dim>60</dim>
				</port>
				<port id="1" precision="FP32">
					<dim>1</dim>
					<dim>32</dim>
					<dim>60</dim>
					<dim>60</dim>
				</port>
			</input>
			<output>
				<port id="2" precision="FP32" names="/model.4/m.1/cv1/act/Mul_output_0">
					<dim>1</dim>
					<dim>32</dim>
					<dim>60</dim>
					<dim>60</dim>
				</port>
			</output>
		</layer>
		<layer id="384" name="/model.4/m.1/cv1/act/Mul/fq_output_0/input_low" type="Const" version="opset1">
			<data element_type="f32" shape="" offset="103396" size="4" />
			<output>
				<port id="0" precision="FP32" />
			</output>
		</layer>
		<layer id="385" name="/model.4/m.1/cv1/act/Mul/fq_output_0/input_high" type="Const" version="opset1">
			<data element_type="f32" shape="" offset="103400" size="4" />
			<output>
				<port id="0" precision="FP32" />
			</output>
		</layer>
		<layer id="386" name="/model.4/m.1/cv1/act/Mul/fq_output_0/output_low" type="Const" version="opset1">
			<data element_type="f32" shape="" offset="103396" size="4" />
			<output>
				<port id="0" precision="FP32" />
			</output>
		</layer>
		<layer id="387" name="/model.4/m.1/cv1/act/Mul/fq_output_0/output_high" type="Const" version="opset1">
			<data element_type="f32" shape="" offset="103400" size="4" />
			<output>
				<port id="0" precision="FP32" />
			</output>
		</layer>
		<layer id="388" name="/model.4/m.1/cv1/act/Mul/fq_output_0" type="FakeQuantize" version="opset1">
			<data levels="256" auto_broadcast="numpy" />
			<input>
				<port id="0" precision="FP32">
					<dim>1</dim>
					<dim>32</dim>
					<dim>60</dim>
					<dim>60</dim>
				</port>
				<port id="1" precision="FP32" />
				<port id="2" precision="FP32" />
				<port id="3" precision="FP32" />
				<port id="4" precision="FP32" />
			</input>
			<output>
				<port id="5" precision="FP32">
					<dim>1</dim>
					<dim>32</dim>
					<dim>60</dim>
					<dim>60</dim>
				</port>
			</output>
		</layer>
		<layer id="389" name="Constant_377737" type="Const" version="opset1">
			<data element_type="i8" shape="32, 32, 3, 3" offset="103404" size="9216" />
			<output>
				<port id="0" precision="I8">
					<dim>32</dim>
					<dim>32</dim>
					<dim>3</dim>
					<dim>3</dim>
				</port>
			</output>
		</layer>
		<layer id="390" name="Convert_377738" type="Convert" version="opset1">
			<data destination_type="f32" />
			<input>
				<port id="0" precision="I8">
					<dim>32</dim>
					<dim>32</dim>
					<dim>3</dim>
					<dim>3</dim>
				</port>
			</input>
			<output>
				<port id="1" precision="FP32">
					<dim>32</dim>
					<dim>32</dim>
					<dim>3</dim>
					<dim>3</dim>
				</port>
			</output>
		</layer>
		<layer id="391" name="Constant_377739" type="Const" version="opset1">
			<data element_type="f32" shape="32, 1, 1, 1" offset="112620" size="128" />
			<output>
				<port id="0" precision="FP32">
					<dim>32</dim>
					<dim>1</dim>
					<dim>1</dim>
					<dim>1</dim>
				</port>
			</output>
		</layer>
		<layer id="392" name="/model.4/m.1/cv2/conv/Conv/WithoutBiases/fq_weights_1" type="Multiply" version="opset1">
			<data auto_broadcast="numpy" />
			<input>
				<port id="0" precision="FP32">
					<dim>32</dim>
					<dim>32</dim>
					<dim>3</dim>
					<dim>3</dim>
				</port>
				<port id="1" precision="FP32">
					<dim>32</dim>
					<dim>1</dim>
					<dim>1</dim>
					<dim>1</dim>
				</port>
			</input>
			<output>
				<port id="2" precision="FP32">
					<dim>32</dim>
					<dim>32</dim>
					<dim>3</dim>
					<dim>3</dim>
				</port>
			</output>
		</layer>
		<layer id="393" name="/model.4/m.1/cv2/conv/Conv/WithoutBiases" type="Convolution" version="opset1">
			<data strides="1, 1" dilations="1, 1" pads_begin="1, 1" pads_end="1, 1" auto_pad="explicit" />
			<input>
				<port id="0" precision="FP32">
					<dim>1</dim>
					<dim>32</dim>
					<dim>60</dim>
					<dim>60</dim>
				</port>
				<port id="1" precision="FP32">
					<dim>32</dim>
					<dim>32</dim>
					<dim>3</dim>
					<dim>3</dim>
				</port>
			</input>
			<output>
				<port id="2" precision="FP32">
					<dim>1</dim>
					<dim>32</dim>
					<dim>60</dim>
					<dim>60</dim>
				</port>
			</output>
		</layer>
		<layer id="394" name="model.4.m.1.cv2.conv.bias" type="Const" version="opset1">
			<data element_type="f32" shape="32" offset="112748" size="128" />
			<output>
				<port id="0" precision="FP32" names="model.4.m.1.cv2.conv.bias">
					<dim>32</dim>
				</port>
			</output>
		</layer>
		<layer id="395" name="Constant_334500" type="Const" version="opset1">
			<data element_type="i64" shape="1" offset="38368" size="8" />
			<output>
				<port id="0" precision="I64">
					<dim>1</dim>
				</port>
			</output>
		</layer>
		<layer id="396" name="ShapeOf_334507" type="ShapeOf" version="opset3">
			<data output_type="i64" />
			<input>
				<port id="0" precision="FP32">
					<dim>32</dim>
				</port>
			</input>
			<output>
				<port id="1" precision="I64">
					<dim>1</dim>
				</port>
			</output>
		</layer>
		<layer id="397" name="ShapeOf_334498" type="ShapeOf" version="opset3">
			<data output_type="i64" />
			<input>
				<port id="0" precision="FP32">
					<dim>1</dim>
					<dim>32</dim>
					<dim>60</dim>
					<dim>60</dim>
				</port>
			</input>
			<output>
				<port id="1" precision="I64">
					<dim>4</dim>
				</port>
			</output>
		</layer>
		<layer id="398" name="ShapeOf_334499" type="ShapeOf" version="opset3">
			<data output_type="i64" />
			<input>
				<port id="0" precision="I64">
					<dim>4</dim>
				</port>
			</input>
			<output>
				<port id="1" precision="I64">
					<dim>1</dim>
				</port>
			</output>
		</layer>
		<layer id="399" name="Constant_334501" type="Const" version="opset1">
			<data element_type="i64" shape="1" offset="38376" size="8" />
			<output>
				<port id="0" precision="I64">
					<dim>1</dim>
				</port>
			</output>
		</layer>
		<layer id="400" name="Subtract_334502" type="Subtract" version="opset1">
			<data auto_broadcast="numpy" />
			<input>
				<port id="0" precision="I64">
					<dim>1</dim>
				</port>
				<port id="1" precision="I64">
					<dim>1</dim>
				</port>
			</input>
			<output>
				<port id="2" precision="I64">
					<dim>1</dim>
				</port>
			</output>
		</layer>
		<layer id="401" name="Broadcast_334503" type="Broadcast" version="opset3">
			<data mode="numpy" />
			<input>
				<port id="0" precision="I64">
					<dim>1</dim>
				</port>
				<port id="1" precision="I64">
					<dim>1</dim>
				</port>
			</input>
			<output>
				<port id="2" precision="I64">
					<dim>2</dim>
				</port>
			</output>
		</layer>
		<layer id="402" name="Concat_334508" type="Concat" version="opset1">
			<data axis="0" />
			<input>
				<port id="0" precision="I64">
					<dim>1</dim>
				</port>
				<port id="1" precision="I64">
					<dim>1</dim>
				</port>
				<port id="2" precision="I64">
					<dim>2</dim>
				</port>
			</input>
			<output>
				<port id="3" precision="I64">
					<dim>4</dim>
				</port>
			</output>
		</layer>
		<layer id="403" name="Reshape_334509" type="Reshape" version="opset1">
			<data special_zero="false" />
			<input>
				<port id="0" precision="FP32">
					<dim>32</dim>
				</port>
				<port id="1" precision="I64">
					<dim>4</dim>
				</port>
			</input>
			<output>
				<port id="2" precision="FP32">
					<dim>1</dim>
					<dim>32</dim>
					<dim>1</dim>
					<dim>1</dim>
				</port>
			</output>
		</layer>
		<layer id="404" name="/model.4/m.1/cv2/conv/Conv" type="Add" version="opset1">
			<data auto_broadcast="numpy" />
			<input>
				<port id="0" precision="FP32">
					<dim>1</dim>
					<dim>32</dim>
					<dim>60</dim>
					<dim>60</dim>
				</port>
				<port id="1" precision="FP32">
					<dim>1</dim>
					<dim>32</dim>
					<dim>1</dim>
					<dim>1</dim>
				</port>
			</input>
			<output>
				<port id="2" precision="FP32" names="/model.4/m.1/cv2/conv/Conv_output_0">
					<dim>1</dim>
					<dim>32</dim>
					<dim>60</dim>
					<dim>60</dim>
				</port>
			</output>
		</layer>
		<layer id="405" name="/model.4/m.1/cv2/act/Mul/fq_input_0/input_low" type="Const" version="opset1">
			<data element_type="f32" shape="" offset="112876" size="4" />
			<output>
				<port id="0" precision="FP32" />
			</output>
		</layer>
		<layer id="406" name="/model.4/m.1/cv2/act/Mul/fq_input_0/input_high" type="Const" version="opset1">
			<data element_type="f32" shape="" offset="112880" size="4" />
			<output>
				<port id="0" precision="FP32" />
			</output>
		</layer>
		<layer id="407" name="/model.4/m.1/cv2/act/Mul/fq_input_0/output_low" type="Const" version="opset1">
			<data element_type="f32" shape="" offset="112876" size="4" />
			<output>
				<port id="0" precision="FP32" />
			</output>
		</layer>
		<layer id="408" name="/model.4/m.1/cv2/act/Mul/fq_input_0/output_high" type="Const" version="opset1">
			<data element_type="f32" shape="" offset="112880" size="4" />
			<output>
				<port id="0" precision="FP32" />
			</output>
		</layer>
		<layer id="409" name="/model.4/m.1/cv2/act/Mul/fq_input_0" type="FakeQuantize" version="opset1">
			<data levels="256" auto_broadcast="numpy" />
			<input>
				<port id="0" precision="FP32">
					<dim>1</dim>
					<dim>32</dim>
					<dim>60</dim>
					<dim>60</dim>
				</port>
				<port id="1" precision="FP32" />
				<port id="2" precision="FP32" />
				<port id="3" precision="FP32" />
				<port id="4" precision="FP32" />
			</input>
			<output>
				<port id="5" precision="FP32">
					<dim>1</dim>
					<dim>32</dim>
					<dim>60</dim>
					<dim>60</dim>
				</port>
			</output>
		</layer>
		<layer id="410" name="/model.4/m.1/cv2/act/Sigmoid" type="Sigmoid" version="opset1">
			<input>
				<port id="0" precision="FP32">
					<dim>1</dim>
					<dim>32</dim>
					<dim>60</dim>
					<dim>60</dim>
				</port>
			</input>
			<output>
				<port id="1" precision="FP32" names="/model.4/m.1/cv2/act/Sigmoid_output_0">
					<dim>1</dim>
					<dim>32</dim>
					<dim>60</dim>
					<dim>60</dim>
				</port>
			</output>
		</layer>
		<layer id="411" name="/model.4/m.1/cv2/act/Sigmoid/fq_output_0/input_low" type="Const" version="opset1">
			<data element_type="f32" shape="" offset="37800" size="4" />
			<output>
				<port id="0" precision="FP32" />
			</output>
		</layer>
		<layer id="412" name="/model.4/m.1/cv2/act/Sigmoid/fq_output_0/input_high" type="Const" version="opset1">
			<data element_type="f32" shape="" offset="112884" size="4" />
			<output>
				<port id="0" precision="FP32" />
			</output>
		</layer>
		<layer id="413" name="/model.4/m.1/cv2/act/Sigmoid/fq_output_0/output_low" type="Const" version="opset1">
			<data element_type="f32" shape="" offset="37800" size="4" />
			<output>
				<port id="0" precision="FP32" />
			</output>
		</layer>
		<layer id="414" name="/model.4/m.1/cv2/act/Sigmoid/fq_output_0/output_high" type="Const" version="opset1">
			<data element_type="f32" shape="" offset="112884" size="4" />
			<output>
				<port id="0" precision="FP32" />
			</output>
		</layer>
		<layer id="415" name="/model.4/m.1/cv2/act/Sigmoid/fq_output_0" type="FakeQuantize" version="opset1">
			<data levels="256" auto_broadcast="numpy" />
			<input>
				<port id="0" precision="FP32">
					<dim>1</dim>
					<dim>32</dim>
					<dim>60</dim>
					<dim>60</dim>
				</port>
				<port id="1" precision="FP32" />
				<port id="2" precision="FP32" />
				<port id="3" precision="FP32" />
				<port id="4" precision="FP32" />
			</input>
			<output>
				<port id="5" precision="FP32">
					<dim>1</dim>
					<dim>32</dim>
					<dim>60</dim>
					<dim>60</dim>
				</port>
			</output>
		</layer>
		<layer id="416" name="/model.4/m.1/cv2/act/Mul" type="Multiply" version="opset1">
			<data auto_broadcast="numpy" />
			<input>
				<port id="0" precision="FP32">
					<dim>1</dim>
					<dim>32</dim>
					<dim>60</dim>
					<dim>60</dim>
				</port>
				<port id="1" precision="FP32">
					<dim>1</dim>
					<dim>32</dim>
					<dim>60</dim>
					<dim>60</dim>
				</port>
			</input>
			<output>
				<port id="2" precision="FP32" names="/model.4/m.1/cv2/act/Mul_output_0">
					<dim>1</dim>
					<dim>32</dim>
					<dim>60</dim>
					<dim>60</dim>
				</port>
			</output>
		</layer>
		<layer id="417" name="/model.4/m.1/cv2/act/Mul/fq_output_0/input_low" type="Const" version="opset1">
			<data element_type="f32" shape="" offset="112888" size="4" />
			<output>
				<port id="0" precision="FP32" />
			</output>
		</layer>
		<layer id="418" name="/model.4/m.1/cv2/act/Mul/fq_output_0/input_high" type="Const" version="opset1">
			<data element_type="f32" shape="" offset="112892" size="4" />
			<output>
				<port id="0" precision="FP32" />
			</output>
		</layer>
		<layer id="419" name="/model.4/m.1/cv2/act/Mul/fq_output_0/output_low" type="Const" version="opset1">
			<data element_type="f32" shape="" offset="112888" size="4" />
			<output>
				<port id="0" precision="FP32" />
			</output>
		</layer>
		<layer id="420" name="/model.4/m.1/cv2/act/Mul/fq_output_0/output_high" type="Const" version="opset1">
			<data element_type="f32" shape="" offset="112892" size="4" />
			<output>
				<port id="0" precision="FP32" />
			</output>
		</layer>
		<layer id="421" name="/model.4/m.1/cv2/act/Mul/fq_output_0" type="FakeQuantize" version="opset1">
			<data levels="256" auto_broadcast="numpy" />
			<input>
				<port id="0" precision="FP32">
					<dim>1</dim>
					<dim>32</dim>
					<dim>60</dim>
					<dim>60</dim>
				</port>
				<port id="1" precision="FP32" />
				<port id="2" precision="FP32" />
				<port id="3" precision="FP32" />
				<port id="4" precision="FP32" />
			</input>
			<output>
				<port id="5" precision="FP32">
					<dim>1</dim>
					<dim>32</dim>
					<dim>60</dim>
					<dim>60</dim>
				</port>
			</output>
		</layer>
		<layer id="422" name="/model.4/m.1/Add" type="Add" version="opset1">
			<data auto_broadcast="numpy" />
			<input>
				<port id="0" precision="FP32">
					<dim>1</dim>
					<dim>32</dim>
					<dim>60</dim>
					<dim>60</dim>
				</port>
				<port id="1" precision="FP32">
					<dim>1</dim>
					<dim>32</dim>
					<dim>60</dim>
					<dim>60</dim>
				</port>
			</input>
			<output>
				<port id="2" precision="FP32" names="/model.4/m.1/Add_output_0">
					<dim>1</dim>
					<dim>32</dim>
					<dim>60</dim>
					<dim>60</dim>
				</port>
…
		<edge from-layer="2305" from-port="1" to-layer="2310" to-port="0" />
		<edge from-layer="2306" from-port="0" to-layer="2310" to-port="1" />
		<edge from-layer="2307" from-port="0" to-layer="2310" to-port="2" />
		<edge from-layer="2308" from-port="0" to-layer="2310" to-port="3" />
		<edge from-layer="2309" from-port="0" to-layer="2310" to-port="4" />
		<edge from-layer="2310" from-port="5" to-layer="2311" to-port="1" />
		<edge from-layer="2311" from-port="2" to-layer="2316" to-port="0" />
		<edge from-layer="2312" from-port="0" to-layer="2316" to-port="1" />
		<edge from-layer="2313" from-port="0" to-layer="2316" to-port="2" />
		<edge from-layer="2314" from-port="0" to-layer="2316" to-port="3" />
		<edge from-layer="2315" from-port="0" to-layer="2316" to-port="4" />
		<edge from-layer="2316" from-port="5" to-layer="2318" to-port="0" />
		<edge from-layer="2317" from-port="0" to-layer="2318" to-port="1" />
		<edge from-layer="2318" from-port="4" to-layer="2520" to-port="1" />
		<edge from-layer="2318" from-port="3" to-layer="2520" to-port="0" />
		<edge from-layer="2318" from-port="4" to-layer="2514" to-port="0" />
		<edge from-layer="2318" from-port="4" to-layer="2333" to-port="0" />
		<edge from-layer="2319" from-port="0" to-layer="2321" to-port="0" />
		<edge from-layer="2319" from-port="0" to-layer="2327" to-port="0" />
		<edge from-layer="2320" from-port="0" to-layer="2325" to-port="1" />
		<edge from-layer="2320" from-port="0" to-layer="2326" to-port="0" />
		<edge from-layer="2321" from-port="1" to-layer="2324" to-port="0" />
		<edge from-layer="2322" from-port="0" to-layer="2324" to-port="1" />
		<edge from-layer="2323" from-port="0" to-layer="2324" to-port="2" />
		<edge from-layer="2324" from-port="4" to-layer="2326" to-port="2" />
		<edge from-layer="2324" from-port="3" to-layer="2325" to-port="0" />
		<edge from-layer="2325" from-port="2" to-layer="2326" to-port="1" />
		<edge from-layer="2326" from-port="3" to-layer="2327" to-port="1" />
		<edge from-layer="2327" from-port="2" to-layer="2332" to-port="0" />
		<edge from-layer="2328" from-port="0" to-layer="2332" to-port="1" />
		<edge from-layer="2329" from-port="0" to-layer="2332" to-port="2" />
		<edge from-layer="2330" from-port="0" to-layer="2332" to-port="3" />
		<edge from-layer="2331" from-port="0" to-layer="2332" to-port="4" />
		<edge from-layer="2332" from-port="5" to-layer="2333" to-port="1" />
		<edge from-layer="2333" from-port="2" to-layer="2337" to-port="0" />
		<edge from-layer="2333" from-port="2" to-layer="2344" to-port="0" />
		<edge from-layer="2334" from-port="0" to-layer="2336" to-port="0" />
		<edge from-layer="2334" from-port="0" to-layer="2343" to-port="0" />
		<edge from-layer="2335" from-port="0" to-layer="2342" to-port="0" />
		<edge from-layer="2335" from-port="0" to-layer="2341" to-port="0" />
		<edge from-layer="2336" from-port="1" to-layer="2342" to-port="1" />
		<edge from-layer="2337" from-port="1" to-layer="2338" to-port="0" />
		<edge from-layer="2338" from-port="1" to-layer="2340" to-port="0" />
		<edge from-layer="2339" from-port="0" to-layer="2340" to-port="1" />
		<edge from-layer="2340" from-port="2" to-layer="2341" to-port="1" />
		<edge from-layer="2341" from-port="2" to-layer="2342" to-port="2" />
		<edge from-layer="2342" from-port="3" to-layer="2343" to-port="1" />
		<edge from-layer="2343" from-port="2" to-layer="2344" to-port="1" />
		<edge from-layer="2344" from-port="2" to-layer="2349" to-port="0" />
		<edge from-layer="2344" from-port="2" to-layer="2350" to-port="0" />
		<edge from-layer="2345" from-port="0" to-layer="2349" to-port="1" />
		<edge from-layer="2346" from-port="0" to-layer="2349" to-port="2" />
		<edge from-layer="2347" from-port="0" to-layer="2349" to-port="3" />
		<edge from-layer="2348" from-port="0" to-layer="2349" to-port="4" />
		<edge from-layer="2349" from-port="5" to-layer="2356" to-port="0" />
		<edge from-layer="2350" from-port="1" to-layer="2355" to-port="0" />
		<edge from-layer="2351" from-port="0" to-layer="2355" to-port="1" />
		<edge from-layer="2352" from-port="0" to-layer="2355" to-port="2" />
		<edge from-layer="2353" from-port="0" to-layer="2355" to-port="3" />
		<edge from-layer="2354" from-port="0" to-layer="2355" to-port="4" />
		<edge from-layer="2355" from-port="5" to-layer="2356" to-port="1" />
		<edge from-layer="2356" from-port="2" to-layer="2361" to-port="0" />
		<edge from-layer="2357" from-port="0" to-layer="2361" to-port="1" />
		<edge from-layer="2358" from-port="0" to-layer="2361" to-port="2" />
		<edge from-layer="2359" from-port="0" to-layer="2361" to-port="3" />
		<edge from-layer="2360" from-port="0" to-layer="2361" to-port="4" />
		<edge from-layer="2361" from-port="5" to-layer="2366" to-port="0" />
		<edge from-layer="2362" from-port="0" to-layer="2363" to-port="0" />
		<edge from-layer="2363" from-port="1" to-layer="2365" to-port="0" />
		<edge from-layer="2364" from-port="0" to-layer="2365" to-port="1" />
		<edge from-layer="2365" from-port="2" to-layer="2366" to-port="1" />
		<edge from-layer="2366" from-port="2" to-layer="2370" to-port="0" />
		<edge from-layer="2366" from-port="2" to-layer="2377" to-port="0" />
		<edge from-layer="2367" from-port="0" to-layer="2376" to-port="0" />
		<edge from-layer="2367" from-port="0" to-layer="2369" to-port="0" />
		<edge from-layer="2368" from-port="0" to-layer="2375" to-port="0" />
		<edge from-layer="2368" from-port="0" to-layer="2374" to-port="0" />
		<edge from-layer="2369" from-port="1" to-layer="2375" to-port="1" />
		<edge from-layer="2370" from-port="1" to-layer="2371" to-port="0" />
		<edge from-layer="2371" from-port="1" to-layer="2373" to-port="0" />
		<edge from-layer="2372" from-port="0" to-layer="2373" to-port="1" />
		<edge from-layer="2373" from-port="2" to-layer="2374" to-port="1" />
		<edge from-layer="2374" from-port="2" to-layer="2375" to-port="2" />
		<edge from-layer="2375" from-port="3" to-layer="2376" to-port="1" />
		<edge from-layer="2376" from-port="2" to-layer="2377" to-port="1" />
		<edge from-layer="2377" from-port="2" to-layer="2382" to-port="0" />
		<edge from-layer="2377" from-port="2" to-layer="2383" to-port="0" />
		<edge from-layer="2378" from-port="0" to-layer="2382" to-port="1" />
		<edge from-layer="2379" from-port="0" to-layer="2382" to-port="2" />
		<edge from-layer="2380" from-port="0" to-layer="2382" to-port="3" />
		<edge from-layer="2381" from-port="0" to-layer="2382" to-port="4" />
		<edge from-layer="2382" from-port="5" to-layer="2389" to-port="0" />
		<edge from-layer="2383" from-port="1" to-layer="2388" to-port="0" />
		<edge from-layer="2384" from-port="0" to-layer="2388" to-port="1" />
		<edge from-layer="2385" from-port="0" to-layer="2388" to-port="2" />
		<edge from-layer="2386" from-port="0" to-layer="2388" to-port="3" />
		<edge from-layer="2387" from-port="0" to-layer="2388" to-port="4" />
		<edge from-layer="2388" from-port="5" to-layer="2389" to-port="1" />
		<edge from-layer="2389" from-port="2" to-layer="2394" to-port="0" />
		<edge from-layer="2390" from-port="0" to-layer="2394" to-port="1" />
		<edge from-layer="2391" from-port="0" to-layer="2394" to-port="2" />
		<edge from-layer="2392" from-port="0" to-layer="2394" to-port="3" />
		<edge from-layer="2393" from-port="0" to-layer="2394" to-port="4" />
		<edge from-layer="2394" from-port="5" to-layer="2409" to-port="0" />
		<edge from-layer="2395" from-port="0" to-layer="2397" to-port="0" />
		<edge from-layer="2395" from-port="0" to-layer="2403" to-port="0" />
		<edge from-layer="2396" from-port="0" to-layer="2401" to-port="1" />
		<edge from-layer="2396" from-port="0" to-layer="2402" to-port="0" />
		<edge from-layer="2397" from-port="1" to-layer="2400" to-port="0" />
		<edge from-layer="2398" from-port="0" to-layer="2400" to-port="1" />
		<edge from-layer="2399" from-port="0" to-layer="2400" to-port="2" />
		<edge from-layer="2400" from-port="4" to-layer="2402" to-port="2" />
		<edge from-layer="2400" from-port="3" to-layer="2401" to-port="0" />
		<edge from-layer="2401" from-port="2" to-layer="2402" to-port="1" />
		<edge from-layer="2402" from-port="3" to-layer="2403" to-port="1" />
		<edge from-layer="2403" from-port="2" to-layer="2408" to-port="0" />
		<edge from-layer="2404" from-port="0" to-layer="2408" to-port="1" />
		<edge from-layer="2405" from-port="0" to-layer="2408" to-port="2" />
		<edge from-layer="2406" from-port="0" to-layer="2408" to-port="3" />
		<edge from-layer="2407" from-port="0" to-layer="2408" to-port="4" />
		<edge from-layer="2408" from-port="5" to-layer="2409" to-port="1" />
		<edge from-layer="2409" from-port="2" to-layer="2413" to-port="0" />
		<edge from-layer="2409" from-port="2" to-layer="2420" to-port="0" />
		<edge from-layer="2410" from-port="0" to-layer="2412" to-port="0" />
		<edge from-layer="2410" from-port="0" to-layer="2419" to-port="0" />
		<edge from-layer="2411" from-port="0" to-layer="2417" to-port="0" />
		<edge from-layer="2411" from-port="0" to-layer="2418" to-port="0" />
		<edge from-layer="2412" from-port="1" to-layer="2418" to-port="1" />
		<edge from-layer="2413" from-port="1" to-layer="2414" to-port="0" />
		<edge from-layer="2414" from-port="1" to-layer="2416" to-port="0" />
		<edge from-layer="2415" from-port="0" to-layer="2416" to-port="1" />
		<edge from-layer="2416" from-port="2" to-layer="2417" to-port="1" />
		<edge from-layer="2417" from-port="2" to-layer="2418" to-port="2" />
		<edge from-layer="2418" from-port="3" to-layer="2419" to-port="1" />
		<edge from-layer="2419" from-port="2" to-layer="2420" to-port="1" />
		<edge from-layer="2420" from-port="2" to-layer="2425" to-port="0" />
		<edge from-layer="2420" from-port="2" to-layer="2426" to-port="0" />
		<edge from-layer="2421" from-port="0" to-layer="2425" to-port="1" />
		<edge from-layer="2422" from-port="0" to-layer="2425" to-port="2" />
		<edge from-layer="2423" from-port="0" to-layer="2425" to-port="3" />
		<edge from-layer="2424" from-port="0" to-layer="2425" to-port="4" />
		<edge from-layer="2425" from-port="5" to-layer="2432" to-port="0" />
		<edge from-layer="2426" from-port="1" to-layer="2431" to-port="0" />
		<edge from-layer="2427" from-port="0" to-layer="2431" to-port="1" />
		<edge from-layer="2428" from-port="0" to-layer="2431" to-port="2" />
		<edge from-layer="2429" from-port="0" to-layer="2431" to-port="3" />
		<edge from-layer="2430" from-port="0" to-layer="2431" to-port="4" />
		<edge from-layer="2431" from-port="5" to-layer="2432" to-port="1" />
		<edge from-layer="2432" from-port="2" to-layer="2437" to-port="0" />
		<edge from-layer="2433" from-port="0" to-layer="2437" to-port="1" />
		<edge from-layer="2434" from-port="0" to-layer="2437" to-port="2" />
		<edge from-layer="2435" from-port="0" to-layer="2437" to-port="3" />
		<edge from-layer="2436" from-port="0" to-layer="2437" to-port="4" />
		<edge from-layer="2437" from-port="5" to-layer="2442" to-port="0" />
		<edge from-layer="2438" from-port="0" to-layer="2439" to-port="0" />
		<edge from-layer="2439" from-port="1" to-layer="2441" to-port="0" />
		<edge from-layer="2440" from-port="0" to-layer="2441" to-port="1" />
		<edge from-layer="2441" from-port="2" to-layer="2442" to-port="1" />
		<edge from-layer="2442" from-port="2" to-layer="2446" to-port="0" />
		<edge from-layer="2442" from-port="2" to-layer="2453" to-port="0" />
		<edge from-layer="2443" from-port="0" to-layer="2452" to-port="0" />
		<edge from-layer="2443" from-port="0" to-layer="2445" to-port="0" />
		<edge from-layer="2444" from-port="0" to-layer="2451" to-port="0" />
		<edge from-layer="2444" from-port="0" to-layer="2450" to-port="0" />
		<edge from-layer="2445" from-port="1" to-layer="2451" to-port="1" />
		<edge from-layer="2446" from-port="1" to-layer="2447" to-port="0" />
		<edge from-layer="2447" from-port="1" to-layer="2449" to-port="0" />
		<edge from-layer="2448" from-port="0" to-layer="2449" to-port="1" />
		<edge from-layer="2449" from-port="2" to-layer="2450" to-port="1" />
		<edge from-layer="2450" from-port="2" to-layer="2451" to-port="2" />
		<edge from-layer="2451" from-port="3" to-layer="2452" to-port="1" />
		<edge from-layer="2452" from-port="2" to-layer="2453" to-port="1" />
		<edge from-layer="2453" from-port="2" to-layer="2458" to-port="0" />
		<edge from-layer="2453" from-port="2" to-layer="2459" to-port="0" />
		<edge from-layer="2454" from-port="0" to-layer="2458" to-port="1" />
		<edge from-layer="2455" from-port="0" to-layer="2458" to-port="2" />
		<edge from-layer="2456" from-port="0" to-layer="2458" to-port="3" />
		<edge from-layer="2457" from-port="0" to-layer="2458" to-port="4" />
		<edge from-layer="2458" from-port="5" to-layer="2465" to-port="0" />
		<edge from-layer="2459" from-port="1" to-layer="2464" to-port="0" />
		<edge from-layer="2460" from-port="0" to-layer="2464" to-port="1" />
		<edge from-layer="2461" from-port="0" to-layer="2464" to-port="2" />
		<edge from-layer="2462" from-port="0" to-layer="2464" to-port="3" />
		<edge from-layer="2463" from-port="0" to-layer="2464" to-port="4" />
		<edge from-layer="2464" from-port="5" to-layer="2465" to-port="1" />
		<edge from-layer="2465" from-port="2" to-layer="2470" to-port="0" />
		<edge from-layer="2466" from-port="0" to-layer="2470" to-port="1" />
		<edge from-layer="2467" from-port="0" to-layer="2470" to-port="2" />
		<edge from-layer="2468" from-port="0" to-layer="2470" to-port="3" />
		<edge from-layer="2469" from-port="0" to-layer="2470" to-port="4" />
		<edge from-layer="2470" from-port="5" to-layer="2485" to-port="0" />
		<edge from-layer="2471" from-port="0" to-layer="2479" to-port="0" />
		<edge from-layer="2471" from-port="0" to-layer="2473" to-port="0" />
		<edge from-layer="2472" from-port="0" to-layer="2478" to-port="0" />
		<edge from-layer="2472" from-port="0" to-layer="2477" to-port="1" />
		<edge from-layer="2473" from-port="1" to-layer="2476" to-port="0" />
		<edge from-layer="2474" from-port="0" to-layer="2476" to-port="1" />
		<edge from-layer="2475" from-port="0" to-layer="2476" to-port="2" />
		<edge from-layer="2476" from-port="3" to-layer="2477" to-port="0" />
		<edge from-layer="2476" from-port="4" to-layer="2478" to-port="2" />
		<edge from-layer="2477" from-port="2" to-layer="2478" to-port="1" />
		<edge from-layer="2478" from-port="3" to-layer="2479" to-port="1" />
		<edge from-layer="2479" from-port="2" to-layer="2484" to-port="0" />
		<edge from-layer="2480" from-port="0" to-layer="2484" to-port="1" />
		<edge from-layer="2481" from-port="0" to-layer="2484" to-port="2" />
		<edge from-layer="2482" from-port="0" to-layer="2484" to-port="3" />
		<edge from-layer="2483" from-port="0" to-layer="2484" to-port="4" />
		<edge from-layer="2484" from-port="5" to-layer="2485" to-port="1" />
		<edge from-layer="2485" from-port="2" to-layer="2489" to-port="0" />
		<edge from-layer="2485" from-port="2" to-layer="2496" to-port="0" />
		<edge from-layer="2486" from-port="0" to-layer="2495" to-port="0" />
		<edge from-layer="2486" from-port="0" to-layer="2488" to-port="0" />
		<edge from-layer="2487" from-port="0" to-layer="2493" to-port="0" />
		<edge from-layer="2487" from-port="0" to-layer="2494" to-port="0" />
		<edge from-layer="2488" from-port="1" to-layer="2494" to-port="1" />
		<edge from-layer="2489" from-port="1" to-layer="2490" to-port="0" />
		<edge from-layer="2490" from-port="1" to-layer="2492" to-port="0" />
		<edge from-layer="2491" from-port="0" to-layer="2492" to-port="1" />
		<edge from-layer="2492" from-port="2" to-layer="2493" to-port="1" />
		<edge from-layer="2493" from-port="2" to-layer="2494" to-port="2" />
		<edge from-layer="2494" from-port="3" to-layer="2495" to-port="1" />
		<edge from-layer="2495" from-port="2" to-layer="2496" to-port="1" />
		<edge from-layer="2496" from-port="2" to-layer="2502" to-port="0" />
		<edge from-layer="2496" from-port="2" to-layer="2501" to-port="0" />
		<edge from-layer="2497" from-port="0" to-layer="2501" to-port="1" />
		<edge from-layer="2498" from-port="0" to-layer="2501" to-port="2" />
		<edge from-layer="2499" from-port="0" to-layer="2501" to-port="3" />
		<edge from-layer="2500" from-port="0" to-layer="2501" to-port="4" />
		<edge from-layer="2501" from-port="5" to-layer="2508" to-port="0" />
		<edge from-layer="2502" from-port="1" to-layer="2507" to-port="0" />
		<edge from-layer="2503" from-port="0" to-layer="2507" to-port="1" />
		<edge from-layer="2504" from-port="0" to-layer="2507" to-port="2" />
		<edge from-layer="2505" from-port="0" to-layer="2507" to-port="3" />
		<edge from-layer="2506" from-port="0" to-layer="2507" to-port="4" />
		<edge from-layer="2507" from-port="5" to-layer="2508" to-port="1" />
		<edge from-layer="2508" from-port="2" to-layer="2513" to-port="0" />
		<edge from-layer="2509" from-port="0" to-layer="2513" to-port="1" />
		<edge from-layer="2510" from-port="0" to-layer="2513" to-port="2" />
		<edge from-layer="2511" from-port="0" to-layer="2513" to-port="3" />
		<edge from-layer="2512" from-port="0" to-layer="2513" to-port="4" />
		<edge from-layer="2513" from-port="5" to-layer="2514" to-port="1" />
		<edge from-layer="2514" from-port="2" to-layer="2519" to-port="0" />
		<edge from-layer="2515" from-port="0" to-layer="2519" to-port="1" />
		<edge from-layer="2516" from-port="0" to-layer="2519" to-port="2" />
		<edge from-layer="2517" from-port="0" to-layer="2519" to-port="3" />
		<edge from-layer="2518" from-port="0" to-layer="2519" to-port="4" />
		<edge from-layer="2519" from-port="5" to-layer="2520" to-port="2" />
		<edge from-layer="2520" from-port="3" to-layer="2525" to-port="0" />
		<edge from-layer="2521" from-port="0" to-layer="2522" to-port="0" />
		<edge from-layer="2522" from-port="1" to-layer="2524" to-port="0" />
		<edge from-layer="2523" from-port="0" to-layer="2524" to-port="1" />
		<edge from-layer="2524" from-port="2" to-layer="2525" to-port="1" />
		<edge from-layer="2525" from-port="2" to-layer="2536" to-port="0" />
		<edge from-layer="2525" from-port="2" to-layer="2529" to-port="0" />
		<edge from-layer="2526" from-port="0" to-layer="2535" to-port="0" />
		<edge from-layer="2526" from-port="0" to-layer="2528" to-port="0" />
		<edge from-layer="2527" from-port="0" to-layer="2533" to-port="0" />
		<edge from-layer="2527" from-port="0" to-layer="2534" to-port="0" />
		<edge from-layer="2528" from-port="1" to-layer="2534" to-port="1" />
		<edge from-layer="2529" from-port="1" to-layer="2530" to-port="0" />
		<edge from-layer="2530" from-port="1" to-layer="2532" to-port="0" />
		<edge from-layer="2531" from-port="0" to-layer="2532" to-port="1" />
		<edge from-layer="2532" from-port="2" to-layer="2533" to-port="1" />
		<edge from-layer="2533" from-port="2" to-layer="2534" to-port="2" />
		<edge from-layer="2534" from-port="3" to-layer="2535" to-port="1" />
		<edge from-layer="2535" from-port="2" to-layer="2536" to-port="1" />
		<edge from-layer="2536" from-port="2" to-layer="2542" to-port="0" />
		<edge from-layer="2536" from-port="2" to-layer="2541" to-port="0" />
		<edge from-layer="2537" from-port="0" to-layer="2541" to-port="1" />
		<edge from-layer="2538" from-port="0" to-layer="2541" to-port="2" />
		<edge from-layer="2539" from-port="0" to-layer="2541" to-port="3" />
		<edge from-layer="2540" from-port="0" to-layer="2541" to-port="4" />
		<edge from-layer="2541" from-port="5" to-layer="2548" to-port="0" />
		<edge from-layer="2542" from-port="1" to-layer="2547" to-port="0" />
		<edge from-layer="2543" from-port="0" to-layer="2547" to-port="1" />
		<edge from-layer="2544" from-port="0" to-layer="2547" to-port="2" />
		<edge from-layer="2545" from-port="0" to-layer="2547" to-port="3" />
		<edge from-layer="2546" from-port="0" to-layer="2547" to-port="4" />
		<edge from-layer="2547" from-port="5" to-layer="2548" to-port="1" />
		<edge from-layer="2548" from-port="2" to-layer="2553" to-port="0" />
		<edge from-layer="2549" from-port="0" to-layer="2553" to-port="1" />
		<edge from-layer="2550" from-port="0" to-layer="2553" to-port="2" />
		<edge from-layer="2551" from-port="0" to-layer="2553" to-port="3" />
		<edge from-layer="2552" from-port="0" to-layer="2553" to-port="4" />
		<edge from-layer="2553" from-port="5" to-layer="2558" to-port="0" />
		<edge from-layer="2553" from-port="5" to-layer="2650" to-port="0" />
		<edge from-layer="2554" from-port="0" to-layer="2555" to-port="0" />
		<edge from-layer="2555" from-port="1" to-layer="2557" to-port="0" />
		<edge from-layer="2556" from-port="0" to-layer="2557" to-port="1" />
		<edge from-layer="2557" from-port="2" to-layer="2558" to-port="1" />
		<edge from-layer="2558" from-port="2" to-layer="2562" to-port="0" />
		<edge from-layer="2558" from-port="2" to-layer="2569" to-port="0" />
		<edge from-layer="2559" from-port="0" to-layer="2568" to-port="0" />
		<edge from-layer="2559" from-port="0" to-layer="2561" to-port="0" />
		<edge from-layer="2560" from-port="0" to-layer="2566" to-port="0" />
		<edge from-layer="2560" from-port="0" to-layer="2567" to-port="0" />
		<edge from-layer="2561" from-port="1" to-layer="2567" to-port="1" />
		<edge from-layer="2562" from-port="1" to-layer="2563" to-port="0" />
		<edge from-layer="2563" from-port="1" to-layer="2565" to-port="0" />
		<edge from-layer="2564" from-port="0" to-layer="2565" to-port="1" />
		<edge from-layer="2565" from-port="2" to-layer="2566" to-port="1" />
		<edge from-layer="2566" from-port="2" to-layer="2567" to-port="2" />
		<edge from-layer="2567" from-port="3" to-layer="2568" to-port="1" />
		<edge from-layer="2568" from-port="2" to-layer="2569" to-port="1" />
		<edge from-layer="2569" from-port="2" to-layer="2574" to-port="0" />
		<edge from-layer="2569" from-port="2" to-layer="2575" to-port="0" />
		<edge from-layer="2570" from-port="0" to-layer="2574" to-port="1" />
		<edge from-layer="2571" from-port="0" to-layer="2574" to-port="2" />
		<edge from-layer="2572" from-port="0" to-layer="2574" to-port="3" />
		<edge from-layer="2573" from-port="0" to-layer="2574" to-port="4" />
		<edge from-layer="2574" from-port="5" to-layer="2581" to-port="0" />
		<edge from-layer="2575" from-port="1" to-layer="2580" to-port="0" />
		<edge from-layer="2576" from-port="0" to-layer="2580" to-port="1" />
		<edge from-layer="2577" from-port="0" to-layer="2580" to-port="2" />
		<edge from-layer="2578" from-port="0" to-layer="2580" to-port="3" />
		<edge from-layer="2579" from-port="0" to-layer="2580" to-port="4" />
		<edge from-layer="2580" from-port="5" to-layer="2581" to-port="1" />
		<edge from-layer="2581" from-port="2" to-layer="2586" to-port="0" />
		<edge from-layer="2582" from-port="0" to-layer="2586" to-port="1" />
		<edge from-layer="2583" from-port="0" to-layer="2586" to-port="2" />
		<edge from-layer="2584" from-port="0" to-layer="2586" to-port="3" />
		<edge from-layer="2585" from-port="0" to-layer="2586" to-port="4" />
		<edge from-layer="2586" from-port="5" to-layer="2591" to-port="0" />
		<edge from-layer="2587" from-port="0" to-layer="2588" to-port="0" />
		<edge from-layer="2588" from-port="1" to-layer="2590" to-port="0" />
		<edge from-layer="2589" from-port="0" to-layer="2590" to-port="1" />
		<edge from-layer="2590" from-port="2" to-layer="2591" to-port="1" />
		<edge from-layer="2591" from-port="2" to-layer="2595" to-port="0" />
		<edge from-layer="2591" from-port="2" to-layer="2602" to-port="0" />
		<edge from-layer="2592" from-port="0" to-layer="2594" to-port="0" />
		<edge from-layer="2592" from-port="0" to-layer="2601" to-port="0" />
		<edge from-layer="2593" from-port="0" to-layer="2599" to-port="0" />
		<edge from-layer="2593" from-port="0" to-layer="2600" to-port="0" />
		<edge from-layer="2594" from-port="1" to-layer="2600" to-port="1" />
		<edge from-layer="2595" from-port="1" to-layer="2596" to-port="0" />
		<edge from-layer="2596" from-port="1" to-layer="2598" to-port="0" />
		<edge from-layer="2597" from-port="0" to-layer="2598" to-port="1" />
		<edge from-layer="2598" from-port="2" to-layer="2599" to-port="1" />
		<edge from-layer="2599" from-port="2" to-layer="2600" to-port="2" />
		<edge from-layer="2600" from-port="3" to-layer="2601" to-port="1" />
		<edge from-layer="2601" from-port="2" to-layer="2602" to-port="1" />
		<edge from-layer="2602" from-port="2" to-layer="2607" to-port="0" />
		<edge from-layer="2602" from-port="2" to-layer="2608" to-port="0" />
		<edge from-layer="2603" from-port="0" to-layer="2607" to-port="1" />
		<edge from-layer="2604" from-port="0" to-layer="2607" to-port="2" />
		<edge from-layer="2605" from-port="0" to-layer="2607" to-port="3" />
		<edge from-layer="2606" from-port="0" to-layer="2607" to-port="4" />
		<edge from-layer="2607" from-port="5" to-layer="2614" to-port="0" />
		<edge from-layer="2608" from-port="1" to-layer="2613" to-port="0" />
		<edge from-layer="2609" from-port="0" to-layer="2613" to-port="1" />
		<edge from-layer="2610" from-port="0" to-layer="2613" to-port="2" />
		<edge from-layer="2611" from-port="0" to-layer="2613" to-port="3" />
		<edge from-layer="2612" from-port="0" to-layer="2613" to-port="4" />
		<edge from-layer="2613" from-port="5" to-layer="2614" to-port="1" />
		<edge from-layer="2614" from-port="2" to-layer="2619" to-port="0" />
		<edge from-layer="2615" from-port="0" to-layer="2619" to-port="1" />
		<edge from-layer="2616" from-port="0" to-layer="2619" to-port="2" />
		<edge from-layer="2617" from-port="0" to-layer="2619" to-port="3" />
		<edge from-layer="2618" from-port="0" to-layer="2619" to-port="4" />
		<edge from-layer="2619" from-port="5" to-layer="2624" to-port="0" />
		<edge from-layer="2620" from-port="0" to-layer="2621" to-port="0" />
		<edge from-layer="2621" from-port="1" to-layer="2623" to-port="0" />
		<edge from-layer="2622" from-port="0" to-layer="2623" to-port="1" />
		<edge from-layer="2623" from-port="2" to-layer="2624" to-port="1" />
		<edge from-layer="2624" from-port="2" to-layer="2628" to-port="0" />
		<edge from-layer="2624" from-port="2" to-layer="2635" to-port="0" />
		<edge from-layer="2625" from-port="0" to-layer="2627" to-port="0" />
		<edge from-layer="2625" from-port="0" to-layer="2634" to-port="0" />
		<edge from-layer="2626" from-port="0" to-layer="2632" to-port="0" />
		<edge from-layer="2626" from-port="0" to-layer="2633" to-port="0" />
		<edge from-layer="2627" from-port="1" to-layer="2633" to-port="1" />
		<edge from-layer="2628" from-port="1" to-layer="2629" to-port="0" />
		<edge from-layer="2629" from-port="1" to-layer="2631" to-port="0" />
		<edge from-layer="2630" from-port="0" to-layer="2631" to-port="1" />
		<edge from-layer="2631" from-port="2" to-layer="2632" to-port="1" />
		<edge from-layer="2632" from-port="2" to-layer="2633" to-port="2" />
		<edge from-layer="2633" from-port="3" to-layer="2634" to-port="1" />
		<edge from-layer="2634" from-port="2" to-layer="2635" to-port="1" />
		<edge from-layer="2635" from-port="2" to-layer="2804" to-port="0" />
		<edge from-layer="2636" from-port="0" to-layer="2638" to-port="0" />
		<edge from-layer="2636" from-port="0" to-layer="2644" to-port="0" />
		<edge from-layer="2637" from-port="0" to-layer="2643" to-port="0" />
		<edge from-layer="2637" from-port="0" to-layer="2642" to-port="1" />
		<edge from-layer="2638" from-port="1" to-layer="2641" to-port="0" />
		<edge from-layer="2639" from-port="0" to-layer="2641" to-port="1" />
		<edge from-layer="2640" from-port="0" to-layer="2641" to-port="2" />
		<edge from-layer="2641" from-port="3" to-layer="2642" to-port="0" />
		<edge from-layer="2641" from-port="4" to-layer="2643" to-port="2" />
		<edge from-layer="2642" from-port="2" to-layer="2643" to-port="1" />
		<edge from-layer="2643" from-port="3" to-layer="2644" to-port="1" />
		<edge from-layer="2644" from-port="2" to-layer="2649" to-port="0" />
		<edge from-layer="2645" from-port="0" to-layer="2649" to-port="1" />
		<edge from-layer="2646" from-port="0" to-layer="2649" to-port="2" />
		<edge from-layer="2647" from-port="0" to-layer="2649" to-port="3" />
		<edge from-layer="2648" from-port="0" to-layer="2649" to-port="4" />
		<edge from-layer="2649" from-port="5" to-layer="2650" to-port="1" />
		<edge from-layer="2650" from-port="2" to-layer="2654" to-port="0" />
		<edge from-layer="2650" from-port="2" to-layer="2661" to-port="0" />
		<edge from-layer="2651" from-port="0" to-layer="2660" to-port="0" />
		<edge from-layer="2651" from-port="0" to-layer="2653" to-port="0" />
		<edge from-layer="2652" from-port="0" to-layer="2659" to-port="0" />
		<edge from-layer="2652" from-port="0" to-layer="2658" to-port="0" />
		<edge from-layer="2653" from-port="1" to-layer="2659" to-port="1" />
		<edge from-layer="2654" from-port="1" to-layer="2655" to-port="0" />
		<edge from-layer="2655" from-port="1" to-layer="2657" to-port="0" />
		<edge from-layer="2656" from-port="0" to-layer="2657" to-port="1" />
		<edge from-layer="2657" from-port="2" to-layer="2658" to-port="1" />
		<edge from-layer="2658" from-port="2" to-layer="2659" to-port="2" />
		<edge from-layer="2659" from-port="3" to-layer="2660" to-port="1" />
		<edge from-layer="2660" from-port="2" to-layer="2661" to-port="1" />
		<edge from-layer="2661" from-port="2" to-layer="2666" to-port="0" />
		<edge from-layer="2661" from-port="2" to-layer="2667" to-port="0" />
		<edge from-layer="2662" from-port="0" to-layer="2666" to-port="1" />
		<edge from-layer="2663" from-port="0" to-layer="2666" to-port="2" />
		<edge from-layer="2664" from-port="0" to-layer="2666" to-port="3" />
		<edge from-layer="2665" from-port="0" to-layer="2666" to-port="4" />
		<edge from-layer="2666" from-port="5" to-layer="2673" to-port="0" />
		<edge from-layer="2667" from-port="1" to-layer="2672" to-port="0" />
		<edge from-layer="2668" from-port="0" to-layer="2672" to-port="1" />
		<edge from-layer="2669" from-port="0" to-layer="2672" to-port="2" />
		<edge from-layer="2670" from-port="0" to-layer="2672" to-port="3" />
		<edge from-layer="2671" from-port="0" to-layer="2672" to-port="4" />
		<edge from-layer="2672" from-port="5" to-layer="2673" to-port="1" />
		<edge from-layer="2673" from-port="2" to-layer="2678" to-port="0" />
		<edge from-layer="2674" from-port="0" to-layer="2678" to-port="1" />
		<edge from-layer="2675" from-port="0" to-layer="2678" to-port="2" />
		<edge from-layer="2676" from-port="0" to-layer="2678" to-port="3" />
		<edge from-layer="2677" from-port="0" to-layer="2678" to-port="4" />
		<edge from-layer="2678" from-port="5" to-layer="2683" to-port="0" />
		<edge from-layer="2679" from-port="0" to-layer="2680" to-port="0" />
		<edge from-layer="2680" from-port="1" to-layer="2682" to-port="0" />
		<edge from-layer="2681" from-port="0" to-layer="2682" to-port="1" />
		<edge from-layer="2682" from-port="2" to-layer="2683" to-port="1" />
		<edge from-layer="2683" from-port="2" to-layer="2687" to-port="0" />
		<edge from-layer="2683" from-port="2" to-layer="2694" to-port="0" />
		<edge from-layer="2684" from-port="0" to-layer="2686" to-port="0" />
		<edge from-layer="2684" from-port="0" to-layer="2693" to-port="0" />
		<edge from-layer="2685" from-port="0" to-layer="2691" to-port="0" />
		<edge from-layer="2685" from-port="0" to-layer="2692" to-port="0" />
		<edge from-layer="2686" from-port="1" to-layer="2692" to-port="1" />
		<edge from-layer="2687" from-port="1" to-layer="2688" to-port="0" />
		<edge from-layer="2688" from-port="1" to-layer="2690" to-port="0" />
		<edge from-layer="2689" from-port="0" to-layer="2690" to-port="1" />
		<edge from-layer="2690" from-port="2" to-layer="2691" to-port="1" />
		<edge from-layer="2691" from-port="2" to-layer="2692" to-port="2" />
		<edge from-layer="2692" from-port="3" to-layer="2693" to-port="1" />
		<edge from-layer="2693" from-port="2" to-layer="2694" to-port="1" />
		<edge from-layer="2694" from-port="2" to-layer="2700" to-port="0" />
		<edge from-layer="2694" from-port="2" to-layer="2699" to-port="0" />
		<edge from-layer="2695" from-port="0" to-layer="2699" to-port="1" />
		<edge from-layer="2696" from-port="0" to-layer="2699" to-port="2" />
		<edge from-layer="2697" from-port="0" to-layer="2699" to-port="3" />
		<edge from-layer="2698" from-port="0" to-layer="2699" to-port="4" />
		<edge from-layer="2699" from-port="5" to-layer="2706" to-port="0" />
		<edge from-layer="2700" from-port="1" to-layer="2705" to-port="0" />
		<edge from-layer="2701" from-port="0" to-layer="2705" to-port="1" />
		<edge from-layer="2702" from-port="0" to-layer="2705" to-port="2" />
		<edge from-layer="2703" from-port="0" to-layer="2705" to-port="3" />
		<edge from-layer="2704" from-port="0" to-layer="2705" to-port="4" />
		<edge from-layer="2705" from-port="5" to-layer="2706" to-port="1" />
		<edge from-layer="2706" from-port="2" to-layer="2711" to-port="0" />
		<edge from-layer="2707" from-port="0" to-layer="2711" to-port="1" />
		<edge from-layer="2708" from-port="0" to-layer="2711" to-port="2" />
		<edge from-layer="2709" from-port="0" to-layer="2711" to-port="3" />
		<edge from-layer="2710" from-port="0" to-layer="2711" to-port="4" />
		<edge from-layer="2711" from-port="5" to-layer="2726" to-port="0" />
		<edge from-layer="2712" from-port="0" to-layer="2720" to-port="0" />
		<edge from-layer="2712" from-port="0" to-layer="2714" to-port="0" />
		<edge from-layer="2713" from-port="0" to-layer="2718" to-port="1" />
		<edge from-layer="2713" from-port="0" to-layer="2719" to-port="0" />
		<edge from-layer="2714" from-port="1" to-layer="2717" to-port="0" />
		<edge from-layer="2715" from-port="0" to-layer="2717" to-port="1" />
		<edge from-layer="2716" from-port="0" to-layer="2717" to-port="2" />
		<edge from-layer="2717" from-port="3" to-layer="2718" to-port="0" />
		<edge from-layer="2717" from-port="4" to-layer="2719" to-port="2" />
		<edge from-layer="2718" from-port="2" to-layer="2719" to-port="1" />
		<edge from-layer="2719" from-port="3" to-layer="2720" to-port="1" />
		<edge from-layer="2720" from-port="2" to-layer="2725" to-port="0" />
		<edge from-layer="2721" from-port="0" to-layer="2725" to-port="1" />
		<edge from-layer="2722" from-port="0" to-layer="2725" to-port="2" />
		<edge from-layer="2723" from-port="0" to-layer="2725" to-port="3" />
		<edge from-layer="2724" from-port="0" to-layer="2725" to-port="4" />
		<edge from-layer="2725" from-port="5" to-layer="2726" to-port="1" />
		<edge from-layer="2726" from-port="2" to-layer="2730" to-port="0" />
		<edge from-layer="2726" from-port="2" to-layer="2737" to-port="0" />
		<edge from-layer="2727" from-port="0" to-layer="2729" to-port="0" />
		<edge from-layer="2727" from-port="0" to-layer="2736" to-port="0" />
		<edge from-layer="2728" from-port="0" to-layer="2735" to-port="0" />
		<edge from-layer="2728" from-port="0" to-layer="2734" to-port="0" />
		<edge from-layer="2729" from-port="1" to-layer="2735" to-port="1" />
		<edge from-layer="2730" from-port="1" to-layer="2731" to-port="0" />
		<edge from-layer="2731" from-port="1" to-layer="2733" to-port="0" />
		<edge from-layer="2732" from-port="0" to-layer="2733" to-port="1" />
		<edge from-layer="2733" from-port="2" to-layer="2734" to-port="1" />
		<edge from-layer="2734" from-port="2" to-layer="2735" to-port="2" />
		<edge from-layer="2735" from-port="3" to-layer="2736" to-port="1" />
		<edge from-layer="2736" from-port="2" to-layer="2737" to-port="1" />
		<edge from-layer="2737" from-port="2" to-layer="2743" to-port="0" />
		<edge from-layer="2737" from-port="2" to-layer="2742" to-port="0" />
		<edge from-layer="2738" from-port="0" to-layer="2742" to-port="1" />
		<edge from-layer="2739" from-port="0" to-layer="2742" to-port="2" />
		<edge from-layer="2740" from-port="0" to-layer="2742" to-port="3" />
		<edge from-layer="2741" from-port="0" to-layer="2742" to-port="4" />
		<edge from-layer="2742" from-port="5" to-layer="2749" to-port="0" />
		<edge from-layer="2743" from-port="1" to-layer="2748" to-port="0" />
		<edge from-layer="2744" from-port="0" to-layer="2748" to-port="1" />
		<edge from-layer="2745" from-port="0" to-layer="2748" to-port="2" />
		<edge from-layer="2746" from-port="0" to-layer="2748" to-port="3" />
		<edge from-layer="2747" from-port="0" to-layer="2748" to-port="4" />
		<edge from-layer="2748" from-port="5" to-layer="2749" to-port="1" />
		<edge from-layer="2749" from-port="2" to-layer="2754" to-port="0" />
		<edge from-layer="2750" from-port="0" to-layer="2754" to-port="1" />
		<edge from-layer="2751" from-port="0" to-layer="2754" to-port="2" />
		<edge from-layer="2752" from-port="0" to-layer="2754" to-port="3" />
		<edge from-layer="2753" from-port="0" to-layer="2754" to-port="4" />
		<edge from-layer="2754" from-port="5" to-layer="2759" to-port="0" />
		<edge from-layer="2755" from-port="0" to-layer="2756" to-port="0" />
		<edge from-layer="2756" from-port="1" to-layer="2758" to-port="0" />
		<edge from-layer="2757" from-port="0" to-layer="2758" to-port="1" />
		<edge from-layer="2758" from-port="2" to-layer="2759" to-port="1" />
		<edge from-layer="2759" from-port="2" to-layer="2763" to-port="0" />
		<edge from-layer="2759" from-port="2" to-layer="2770" to-port="0" />
		<edge from-layer="2760" from-port="0" to-layer="2762" to-port="0" />
		<edge from-layer="2760" from-port="0" to-layer="2769" to-port="0" />
		<edge from-layer="2761" from-port="0" to-layer="2767" to-port="0" />
		<edge from-layer="2761" from-port="0" to-layer="2768" to-port="0" />
		<edge from-layer="2762" from-port="1" to-layer="2768" to-port="1" />
		<edge from-layer="2763" from-port="1" to-layer="2764" to-port="0" />
		<edge from-layer="2764" from-port="1" to-layer="2766" to-port="0" />
		<edge from-layer="2765" from-port="0" to-layer="2766" to-port="1" />
		<edge from-layer="2766" from-port="2" to-layer="2767" to-port="1" />
		<edge from-layer="2767" from-port="2" to-layer="2768" to-port="2" />
		<edge from-layer="2768" from-port="3" to-layer="2769" to-port="1" />
		<edge from-layer="2769" from-port="2" to-layer="2770" to-port="1" />
		<edge from-layer="2770" from-port="2" to-layer="2776" to-port="0" />
		<edge from-layer="2770" from-port="2" to-layer="2775" to-port="0" />
		<edge from-layer="2771" from-port="0" to-layer="2775" to-port="1" />
		<edge from-layer="2772" from-port="0" to-layer="2775" to-port="2" />
		<edge from-layer="2773" from-port="0" to-layer="2775" to-port="3" />
		<edge from-layer="2774" from-port="0" to-layer="2775" to-port="4" />
		<edge from-layer="2775" from-port="5" to-layer="2782" to-port="0" />
		<edge from-layer="2776" from-port="1" to-layer="2781" to-port="0" />
		<edge from-layer="2777" from-port="0" to-layer="2781" to-port="1" />
		<edge from-layer="2778" from-port="0" to-layer="2781" to-port="2" />
		<edge from-layer="2779" from-port="0" to-layer="2781" to-port="3" />
		<edge from-layer="2780" from-port="0" to-layer="2781" to-port="4" />
		<edge from-layer="2781" from-port="5" to-layer="2782" to-port="1" />
		<edge from-layer="2782" from-port="2" to-layer="2787" to-port="0" />
		<edge from-layer="2783" from-port="0" to-layer="2787" to-port="1" />
		<edge from-layer="2784" from-port="0" to-layer="2787" to-port="2" />
		<edge from-layer="2785" from-port="0" to-layer="2787" to-port="3" />
		<edge from-layer="2786" from-port="0" to-layer="2787" to-port="4" />
		<edge from-layer="2787" from-port="5" to-layer="2792" to-port="0" />
		<edge from-layer="2788" from-port="0" to-layer="2789" to-port="0" />
		<edge from-layer="2789" from-port="1" to-layer="2791" to-port="0" />
		<edge from-layer="2790" from-port="0" to-layer="2791" to-port="1" />
		<edge from-layer="2791" from-port="2" to-layer="2792" to-port="1" />
		<edge from-layer="2792" from-port="2" to-layer="2796" to-port="0" />
		<edge from-layer="2792" from-port="2" to-layer="2803" to-port="0" />
		<edge from-layer="2793" from-port="0" to-layer="2795" to-port="0" />
		<edge from-layer="2793" from-port="0" to-layer="2802" to-port="0" />
		<edge from-layer="2794" from-port="0" to-layer="2801" to-port="0" />
		<edge from-layer="2794" from-port="0" to-layer="2800" to-port="0" />
		<edge from-layer="2795" from-port="1" to-layer="2801" to-port="1" />
		<edge from-layer="2796" from-port="1" to-layer="2797" to-port="0" />
		<edge from-layer="2797" from-port="1" to-layer="2799" to-port="0" />
		<edge from-layer="2798" from-port="0" to-layer="2799" to-port="1" />
		<edge from-layer="2799" from-port="2" to-layer="2800" to-port="1" />
		<edge from-layer="2800" from-port="2" to-layer="2801" to-port="2" />
		<edge from-layer="2801" from-port="3" to-layer="2802" to-port="1" />
		<edge from-layer="2802" from-port="2" to-layer="2803" to-port="1" />
		<edge from-layer="2803" from-port="2" to-layer="2804" to-port="1" />
		<edge from-layer="2804" from-port="2" to-layer="2806" to-port="0" />
		<edge from-layer="2805" from-port="0" to-layer="2806" to-port="1" />
		<edge from-layer="2806" from-port="2" to-layer="2807" to-port="2" />
		<edge from-layer="2807" from-port="3" to-layer="2810" to-port="0" />
		<edge from-layer="2808" from-port="0" to-layer="2810" to-port="1" />
		<edge from-layer="2809" from-port="0" to-layer="2810" to-port="2" />
		<edge from-layer="2810" from-port="3" to-layer="2812" to-port="0" />
		<edge from-layer="2810" from-port="4" to-layer="2855" to-port="0" />
		<edge from-layer="2811" from-port="0" to-layer="2812" to-port="1" />
		<edge from-layer="2812" from-port="2" to-layer="2814" to-port="0" />
		<edge from-layer="2813" from-port="0" to-layer="2814" to-port="1" />
		<edge from-layer="2814" from-port="2" to-layer="2815" to-port="0" />
		<edge from-layer="2815" from-port="1" to-layer="2820" to-port="0" />
		<edge from-layer="2816" from-port="0" to-layer="2820" to-port="1" />
		<edge from-layer="2817" from-port="0" to-layer="2820" to-port="2" />
		<edge from-layer="2818" from-port="0" to-layer="2820" to-port="3" />
		<edge from-layer="2819" from-port="0" to-layer="2820" to-port="4" />
		<edge from-layer="2820" from-port="5" to-layer="2825" to-port="0" />
		<edge from-layer="2821" from-port="0" to-layer="2822" to-port="0" />
		<edge from-layer="2822" from-port="1" to-layer="2824" to-port="0" />
		<edge from-layer="2823" from-port="0" to-layer="2824" to-port="1" />
		<edge from-layer="2824" from-port="2" to-layer="2825" to-port="1" />
		<edge from-layer="2825" from-port="2" to-layer="2827" to-port="0" />
		<edge from-layer="2826" from-port="0" to-layer="2827" to-port="1" />
		<edge from-layer="2827" from-port="2" to-layer="2850" to-port="0" />
		<edge from-layer="2827" from-port="2" to-layer="2829" to-port="0" />
		<edge from-layer="2827" from-port="2" to-layer="2842" to-port="0" />
		<edge from-layer="2828" from-port="0" to-layer="2840" to-port="0" />
		<edge from-layer="2828" from-port="0" to-layer="2842" to-port="1" />
		<edge from-layer="2829" from-port="1" to-layer="2832" to-port="0" />
		<edge from-layer="2830" from-port="0" to-layer="2850" to-port="4" />
		<edge from-layer="2830" from-port="0" to-layer="2832" to-port="1" />
		<edge from-layer="2830" from-port="0" to-layer="2842" to-port="4" />
		<edge from-layer="2831" from-port="0" to-layer="2832" to-port="2" />
		<edge from-layer="2832" from-port="3" to-layer="2834" to-port="0" />
		<edge from-layer="2833" from-port="0" to-layer="2834" to-port="1" />
		<edge from-layer="2834" from-port="2" to-layer="2836" to-port="0" />
		<edge from-layer="2835" from-port="0" to-layer="2836" to-port="1" />
		<edge from-layer="2836" from-port="2" to-layer="2846" to-port="0" />
		<edge from-layer="2836" from-port="2" to-layer="2838" to-port="0" />
		<edge from-layer="2837" from-port="0" to-layer="2838" to-port="1" />
		<edge from-layer="2838" from-port="2" to-layer="2842" to-port="2" />
		<edge from-layer="2838" from-port="2" to-layer="2848" to-port="0" />
		<edge from-layer="2838" from-port="2" to-layer="2850" to-port="1" />
		<edge from-layer="2839" from-port="0" to-layer="2841" to-port="0" />
		<edge from-layer="2840" from-port="1" to-layer="2841" to-port="1" />
		<edge from-layer="2841" from-port="2" to-layer="2842" to-port="3" />
		<edge from-layer="2842" from-port="5" to-layer="2843" to-port="1" />
		<edge from-layer="2843" from-port="2" to-layer="2852" to-port="0" />
		<edge from-layer="2844" from-port="0" to-layer="2851" to-port="0" />
		<edge from-layer="2845" from-port="0" to-layer="2846" to-port="1" />
		<edge from-layer="2846" from-port="2" to-layer="2850" to-port="2" />
		<edge from-layer="2847" from-port="0" to-layer="2849" to-port="0" />
		<edge from-layer="2848" from-port="1" to-layer="2849" to-port="1" />
		<edge from-layer="2849" from-port="2" to-layer="2850" to-port="3" />
		<edge from-layer="2850" from-port="5" to-layer="2851" to-port="1" />
		<edge from-layer="2851" from-port="2" to-layer="2852" to-port="1" />
		<edge from-layer="2852" from-port="2" to-layer="2854" to-port="0" />
		<edge from-layer="2853" from-port="0" to-layer="2854" to-port="1" />
		<edge from-layer="2854" from-port="2" to-layer="2856" to-port="0" />
		<edge from-layer="2855" from-port="1" to-layer="2856" to-port="1" />
		<edge from-layer="2856" from-port="2" to-layer="2858" to-port="0" />
		<edge from-layer="2857" from-port="0" to-layer="2858" to-port="1" />
		<edge from-layer="2858" from-port="2" to-layer="2861" to-port="0" />
		<edge from-layer="2859" from-port="0" to-layer="2861" to-port="1" />
		<edge from-layer="2860" from-port="0" to-layer="2861" to-port="2" />
		<edge from-layer="2861" from-port="4" to-layer="2863" to-port="0" />
		<edge from-layer="2861" from-port="4" to-layer="2883" to-port="0" />
		<edge from-layer="2861" from-port="3" to-layer="2875" to-port="0" />
		<edge from-layer="2862" from-port="0" to-layer="2863" to-port="1" />
		<edge from-layer="2863" from-port="2" to-layer="2865" to-port="0" />
		<edge from-layer="2864" from-port="0" to-layer="2865" to-port="1" />
		<edge from-layer="2865" from-port="3" to-layer="2867" to-port="0" />
		<edge from-layer="2866" from-port="0" to-layer="2867" to-port="1" />
		<edge from-layer="2867" from-port="2" to-layer="2871" to-port="0" />
		<edge from-layer="2867" from-port="2" to-layer="2879" to-port="0" />
		<edge from-layer="2868" from-port="0" to-layer="2870" to-port="0" />
		<edge from-layer="2869" from-port="0" to-layer="2870" to-port="1" />
		<edge from-layer="2870" from-port="2" to-layer="2871" to-port="1" />
		<edge from-layer="2871" from-port="2" to-layer="2874" to-port="0" />
		<edge from-layer="2872" from-port="0" to-layer="2873" to-port="0" />
		<edge from-layer="2873" from-port="1" to-layer="2874" to-port="1" />
		<edge from-layer="2874" from-port="2" to-layer="2875" to-port="1" />
		<edge from-layer="2875" from-port="2" to-layer="2901" to-port="0" />
		<edge from-layer="2876" from-port="0" to-layer="2878" to-port="0" />
		<edge from-layer="2877" from-port="0" to-layer="2878" to-port="1" />
		<edge from-layer="2878" from-port="2" to-layer="2879" to-port="1" />
		<edge from-layer="2879" from-port="2" to-layer="2882" to-port="0" />
		<edge from-layer="2880" from-port="0" to-layer="2881" to-port="0" />
		<edge from-layer="2881" from-port="1" to-layer="2882" to-port="1" />
		<edge from-layer="2882" from-port="2" to-layer="2883" to-port="1" />
		<edge from-layer="2883" from-port="2" to-layer="2885" to-port="0" />
		<edge from-layer="2884" from-port="0" to-layer="2885" to-port="1" />
		<edge from-layer="2885" from-port="2" to-layer="2887" to-port="0" />
		<edge from-layer="2886" from-port="0" to-layer="2887" to-port="1" />
		<edge from-layer="2887" from-port="3" to-layer="2889" to-port="0" />
		<edge from-layer="2887" from-port="3" to-layer="2905" to-port="0" />
		<edge from-layer="2887" from-port="2" to-layer="2903" to-port="0" />
		<edge from-layer="2888" from-port="0" to-layer="2889" to-port="1" />
		<edge from-layer="2889" from-port="2" to-layer="2890" to-port="0" />
		<edge from-layer="2890" from-port="1" to-layer="2891" to-port="0" />
		<edge from-layer="2891" from-port="1" to-layer="2893" to-port="0" />
		<edge from-layer="2892" from-port="0" to-layer="2893" to-port="1" />
		<edge from-layer="2893" from-port="2" to-layer="2897" to-port="0" />
		<edge from-layer="2894" from-port="0" to-layer="2896" to-port="0" />
		<edge from-layer="2895" from-port="0" to-layer="2896" to-port="1" />
		<edge from-layer="2896" from-port="2" to-layer="2897" to-port="1" />
		<edge from-layer="2897" from-port="2" to-layer="2900" to-port="0" />
		<edge from-layer="2898" from-port="0" to-layer="2899" to-port="0" />
		<edge from-layer="2899" from-port="1" to-layer="2900" to-port="1" />
		<edge from-layer="2900" from-port="2" to-layer="2901" to-port="1" />
		<edge from-layer="2901" from-port="2" to-layer="2909" to-port="0" />
		<edge from-layer="2902" from-port="0" to-layer="2903" to-port="1" />
		<edge from-layer="2903" from-port="2" to-layer="2909" to-port="1" />
		<edge from-layer="2904" from-port="0" to-layer="2905" to-port="1" />
		<edge from-layer="2905" from-port="2" to-layer="2907" to-port="0" />
		<edge from-layer="2906" from-port="0" to-layer="2907" to-port="1" />
		<edge from-layer="2907" from-port="2" to-layer="2908" to-port="0" />
		<edge from-layer="2908" from-port="1" to-layer="2909" to-port="2" />
		<edge from-layer="2909" from-port="3" to-layer="2910" to-port="0" />
	</edges>
	<rt_info>
		<framework>
			<author value="Ultralytics" />
			<batch value="1" />
			<date value="2024-08-12T10:08:29.092061" />
			<description value="Ultralytics YOLOv10n model trained on data.yaml" />
			<docs value="https://docs.ultralytics.com" />
			<imgsz value="[480, 480]" />
			<license value="AGPL-3.0 License (https://ultralytics.com/license)" />
			<names value="{0: 'phantom', 1: 'mavic'}" />
			<stride value="32" />
			<task value="detect" />
			<version value="8.2.73" />
		</framework>
		<nncf>
			<friendly_names_were_updated value="True" />
			<quantization>
				<advanced_parameters value="{}" />
				<fast_bias_correction value="True" />
				<ignored_scope value="None" />
				<model_type value="None" />
				<preset value="None" />
				<subset_size value="300" />
				<target_device value="ANY" />
			</quantization>
		</nncf>
	</rt_info>
</net>
