<?xml version="1.0"?>
<net name="torch_jit" version="11">
	<layers>
		<layer id="0" name="images" type="Parameter" version="opset1">
			<data shape="1,3,480,480" element_type="f32" />
			<output>
				<port id="0" precision="FP32" names="images">
					<dim>1</dim>
					<dim>3</dim>
					<dim>480</dim>
					<dim>480</dim>
				</port>
			</output>
		</layer>
		<layer id="1" name="/model.23/Constant_9" type="Const" version="opset1">
			<data element_type="f32" shape="1, 2, 4725" offset="0" size="37800" />
			<output>
				<port id="0" precision="FP32" names="/model.23/Constant_9_output_0">
					<dim>1</dim>
					<dim>2</dim>
					<dim>4725</dim>
				</port>
			</output>
		</layer>
		<layer id="2" name="images/fq_output_0/input_low" type="Const" version="opset1">
			<data element_type="f32" shape="" offset="37800" size="4" />
			<output>
				<port id="0" precision="FP32" />
			</output>
		</layer>
		<layer id="3" name="images/fq_output_0/input_high" type="Const" version="opset1">
			<data element_type="f32" shape="" offset="37804" size="4" />
			<output>
				<port id="0" precision="FP32" />
			</output>
		</layer>
		<layer id="4" name="images/fq_output_0/output_low" type="Const" version="opset1">
			<data element_type="f32" shape="" offset="37800" size="4" />
			<output>
				<port id="0" precision="FP32" />
			</output>
		</layer>
		<layer id="5" name="images/fq_output_0/output_high" type="Const" version="opset1">
			<data element_type="f32" shape="" offset="37804" size="4" />
			<output>
				<port id="0" precision="FP32" />
			</output>
		</layer>
		<layer id="6" name="images/fq_output_0" type="FakeQuantize" version="opset1">
			<data levels="256" auto_broadcast="numpy" />
			<input>
				<port id="0" precision="FP32">
					<dim>1</dim>
					<dim>3</dim>
					<dim>480</dim>
					<dim>480</dim>
				</port>
				<port id="1" precision="FP32" />
				<port id="2" precision="FP32" />
				<port id="3" precision="FP32" />
				<port id="4" precision="FP32" />
			</input>
			<output>
				<port id="5" precision="FP32">
					<dim>1</dim>
					<dim>3</dim>
					<dim>480</dim>
					<dim>480</dim>
				</port>
			</output>
		</layer>
		<layer id="7" name="Constant_423135" type="Const" version="opset1">
			<data element_type="i8" shape="32, 3, 3, 3" offset="37808" size="864" />
			<output>
				<port id="0" precision="I8">
					<dim>32</dim>
					<dim>3</dim>
					<dim>3</dim>
					<dim>3</dim>
				</port>
			</output>
		</layer>
		<layer id="8" name="Convert_423136" type="Convert" version="opset1">
			<data destination_type="f32" />
			<input>
				<port id="0" precision="I8">
					<dim>32</dim>
					<dim>3</dim>
					<dim>3</dim>
					<dim>3</dim>
				</port>
			</input>
			<output>
				<port id="1" precision="FP32">
					<dim>32</dim>
					<dim>3</dim>
					<dim>3</dim>
					<dim>3</dim>
				</port>
			</output>
		</layer>
		<layer id="9" name="Constant_423137" type="Const" version="opset1">
			<data element_type="f32" shape="32, 1, 1, 1" offset="38672" size="128" />
			<output>
				<port id="0" precision="FP32">
					<dim>32</dim>
					<dim>1</dim>
					<dim>1</dim>
					<dim>1</dim>
				</port>
			</output>
		</layer>
		<layer id="10" name="/model.0/conv/Conv/WithoutBiases/fq_weights_1" type="Multiply" version="opset1">
			<data auto_broadcast="numpy" />
			<input>
				<port id="0" precision="FP32">
					<dim>32</dim>
					<dim>3</dim>
					<dim>3</dim>
					<dim>3</dim>
				</port>
				<port id="1" precision="FP32">
					<dim>32</dim>
					<dim>1</dim>
					<dim>1</dim>
					<dim>1</dim>
				</port>
			</input>
			<output>
				<port id="2" precision="FP32">
					<dim>32</dim>
					<dim>3</dim>
					<dim>3</dim>
					<dim>3</dim>
				</port>
			</output>
		</layer>
		<layer id="11" name="/model.0/conv/Conv/WithoutBiases" type="Convolution" version="opset1">
			<data strides="2, 2" dilations="1, 1" pads_begin="1, 1" pads_end="1, 1" auto_pad="explicit" />
			<input>
				<port id="0" precision="FP32">
					<dim>1</dim>
					<dim>3</dim>
					<dim>480</dim>
					<dim>480</dim>
				</port>
				<port id="1" precision="FP32">
					<dim>32</dim>
					<dim>3</dim>
					<dim>3</dim>
					<dim>3</dim>
				</port>
			</input>
			<output>
				<port id="2" precision="FP32">
					<dim>1</dim>
					<dim>32</dim>
					<dim>240</dim>
					<dim>240</dim>
				</port>
			</output>
		</layer>
		<layer id="12" name="model.0.conv.bias" type="Const" version="opset1">
			<data element_type="f32" shape="32" offset="38800" size="128" />
			<output>
				<port id="0" precision="FP32" names="model.0.conv.bias">
					<dim>32</dim>
				</port>
			</output>
		</layer>
		<layer id="13" name="Constant_336822" type="Const" version="opset1">
			<data element_type="i64" shape="1" offset="38928" size="8" />
			<output>
				<port id="0" precision="I64">
					<dim>1</dim>
				</port>
			</output>
		</layer>
		<layer id="14" name="ShapeOf_336829" type="ShapeOf" version="opset3">
			<data output_type="i64" />
			<input>
				<port id="0" precision="FP32">
					<dim>32</dim>
				</port>
			</input>
			<output>
				<port id="1" precision="I64">
					<dim>1</dim>
				</port>
			</output>
		</layer>
		<layer id="15" name="ShapeOf_336820" type="ShapeOf" version="opset3">
			<data output_type="i64" />
			<input>
				<port id="0" precision="FP32">
					<dim>1</dim>
					<dim>32</dim>
					<dim>240</dim>
					<dim>240</dim>
				</port>
			</input>
			<output>
				<port id="1" precision="I64">
					<dim>4</dim>
				</port>
			</output>
		</layer>
		<layer id="16" name="ShapeOf_336821" type="ShapeOf" version="opset3">
			<data output_type="i64" />
			<input>
				<port id="0" precision="I64">
					<dim>4</dim>
				</port>
			</input>
			<output>
				<port id="1" precision="I64">
					<dim>1</dim>
				</port>
			</output>
		</layer>
		<layer id="17" name="Constant_336823" type="Const" version="opset1">
			<data element_type="i64" shape="1" offset="38936" size="8" />
			<output>
				<port id="0" precision="I64">
					<dim>1</dim>
				</port>
			</output>
		</layer>
		<layer id="18" name="Subtract_336824" type="Subtract" version="opset1">
			<data auto_broadcast="numpy" />
			<input>
				<port id="0" precision="I64">
					<dim>1</dim>
				</port>
				<port id="1" precision="I64">
					<dim>1</dim>
				</port>
			</input>
			<output>
				<port id="2" precision="I64">
					<dim>1</dim>
				</port>
			</output>
		</layer>
		<layer id="19" name="Broadcast_336825" type="Broadcast" version="opset3">
			<data mode="numpy" />
			<input>
				<port id="0" precision="I64">
					<dim>1</dim>
				</port>
				<port id="1" precision="I64">
					<dim>1</dim>
				</port>
			</input>
			<output>
				<port id="2" precision="I64">
					<dim>2</dim>
				</port>
			</output>
		</layer>
		<layer id="20" name="Concat_336830" type="Concat" version="opset1">
			<data axis="0" />
			<input>
				<port id="0" precision="I64">
					<dim>1</dim>
				</port>
				<port id="1" precision="I64">
					<dim>1</dim>
				</port>
				<port id="2" precision="I64">
					<dim>2</dim>
				</port>
			</input>
			<output>
				<port id="3" precision="I64">
					<dim>4</dim>
				</port>
			</output>
		</layer>
		<layer id="21" name="Reshape_336831" type="Reshape" version="opset1">
			<data special_zero="false" />
			<input>
				<port id="0" precision="FP32">
					<dim>32</dim>
				</port>
				<port id="1" precision="I64">
					<dim>4</dim>
				</port>
			</input>
			<output>
				<port id="2" precision="FP32">
					<dim>1</dim>
					<dim>32</dim>
					<dim>1</dim>
					<dim>1</dim>
				</port>
			</output>
		</layer>
		<layer id="22" name="/model.0/conv/Conv" type="Add" version="opset1">
			<data auto_broadcast="numpy" />
			<input>
				<port id="0" precision="FP32">
					<dim>1</dim>
					<dim>32</dim>
					<dim>240</dim>
					<dim>240</dim>
				</port>
				<port id="1" precision="FP32">
					<dim>1</dim>
					<dim>32</dim>
					<dim>1</dim>
					<dim>1</dim>
				</port>
			</input>
			<output>
				<port id="2" precision="FP32" names="/model.0/conv/Conv_output_0">
					<dim>1</dim>
					<dim>32</dim>
					<dim>240</dim>
					<dim>240</dim>
				</port>
			</output>
		</layer>
		<layer id="23" name="/model.0/act/Mul/fq_input_0/input_low" type="Const" version="opset1">
			<data element_type="f32" shape="" offset="38944" size="4" />
			<output>
				<port id="0" precision="FP32" />
			</output>
		</layer>
		<layer id="24" name="/model.0/act/Mul/fq_input_0/input_high" type="Const" version="opset1">
			<data element_type="f32" shape="" offset="38948" size="4" />
			<output>
				<port id="0" precision="FP32" />
			</output>
		</layer>
		<layer id="25" name="/model.0/act/Mul/fq_input_0/output_low" type="Const" version="opset1">
			<data element_type="f32" shape="" offset="38944" size="4" />
			<output>
				<port id="0" precision="FP32" />
			</output>
		</layer>
		<layer id="26" name="/model.0/act/Mul/fq_input_0/output_high" type="Const" version="opset1">
			<data element_type="f32" shape="" offset="38948" size="4" />
			<output>
				<port id="0" precision="FP32" />
			</output>
		</layer>
		<layer id="27" name="/model.0/act/Mul/fq_input_0" type="FakeQuantize" version="opset1">
			<data levels="256" auto_broadcast="numpy" />
			<input>
				<port id="0" precision="FP32">
					<dim>1</dim>
					<dim>32</dim>
					<dim>240</dim>
					<dim>240</dim>
				</port>
				<port id="1" precision="FP32" />
				<port id="2" precision="FP32" />
				<port id="3" precision="FP32" />
				<port id="4" precision="FP32" />
			</input>
			<output>
				<port id="5" precision="FP32">
					<dim>1</dim>
					<dim>32</dim>
					<dim>240</dim>
					<dim>240</dim>
				</port>
			</output>
		</layer>
		<layer id="28" name="/model.0/act/Sigmoid" type="Sigmoid" version="opset1">
			<input>
				<port id="0" precision="FP32">
					<dim>1</dim>
					<dim>32</dim>
					<dim>240</dim>
					<dim>240</dim>
				</port>
			</input>
			<output>
				<port id="1" precision="FP32" names="/model.0/act/Sigmoid_output_0">
					<dim>1</dim>
					<dim>32</dim>
					<dim>240</dim>
					<dim>240</dim>
				</port>
			</output>
		</layer>
		<layer id="29" name="/model.0/act/Sigmoid/fq_output_0/input_low" type="Const" version="opset1">
			<data element_type="f32" shape="" offset="37800" size="4" />
			<output>
				<port id="0" precision="FP32" />
			</output>
		</layer>
		<layer id="30" name="/model.0/act/Sigmoid/fq_output_0/input_high" type="Const" version="opset1">
			<data element_type="f32" shape="" offset="38952" size="4" />
			<output>
				<port id="0" precision="FP32" />
			</output>
		</layer>
		<layer id="31" name="/model.0/act/Sigmoid/fq_output_0/output_low" type="Const" version="opset1">
			<data element_type="f32" shape="" offset="37800" size="4" />
			<output>
				<port id="0" precision="FP32" />
			</output>
		</layer>
		<layer id="32" name="/model.0/act/Sigmoid/fq_output_0/output_high" type="Const" version="opset1">
			<data element_type="f32" shape="" offset="38952" size="4" />
			<output>
				<port id="0" precision="FP32" />
			</output>
		</layer>
		<layer id="33" name="/model.0/act/Sigmoid/fq_output_0" type="FakeQuantize" version="opset1">
			<data levels="256" auto_broadcast="numpy" />
			<input>
				<port id="0" precision="FP32">
					<dim>1</dim>
					<dim>32</dim>
					<dim>240</dim>
					<dim>240</dim>
				</port>
				<port id="1" precision="FP32" />
				<port id="2" precision="FP32" />
				<port id="3" precision="FP32" />
				<port id="4" precision="FP32" />
			</input>
			<output>
				<port id="5" precision="FP32">
					<dim>1</dim>
					<dim>32</dim>
					<dim>240</dim>
					<dim>240</dim>
				</port>
			</output>
		</layer>
		<layer id="34" name="/model.0/act/Mul" type="Multiply" version="opset1">
			<data auto_broadcast="numpy" />
			<input>
				<port id="0" precision="FP32">
					<dim>1</dim>
					<dim>32</dim>
					<dim>240</dim>
					<dim>240</dim>
				</port>
				<port id="1" precision="FP32">
					<dim>1</dim>
					<dim>32</dim>
					<dim>240</dim>
					<dim>240</dim>
				</port>
			</input>
			<output>
				<port id="2" precision="FP32" names="/model.0/act/Mul_output_0">
					<dim>1</dim>
					<dim>32</dim>
					<dim>240</dim>
					<dim>240</dim>
				</port>
			</output>
		</layer>
		<layer id="35" name="/model.0/act/Mul/fq_output_0/input_low" type="Const" version="opset1">
			<data element_type="f32" shape="" offset="38956" size="4" />
			<output>
				<port id="0" precision="FP32" />
			</output>
		</layer>
		<layer id="36" name="/model.0/act/Mul/fq_output_0/input_high" type="Const" version="opset1">
			<data element_type="f32" shape="" offset="38960" size="4" />
			<output>
				<port id="0" precision="FP32" />
			</output>
		</layer>
		<layer id="37" name="/model.0/act/Mul/fq_output_0/output_low" type="Const" version="opset1">
			<data element_type="f32" shape="" offset="38956" size="4" />
			<output>
				<port id="0" precision="FP32" />
			</output>
		</layer>
		<layer id="38" name="/model.0/act/Mul/fq_output_0/output_high" type="Const" version="opset1">
			<data element_type="f32" shape="" offset="38960" size="4" />
			<output>
				<port id="0" precision="FP32" />
			</output>
		</layer>
		<layer id="39" name="/model.0/act/Mul/fq_output_0" type="FakeQuantize" version="opset1">
			<data levels="256" auto_broadcast="numpy" />
			<input>
				<port id="0" precision="FP32">
					<dim>1</dim>
					<dim>32</dim>
					<dim>240</dim>
					<dim>240</dim>
				</port>
				<port id="1" precision="FP32" />
				<port id="2" precision="FP32" />
				<port id="3" precision="FP32" />
				<port id="4" precision="FP32" />
			</input>
			<output>
				<port id="5" precision="FP32">
					<dim>1</dim>
					<dim>32</dim>
					<dim>240</dim>
					<dim>240</dim>
				</port>
			</output>
		</layer>
		<layer id="40" name="Constant_423139" type="Const" version="opset1">
			<data element_type="i8" shape="64, 32, 3, 3" offset="38964" size="18432" />
			<output>
				<port id="0" precision="I8">
					<dim>64</dim>
					<dim>32</dim>
					<dim>3</dim>
					<dim>3</dim>
				</port>
			</output>
		</layer>
		<layer id="41" name="Convert_423140" type="Convert" version="opset1">
			<data destination_type="f32" />
			<input>
				<port id="0" precision="I8">
					<dim>64</dim>
					<dim>32</dim>
					<dim>3</dim>
					<dim>3</dim>
				</port>
			</input>
			<output>
				<port id="1" precision="FP32">
					<dim>64</dim>
					<dim>32</dim>
					<dim>3</dim>
					<dim>3</dim>
				</port>
			</output>
		</layer>
		<layer id="42" name="Constant_423141" type="Const" version="opset1">
			<data element_type="f32" shape="64, 1, 1, 1" offset="57396" size="256" />
			<output>
				<port id="0" precision="FP32">
					<dim>64</dim>
					<dim>1</dim>
					<dim>1</dim>
					<dim>1</dim>
				</port>
			</output>
		</layer>
		<layer id="43" name="/model.1/conv/Conv/WithoutBiases/fq_weights_1" type="Multiply" version="opset1">
			<data auto_broadcast="numpy" />
			<input>
				<port id="0" precision="FP32">
					<dim>64</dim>
					<dim>32</dim>
					<dim>3</dim>
					<dim>3</dim>
				</port>
				<port id="1" precision="FP32">
					<dim>64</dim>
					<dim>1</dim>
					<dim>1</dim>
					<dim>1</dim>
				</port>
			</input>
			<output>
				<port id="2" precision="FP32">
					<dim>64</dim>
					<dim>32</dim>
					<dim>3</dim>
					<dim>3</dim>
				</port>
			</output>
		</layer>
		<layer id="44" name="/model.1/conv/Conv/WithoutBiases" type="Convolution" version="opset1">
			<data strides="2, 2" dilations="1, 1" pads_begin="1, 1" pads_end="1, 1" auto_pad="explicit" />
			<input>
				<port id="0" precision="FP32">
					<dim>1</dim>
					<dim>32</dim>
					<dim>240</dim>
					<dim>240</dim>
				</port>
				<port id="1" precision="FP32">
					<dim>64</dim>
					<dim>32</dim>
					<dim>3</dim>
					<dim>3</dim>
				</port>
			</input>
			<output>
				<port id="2" precision="FP32">
					<dim>1</dim>
					<dim>64</dim>
					<dim>120</dim>
					<dim>120</dim>
				</port>
			</output>
		</layer>
		<layer id="45" name="model.1.conv.bias" type="Const" version="opset1">
			<data element_type="f32" shape="64" offset="57652" size="256" />
			<output>
				<port id="0" precision="FP32" names="model.1.conv.bias">
					<dim>64</dim>
				</port>
			</output>
		</layer>
		<layer id="46" name="Constant_336840" type="Const" version="opset1">
			<data element_type="i64" shape="1" offset="38928" size="8" />
			<output>
				<port id="0" precision="I64">
					<dim>1</dim>
				</port>
			</output>
		</layer>
		<layer id="47" name="ShapeOf_336847" type="ShapeOf" version="opset3">
			<data output_type="i64" />
			<input>
				<port id="0" precision="FP32">
					<dim>64</dim>
				</port>
			</input>
			<output>
				<port id="1" precision="I64">
					<dim>1</dim>
				</port>
			</output>
		</layer>
		<layer id="48" name="ShapeOf_336838" type="ShapeOf" version="opset3">
			<data output_type="i64" />
			<input>
				<port id="0" precision="FP32">
					<dim>1</dim>
					<dim>64</dim>
					<dim>120</dim>
					<dim>120</dim>
				</port>
			</input>
			<output>
				<port id="1" precision="I64">
					<dim>4</dim>
				</port>
			</output>
		</layer>
		<layer id="49" name="ShapeOf_336839" type="ShapeOf" version="opset3">
			<data output_type="i64" />
			<input>
				<port id="0" precision="I64">
					<dim>4</dim>
				</port>
			</input>
			<output>
				<port id="1" precision="I64">
					<dim>1</dim>
				</port>
			</output>
		</layer>
		<layer id="50" name="Constant_336841" type="Const" version="opset1">
			<data element_type="i64" shape="1" offset="38936" size="8" />
			<output>
				<port id="0" precision="I64">
					<dim>1</dim>
				</port>
			</output>
		</layer>
		<layer id="51" name="Subtract_336842" type="Subtract" version="opset1">
			<data auto_broadcast="numpy" />
			<input>
				<port id="0" precision="I64">
					<dim>1</dim>
				</port>
				<port id="1" precision="I64">
					<dim>1</dim>
				</port>
			</input>
			<output>
				<port id="2" precision="I64">
					<dim>1</dim>
				</port>
			</output>
		</layer>
		<layer id="52" name="Broadcast_336843" type="Broadcast" version="opset3">
			<data mode="numpy" />
			<input>
				<port id="0" precision="I64">
					<dim>1</dim>
				</port>
				<port id="1" precision="I64">
					<dim>1</dim>
				</port>
			</input>
			<output>
				<port id="2" precision="I64">
					<dim>2</dim>
				</port>
			</output>
		</layer>
		<layer id="53" name="Concat_336848" type="Concat" version="opset1">
			<data axis="0" />
			<input>
				<port id="0" precision="I64">
					<dim>1</dim>
				</port>
				<port id="1" precision="I64">
					<dim>1</dim>
				</port>
				<port id="2" precision="I64">
					<dim>2</dim>
				</port>
			</input>
			<output>
				<port id="3" precision="I64">
					<dim>4</dim>
				</port>
			</output>
		</layer>
		<layer id="54" name="Reshape_336849" type="Reshape" version="opset1">
			<data special_zero="false" />
			<input>
				<port id="0" precision="FP32">
					<dim>64</dim>
				</port>
				<port id="1" precision="I64">
					<dim>4</dim>
				</port>
			</input>
			<output>
				<port id="2" precision="FP32">
					<dim>1</dim>
					<dim>64</dim>
					<dim>1</dim>
					<dim>1</dim>
				</port>
			</output>
		</layer>
		<layer id="55" name="/model.1/conv/Conv" type="Add" version="opset1">
			<data auto_broadcast="numpy" />
			<input>
				<port id="0" precision="FP32">
					<dim>1</dim>
					<dim>64</dim>
					<dim>120</dim>
					<dim>120</dim>
				</port>
				<port id="1" precision="FP32">
					<dim>1</dim>
					<dim>64</dim>
					<dim>1</dim>
					<dim>1</dim>
				</port>
			</input>
			<output>
				<port id="2" precision="FP32" names="/model.1/conv/Conv_output_0">
					<dim>1</dim>
					<dim>64</dim>
					<dim>120</dim>
					<dim>120</dim>
				</port>
			</output>
		</layer>
		<layer id="56" name="/model.1/act/Mul/fq_input_0/input_low" type="Const" version="opset1">
			<data element_type="f32" shape="" offset="57908" size="4" />
			<output>
				<port id="0" precision="FP32" />
			</output>
		</layer>
		<layer id="57" name="/model.1/act/Mul/fq_input_0/input_high" type="Const" version="opset1">
			<data element_type="f32" shape="" offset="57912" size="4" />
			<output>
				<port id="0" precision="FP32" />
			</output>
		</layer>
		<layer id="58" name="/model.1/act/Mul/fq_input_0/output_low" type="Const" version="opset1">
			<data element_type="f32" shape="" offset="57908" size="4" />
			<output>
				<port id="0" precision="FP32" />
			</output>
		</layer>
		<layer id="59" name="/model.1/act/Mul/fq_input_0/output_high" type="Const" version="opset1">
			<data element_type="f32" shape="" offset="57912" size="4" />
			<output>
				<port id="0" precision="FP32" />
			</output>
		</layer>
		<layer id="60" name="/model.1/act/Mul/fq_input_0" type="FakeQuantize" version="opset1">
			<data levels="256" auto_broadcast="numpy" />
			<input>
				<port id="0" precision="FP32">
					<dim>1</dim>
					<dim>64</dim>
					<dim>120</dim>
					<dim>120</dim>
				</port>
				<port id="1" precision="FP32" />
				<port id="2" precision="FP32" />
				<port id="3" precision="FP32" />
				<port id="4" precision="FP32" />
			</input>
			<output>
				<port id="5" precision="FP32">
					<dim>1</dim>
					<dim>64</dim>
					<dim>120</dim>
					<dim>120</dim>
				</port>
			</output>
		</layer>
		<layer id="61" name="/model.1/act/Sigmoid" type="Sigmoid" version="opset1">
			<input>
				<port id="0" precision="FP32">
					<dim>1</dim>
					<dim>64</dim>
					<dim>120</dim>
					<dim>120</dim>
				</port>
			</input>
			<output>
				<port id="1" precision="FP32" names="/model.1/act/Sigmoid_output_0">
					<dim>1</dim>
					<dim>64</dim>
					<dim>120</dim>
					<dim>120</dim>
				</port>
			</output>
		</layer>
		<layer id="62" name="/model.1/act/Sigmoid/fq_output_0/input_low" type="Const" version="opset1">
			<data element_type="f32" shape="" offset="37800" size="4" />
			<output>
				<port id="0" precision="FP32" />
			</output>
		</layer>
		<layer id="63" name="/model.1/act/Sigmoid/fq_output_0/input_high" type="Const" version="opset1">
			<data element_type="f32" shape="" offset="38952" size="4" />
			<output>
				<port id="0" precision="FP32" />
			</output>
		</layer>
		<layer id="64" name="/model.1/act/Sigmoid/fq_output_0/output_low" type="Const" version="opset1">
			<data element_type="f32" shape="" offset="37800" size="4" />
			<output>
				<port id="0" precision="FP32" />
			</output>
		</layer>
		<layer id="65" name="/model.1/act/Sigmoid/fq_output_0/output_high" type="Const" version="opset1">
			<data element_type="f32" shape="" offset="38952" size="4" />
			<output>
				<port id="0" precision="FP32" />
			</output>
		</layer>
		<layer id="66" name="/model.1/act/Sigmoid/fq_output_0" type="FakeQuantize" version="opset1">
			<data levels="256" auto_broadcast="numpy" />
			<input>
				<port id="0" precision="FP32">
					<dim>1</dim>
					<dim>64</dim>
					<dim>120</dim>
					<dim>120</dim>
				</port>
				<port id="1" precision="FP32" />
				<port id="2" precision="FP32" />
				<port id="3" precision="FP32" />
				<port id="4" precision="FP32" />
			</input>
			<output>
				<port id="5" precision="FP32">
					<dim>1</dim>
					<dim>64</dim>
					<dim>120</dim>
					<dim>120</dim>
				</port>
			</output>
		</layer>
		<layer id="67" name="/model.1/act/Mul" type="Multiply" version="opset1">
			<data auto_broadcast="numpy" />
			<input>
				<port id="0" precision="FP32">
					<dim>1</dim>
					<dim>64</dim>
					<dim>120</dim>
					<dim>120</dim>
				</port>
				<port id="1" precision="FP32">
					<dim>1</dim>
					<dim>64</dim>
					<dim>120</dim>
					<dim>120</dim>
				</port>
			</input>
			<output>
				<port id="2" precision="FP32" names="/model.1/act/Mul_output_0">
					<dim>1</dim>
					<dim>64</dim>
					<dim>120</dim>
					<dim>120</dim>
				</port>
			</output>
		</layer>
		<layer id="68" name="/model.1/act/Mul/fq_output_0/input_low" type="Const" version="opset1">
			<data element_type="f32" shape="" offset="57916" size="4" />
			<output>
				<port id="0" precision="FP32" />
			</output>
		</layer>
		<layer id="69" name="/model.1/act/Mul/fq_output_0/input_high" type="Const" version="opset1">
			<data element_type="f32" shape="" offset="57920" size="4" />
			<output>
				<port id="0" precision="FP32" />
			</output>
		</layer>
		<layer id="70" name="/model.1/act/Mul/fq_output_0/output_low" type="Const" version="opset1">
			<data element_type="f32" shape="" offset="57916" size="4" />
			<output>
				<port id="0" precision="FP32" />
			</output>
		</layer>
		<layer id="71" name="/model.1/act/Mul/fq_output_0/output_high" type="Const" version="opset1">
			<data element_type="f32" shape="" offset="57920" size="4" />
			<output>
				<port id="0" precision="FP32" />
			</output>
		</layer>
		<layer id="72" name="/model.1/act/Mul/fq_output_0" type="FakeQuantize" version="opset1">
			<data levels="256" auto_broadcast="numpy" />
			<input>
				<port id="0" precision="FP32">
					<dim>1</dim>
					<dim>64</dim>
					<dim>120</dim>
					<dim>120</dim>
				</port>
				<port id="1" precision="FP32" />
				<port id="2" precision="FP32" />
				<port id="3" precision="FP32" />
				<port id="4" precision="FP32" />
			</input>
			<output>
				<port id="5" precision="FP32">
					<dim>1</dim>
					<dim>64</dim>
					<dim>120</dim>
					<dim>120</dim>
				</port>
			</output>
		</layer>
		<layer id="73" name="Constant_423143" type="Const" version="opset1">
			<data element_type="i8" shape="64, 64, 1, 1" offset="57924" size="4096" />
			<output>
				<port id="0" precision="I8">
					<dim>64</dim>
					<dim>64</dim>
					<dim>1</dim>
					<dim>1</dim>
				</port>
			</output>
		</layer>
		<layer id="74" name="Convert_423144" type="Convert" version="opset1">
			<data destination_type="f32" />
			<input>
				<port id="0" precision="I8">
					<dim>64</dim>
					<dim>64</dim>
					<dim>1</dim>
					<dim>1</dim>
				</port>
			</input>
			<output>
				<port id="1" precision="FP32">
					<dim>64</dim>
					<dim>64</dim>
					<dim>1</dim>
					<dim>1</dim>
				</port>
			</output>
		</layer>
		<layer id="75" name="Constant_423145" type="Const" version="opset1">
			<data element_type="f32" shape="64, 1, 1, 1" offset="62020" size="256" />
			<output>
				<port id="0" precision="FP32">
					<dim>64</dim>
					<dim>1</dim>
					<dim>1</dim>
					<dim>1</dim>
				</port>
			</output>
		</layer>
		<layer id="76" name="/model.2/cv1/conv/Conv/WithoutBiases/fq_weights_1" type="Multiply" version="opset1">
			<data auto_broadcast="numpy" />
			<input>
				<port id="0" precision="FP32">
					<dim>64</dim>
					<dim>64</dim>
					<dim>1</dim>
					<dim>1</dim>
				</port>
				<port id="1" precision="FP32">
					<dim>64</dim>
					<dim>1</dim>
					<dim>1</dim>
					<dim>1</dim>
				</port>
			</input>
			<output>
				<port id="2" precision="FP32">
					<dim>64</dim>
					<dim>64</dim>
					<dim>1</dim>
					<dim>1</dim>
				</port>
			</output>
		</layer>
		<layer id="77" name="/model.2/cv1/conv/Conv/WithoutBiases" type="Convolution" version="opset1">
			<data strides="1, 1" dilations="1, 1" pads_begin="0, 0" pads_end="0, 0" auto_pad="explicit" />
			<input>
				<port id="0" precision="FP32">
					<dim>1</dim>
					<dim>64</dim>
					<dim>120</dim>
					<dim>120</dim>
				</port>
				<port id="1" precision="FP32">
					<dim>64</dim>
					<dim>64</dim>
					<dim>1</dim>
					<dim>1</dim>
				</port>
			</input>
			<output>
				<port id="2" precision="FP32">
					<dim>1</dim>
					<dim>64</dim>
					<dim>120</dim>
					<dim>120</dim>
				</port>
			</output>
		</layer>
		<layer id="78" name="model.2.cv1.conv.bias" type="Const" version="opset1">
			<data element_type="f32" shape="64" offset="62276" size="256" />
			<output>
				<port id="0" precision="FP32" names="model.2.cv1.conv.bias">
					<dim>64</dim>
				</port>
			</output>
		</layer>
		<layer id="79" name="Constant_336858" type="Const" version="opset1">
			<data element_type="i64" shape="1" offset="38928" size="8" />
			<output>
				<port id="0" precision="I64">
					<dim>1</dim>
				</port>
			</output>
		</layer>
		<layer id="80" name="ShapeOf_336865" type="ShapeOf" version="opset3">
			<data output_type="i64" />
			<input>
				<port id="0" precision="FP32">
					<dim>64</dim>
				</port>
			</input>
			<output>
				<port id="1" precision="I64">
					<dim>1</dim>
				</port>
			</output>
		</layer>
		<layer id="81" name="ShapeOf_336856" type="ShapeOf" version="opset3">
			<data output_type="i64" />
			<input>
				<port id="0" precision="FP32">
					<dim>1</dim>
					<dim>64</dim>
					<dim>120</dim>
					<dim>120</dim>
				</port>
			</input>
			<output>
				<port id="1" precision="I64">
					<dim>4</dim>
				</port>
			</output>
		</layer>
		<layer id="82" name="ShapeOf_336857" type="ShapeOf" version="opset3">
			<data output_type="i64" />
			<input>
				<port id="0" precision="I64">
					<dim>4</dim>
				</port>
			</input>
			<output>
				<port id="1" precision="I64">
					<dim>1</dim>
				</port>
			</output>
		</layer>
		<layer id="83" name="Constant_336859" type="Const" version="opset1">
			<data element_type="i64" shape="1" offset="38936" size="8" />
			<output>
				<port id="0" precision="I64">
					<dim>1</dim>
				</port>
			</output>
		</layer>
		<layer id="84" name="Subtract_336860" type="Subtract" version="opset1">
			<data auto_broadcast="numpy" />
			<input>
				<port id="0" precision="I64">
					<dim>1</dim>
				</port>
				<port id="1" precision="I64">
					<dim>1</dim>
				</port>
			</input>
			<output>
				<port id="2" precision="I64">
					<dim>1</dim>
				</port>
			</output>
		</layer>
		<layer id="85" name="Broadcast_336861" type="Broadcast" version="opset3">
			<data mode="numpy" />
			<input>
				<port id="0" precision="I64">
					<dim>1</dim>
				</port>
				<port id="1" precision="I64">
					<dim>1</dim>
				</port>
			</input>
			<output>
				<port id="2" precision="I64">
					<dim>2</dim>
				</port>
			</output>
		</layer>
		<layer id="86" name="Concat_336866" type="Concat" version="opset1">
			<data axis="0" />
			<input>
				<port id="0" precision="I64">
					<dim>1</dim>
				</port>
				<port id="1" precision="I64">
					<dim>1</dim>
				</port>
				<port id="2" precision="I64">
					<dim>2</dim>
				</port>
			</input>
			<output>
				<port id="3" precision="I64">
					<dim>4</dim>
				</port>
			</output>
		</layer>
		<layer id="87" name="Reshape_336867" type="Reshape" version="opset1">
			<data special_zero="false" />
			<input>
				<port id="0" precision="FP32">
					<dim>64</dim>
				</port>
				<port id="1" precision="I64">
					<dim>4</dim>
				</port>
			</input>
			<output>
				<port id="2" precision="FP32">
					<dim>1</dim>
					<dim>64</dim>
					<dim>1</dim>
					<dim>1</dim>
				</port>
			</output>
		</layer>
		<layer id="88" name="/model.2/cv1/conv/Conv" type="Add" version="opset1">
			<data auto_broadcast="numpy" />
			<input>
				<port id="0" precision="FP32">
					<dim>1</dim>
					<dim>64</dim>
					<dim>120</dim>
					<dim>120</dim>
				</port>
				<port id="1" precision="FP32">
					<dim>1</dim>
					<dim>64</dim>
					<dim>1</dim>
					<dim>1</dim>
				</port>
			</input>
			<output>
				<port id="2" precision="FP32" names="/model.2/cv1/conv/Conv_output_0">
					<dim>1</dim>
					<dim>64</dim>
					<dim>120</dim>
					<dim>120</dim>
				</port>
			</output>
		</layer>
		<layer id="89" name="/model.2/cv1/act/Mul/fq_input_0/input_low" type="Const" version="opset1">
			<data element_type="f32" shape="" offset="62532" size="4" />
			<output>
				<port id="0" precision="FP32" />
			</output>
		</layer>
		<layer id="90" name="/model.2/cv1/act/Mul/fq_input_0/input_high" type="Const" version="opset1">
			<data element_type="f32" shape="" offset="62536" size="4" />
			<output>
				<port id="0" precision="FP32" />
			</output>
		</layer>
		<layer id="91" name="/model.2/cv1/act/Mul/fq_input_0/output_low" type="Const" version="opset1">
			<data element_type="f32" shape="" offset="62532" size="4" />
			<output>
				<port id="0" precision="FP32" />
			</output>
		</layer>
		<layer id="92" name="/model.2/cv1/act/Mul/fq_input_0/output_high" type="Const" version="opset1">
			<data element_type="f32" shape="" offset="62536" size="4" />
			<output>
				<port id="0" precision="FP32" />
			</output>
		</layer>
		<layer id="93" name="/model.2/cv1/act/Mul/fq_input_0" type="FakeQuantize" version="opset1">
			<data levels="256" auto_broadcast="numpy" />
			<input>
				<port id="0" precision="FP32">
					<dim>1</dim>
					<dim>64</dim>
					<dim>120</dim>
					<dim>120</dim>
				</port>
				<port id="1" precision="FP32" />
				<port id="2" precision="FP32" />
				<port id="3" precision="FP32" />
				<port id="4" precision="FP32" />
			</input>
			<output>
				<port id="5" precision="FP32">
					<dim>1</dim>
					<dim>64</dim>
					<dim>120</dim>
					<dim>120</dim>
				</port>
			</output>
		</layer>
		<layer id="94" name="/model.2/cv1/act/Sigmoid" type="Sigmoid" version="opset1">
			<input>
				<port id="0" precision="FP32">
					<dim>1</dim>
					<dim>64</dim>
					<dim>120</dim>
					<dim>120</dim>
				</port>
			</input>
			<output>
				<port id="1" precision="FP32" names="/model.2/cv1/act/Sigmoid_output_0">
					<dim>1</dim>
					<dim>64</dim>
					<dim>120</dim>
					<dim>120</dim>
				</port>
			</output>
		</layer>
		<layer id="95" name="/model.2/cv1/act/Sigmoid/fq_output_0/input_low" type="Const" version="opset1">
			<data element_type="f32" shape="" offset="37800" size="4" />
			<output>
				<port id="0" precision="FP32" />
			</output>
		</layer>
		<layer id="96" name="/model.2/cv1/act/Sigmoid/fq_output_0/input_high" type="Const" version="opset1">
			<data element_type="f32" shape="" offset="62540" size="4" />
			<output>
				<port id="0" precision="FP32" />
			</output>
		</layer>
		<layer id="97" name="/model.2/cv1/act/Sigmoid/fq_output_0/output_low" type="Const" version="opset1">
			<data element_type="f32" shape="" offset="37800" size="4" />
			<output>
				<port id="0" precision="FP32" />
			</output>
		</layer>
		<layer id="98" name="/model.2/cv1/act/Sigmoid/fq_output_0/output_high" type="Const" version="opset1">
			<data element_type="f32" shape="" offset="62540" size="4" />
			<output>
				<port id="0" precision="FP32" />
			</output>
		</layer>
		<layer id="99" name="/model.2/cv1/act/Sigmoid/fq_output_0" type="FakeQuantize" version="opset1">
			<data levels="256" auto_broadcast="numpy" />
			<input>
				<port id="0" precision="FP32">
					<dim>1</dim>
					<dim>64</dim>
					<dim>120</dim>
					<dim>120</dim>
				</port>
				<port id="1" precision="FP32" />
				<port id="2" precision="FP32" />
				<port id="3" precision="FP32" />
				<port id="4" precision="FP32" />
			</input>
			<output>
				<port id="5" precision="FP32">
					<dim>1</dim>
					<dim>64</dim>
					<dim>120</dim>
					<dim>120</dim>
				</port>
			</output>
		</layer>
		<layer id="100" name="/model.2/cv1/act/Mul" type="Multiply" version="opset1">
			<data auto_broadcast="numpy" />
			<input>
				<port id="0" precision="FP32">
					<dim>1</dim>
					<dim>64</dim>
					<dim>120</dim>
					<dim>120</dim>
				</port>
				<port id="1" precision="FP32">
					<dim>1</dim>
					<dim>64</dim>
					<dim>120</dim>
					<dim>120</dim>
				</port>
			</input>
			<output>
				<port id="2" precision="FP32" names="/model.2/cv1/act/Mul_output_0">
					<dim>1</dim>
					<dim>64</dim>
					<dim>120</dim>
					<dim>120</dim>
				</port>
			</output>
		</layer>
		<layer id="101" name="/model.2/cv1/act/Mul/fq_output_0/input_low" type="Const" version="opset1">
			<data element_type="f32" shape="" offset="62544" size="4" />
			<output>
				<port id="0" precision="FP32" />
			</output>
		</layer>
		<layer id="102" name="/model.2/cv1/act/Mul/fq_output_0/input_high" type="Const" version="opset1">
			<data element_type="f32" shape="" offset="62548" size="4" />
			<output>
				<port id="0" precision="FP32" />
			</output>
		</layer>
		<layer id="103" name="/model.2/cv1/act/Mul/fq_output_0/output_low" type="Const" version="opset1">
			<data element_type="f32" shape="" offset="62544" size="4" />
			<output>
				<port id="0" precision="FP32" />
			</output>
		</layer>
		<layer id="104" name="/model.2/cv1/act/Mul/fq_output_0/output_high" type="Const" version="opset1">
			<data element_type="f32" shape="" offset="62548" size="4" />
			<output>
				<port id="0" precision="FP32" />
			</output>
		</layer>
		<layer id="105" name="/model.2/cv1/act/Mul/fq_output_0" type="FakeQuantize" version="opset1">
			<data levels="256" auto_broadcast="numpy" />
			<input>
				<port id="0" precision="FP32">
					<dim>1</dim>
					<dim>64</dim>
					<dim>120</dim>
					<dim>120</dim>
				</port>
				<port id="1" precision="FP32" />
				<port id="2" precision="FP32" />
				<port id="3" precision="FP32" />
				<port id="4" precision="FP32" />
			</input>
			<output>
				<port id="5" precision="FP32">
					<dim>1</dim>
					<dim>64</dim>
					<dim>120</dim>
					<dim>120</dim>
				</port>
			</output>
		</layer>
		<layer id="106" name="Constant_336874" type="Const" version="opset1">
			<data element_type="i64" shape="" offset="38928" size="8" />
			<output>
				<port id="0" precision="I64" />
			</output>
		</layer>
		<layer id="107" name="Constant_9" type="Const" version="opset1">
			<data element_type="i64" shape="2" offset="62552" size="16" />
			<output>
				<port id="0" precision="I64" names="onnx::Split_230">
					<dim>2</dim>
				</port>
			</output>
		</layer>
		<layer id="108" name="/model.2/Split" type="VariadicSplit" version="opset1">
			<input>
				<port id="0" precision="FP32">
					<dim>1</dim>
					<dim>64</dim>
					<dim>120</dim>
					<dim>120</dim>
				</port>
				<port id="1" precision="I64" />
				<port id="2" precision="I64">
					<dim>2</dim>
				</port>
			</input>
			<output>
				<port id="3" precision="FP32" names="/model.2/Split_output_0">
					<dim>1</dim>
					<dim>32</dim>
					<dim>120</dim>
					<dim>120</dim>
				</port>
				<port id="4" precision="FP32" names="/model.2/Split_output_1">
					<dim>1</dim>
					<dim>32</dim>
					<dim>120</dim>
					<dim>120</dim>
				</port>
			</output>
		</layer>
		<layer id="109" name="Constant_423147" type="Const" version="opset1">
			<data element_type="i8" shape="32, 32, 3, 3" offset="62568" size="9216" />
			<output>
				<port id="0" precision="I8">
					<dim>32</dim>
					<dim>32</dim>
					<dim>3</dim>
					<dim>3</dim>
				</port>
			</output>
		</layer>
		<layer id="110" name="Convert_423148" type="Convert" version="opset1">
			<data destination_type="f32" />
			<input>
				<port id="0" precision="I8">
					<dim>32</dim>
					<dim>32</dim>
					<dim>3</dim>
					<dim>3</dim>
				</port>
			</input>
			<output>
				<port id="1" precision="FP32">
					<dim>32</dim>
					<dim>32</dim>
					<dim>3</dim>
					<dim>3</dim>
				</port>
			</output>
		</layer>
		<layer id="111" name="Constant_423149" type="Const" version="opset1">
			<data element_type="f32" shape="32, 1, 1, 1" offset="71784" size="128" />
			<output>
				<port id="0" precision="FP32">
					<dim>32</dim>
					<dim>1</dim>
					<dim>1</dim>
					<dim>1</dim>
				</port>
			</output>
		</layer>
		<layer id="112" name="/model.2/m.0/cv1/conv/Conv/WithoutBiases/fq_weights_1" type="Multiply" version="opset1">
			<data auto_broadcast="numpy" />
			<input>
				<port id="0" precision="FP32">
					<dim>32</dim>
					<dim>32</dim>
					<dim>3</dim>
					<dim>3</dim>
				</port>
				<port id="1" precision="FP32">
					<dim>32</dim>
					<dim>1</dim>
					<dim>1</dim>
					<dim>1</dim>
				</port>
			</input>
			<output>
				<port id="2" precision="FP32">
					<dim>32</dim>
					<dim>32</dim>
					<dim>3</dim>
					<dim>3</dim>
				</port>
			</output>
		</layer>
		<layer id="113" name="/model.2/m.0/cv1/conv/Conv/WithoutBiases" type="Convolution" version="opset1">
			<data strides="1, 1" dilations="1, 1" pads_begin="1, 1" pads_end="1, 1" auto_pad="explicit" />
			<input>
				<port id="0" precision="FP32">
					<dim>1</dim>
					<dim>32</dim>
					<dim>120</dim>
					<dim>120</dim>
				</port>
				<port id="1" precision="FP32">
					<dim>32</dim>
					<dim>32</dim>
					<dim>3</dim>
					<dim>3</dim>
				</port>
			</input>
			<output>
				<port id="2" precision="FP32">
					<dim>1</dim>
					<dim>32</dim>
					<dim>120</dim>
					<dim>120</dim>
				</port>
			</output>
		</layer>
		<layer id="114" name="model.2.m.0.cv1.conv.bias" type="Const" version="opset1">
			<data element_type="f32" shape="32" offset="71912" size="128" />
			<output>
				<port id="0" precision="FP32" names="model.2.m.0.cv1.conv.bias">
					<dim>32</dim>
				</port>
			</output>
		</layer>
		<layer id="115" name="Constant_336879" type="Const" version="opset1">
			<data element_type="i64" shape="1" offset="38928" size="8" />
			<output>
				<port id="0" precision="I64">
					<dim>1</dim>
				</port>
			</output>
		</layer>
		<layer id="116" name="ShapeOf_336886" type="ShapeOf" version="opset3">
			<data output_type="i64" />
			<input>
				<port id="0" precision="FP32">
					<dim>32</dim>
				</port>
			</input>
			<output>
				<port id="1" precision="I64">
					<dim>1</dim>
				</port>
			</output>
		</layer>
		<layer id="117" name="ShapeOf_336877" type="ShapeOf" version="opset3">
			<data output_type="i64" />
			<input>
				<port id="0" precision="FP32">
					<dim>1</dim>
					<dim>32</dim>
					<dim>120</dim>
					<dim>120</dim>
				</port>
			</input>
			<output>
				<port id="1" precision="I64">
					<dim>4</dim>
				</port>
			</output>
		</layer>
		<layer id="118" name="ShapeOf_336878" type="ShapeOf" version="opset3">
			<data output_type="i64" />
			<input>
				<port id="0" precision="I64">
					<dim>4</dim>
				</port>
			</input>
			<output>
				<port id="1" precision="I64">
					<dim>1</dim>
				</port>
			</output>
		</layer>
		<layer id="119" name="Constant_336880" type="Const" version="opset1">
			<data element_type="i64" shape="1" offset="38936" size="8" />
			<output>
				<port id="0" precision="I64">
					<dim>1</dim>
				</port>
			</output>
		</layer>
		<layer id="120" name="Subtract_336881" type="Subtract" version="opset1">
			<data auto_broadcast="numpy" />
			<input>
				<port id="0" precision="I64">
					<dim>1</dim>
				</port>
				<port id="1" precision="I64">
					<dim>1</dim>
				</port>
			</input>
			<output>
				<port id="2" precision="I64">
					<dim>1</dim>
				</port>
			</output>
		</layer>
		<layer id="121" name="Broadcast_336882" type="Broadcast" version="opset3">
			<data mode="numpy" />
			<input>
				<port id="0" precision="I64">
					<dim>1</dim>
				</port>
				<port id="1" precision="I64">
					<dim>1</dim>
				</port>
			</input>
			<output>
				<port id="2" precision="I64">
					<dim>2</dim>
				</port>
			</output>
		</layer>
		<layer id="122" name="Concat_336887" type="Concat" version="opset1">
			<data axis="0" />
			<input>
				<port id="0" precision="I64">
					<dim>1</dim>
				</port>
				<port id="1" precision="I64">
					<dim>1</dim>
				</port>
				<port id="2" precision="I64">
					<dim>2</dim>
				</port>
			</input>
			<output>
				<port id="3" precision="I64">
					<dim>4</dim>
				</port>
			</output>
		</layer>
		<layer id="123" name="Reshape_336888" type="Reshape" version="opset1">
			<data special_zero="false" />
			<input>
				<port id="0" precision="FP32">
					<dim>32</dim>
				</port>
				<port id="1" precision="I64">
					<dim>4</dim>
				</port>
			</input>
			<output>
				<port id="2" precision="FP32">
					<dim>1</dim>
					<dim>32</dim>
					<dim>1</dim>
					<dim>1</dim>
				</port>
			</output>
		</layer>
		<layer id="124" name="/model.2/m.0/cv1/conv/Conv" type="Add" version="opset1">
			<data auto_broadcast="numpy" />
			<input>
				<port id="0" precision="FP32">
					<dim>1</dim>
					<dim>32</dim>
					<dim>120</dim>
					<dim>120</dim>
				</port>
				<port id="1" precision="FP32">
					<dim>1</dim>
					<dim>32</dim>
					<dim>1</dim>
					<dim>1</dim>
				</port>
			</input>
			<output>
				<port id="2" precision="FP32" names="/model.2/m.0/cv1/conv/Conv_output_0">
					<dim>1</dim>
					<dim>32</dim>
					<dim>120</dim>
					<dim>120</dim>
				</port>
			</output>
		</layer>
		<layer id="125" name="/model.2/m.0/cv1/act/Mul/fq_input_0/input_low" type="Const" version="opset1">
			<data element_type="f32" shape="" offset="72040" size="4" />
			<output>
				<port id="0" precision="FP32" />
			</output>
		</layer>
		<layer id="126" name="/model.2/m.0/cv1/act/Mul/fq_input_0/input_high" type="Const" version="opset1">
			<data element_type="f32" shape="" offset="72044" size="4" />
			<output>
				<port id="0" precision="FP32" />
			</output>
		</layer>
		<layer id="127" name="/model.2/m.0/cv1/act/Mul/fq_input_0/output_low" type="Const" version="opset1">
			<data element_type="f32" shape="" offset="72040" size="4" />
			<output>
				<port id="0" precision="FP32" />
			</output>
		</layer>
		<layer id="128" name="/model.2/m.0/cv1/act/Mul/fq_input_0/output_high" type="Const" version="opset1">
			<data element_type="f32" shape="" offset="72044" size="4" />
			<output>
				<port id="0" precision="FP32" />
			</output>
		</layer>
		<layer id="129" name="/model.2/m.0/cv1/act/Mul/fq_input_0" type="FakeQuantize" version="opset1">
			<data levels="256" auto_broadcast="numpy" />
			<input>
				<port id="0" precision="FP32">
					<dim>1</dim>
					<dim>32</dim>
					<dim>120</dim>
					<dim>120</dim>
				</port>
				<port id="1" precision="FP32" />
				<port id="2" precision="FP32" />
				<port id="3" precision="FP32" />
				<port id="4" precision="FP32" />
			</input>
			<output>
				<port id="5" precision="FP32">
					<dim>1</dim>
					<dim>32</dim>
					<dim>120</dim>
					<dim>120</dim>
				</port>
			</output>
		</layer>
		<layer id="130" name="/model.2/m.0/cv1/act/Sigmoid" type="Sigmoid" version="opset1">
			<input>
				<port id="0" precision="FP32">
					<dim>1</dim>
					<dim>32</dim>
					<dim>120</dim>
					<dim>120</dim>
				</port>
			</input>
			<output>
				<port id="1" precision="FP32" names="/model.2/m.0/cv1/act/Sigmoid_output_0">
					<dim>1</dim>
					<dim>32</dim>
					<dim>120</dim>
					<dim>120</dim>
				</port>
			</output>
		</layer>
		<layer id="131" name="/model.2/m.0/cv1/act/Sigmoid/fq_output_0/input_low" type="Const" version="opset1">
			<data element_type="f32" shape="" offset="37800" size="4" />
			<output>
				<port id="0" precision="FP32" />
			</output>
		</layer>
		<layer id="132" name="/model.2/m.0/cv1/act/Sigmoid/fq_output_0/input_high" type="Const" version="opset1">
			<data element_type="f32" shape="" offset="72048" size="4" />
			<output>
				<port id="0" precision="FP32" />
			</output>
		</layer>
		<layer id="133" name="/model.2/m.0/cv1/act/Sigmoid/fq_output_0/output_low" type="Const" version="opset1">
			<data element_type="f32" shape="" offset="37800" size="4" />
			<output>
				<port id="0" precision="FP32" />
			</output>
		</layer>
		<layer id="134" name="/model.2/m.0/cv1/act/Sigmoid/fq_output_0/output_high" type="Const" version="opset1">
			<data element_type="f32" shape="" offset="72048" size="4" />
			<output>
				<port id="0" precision="FP32" />
			</output>
		</layer>
		<layer id="135" name="/model.2/m.0/cv1/act/Sigmoid/fq_output_0" type="FakeQuantize" version="opset1">
			<data levels="256" auto_broadcast="numpy" />
			<input>
				<port id="0" precision="FP32">
					<dim>1</dim>
					<dim>32</dim>
					<dim>120</dim>
					<dim>120</dim>
				</port>
				<port id="1" precision="FP32" />
				<port id="2" precision="FP32" />
				<port id="3" precision="FP32" />
				<port id="4" precision="FP32" />
			</input>
			<output>
				<port id="5" precision="FP32">
					<dim>1</dim>
					<dim>32</dim>
					<dim>120</dim>
					<dim>120</dim>
				</port>
			</output>
		</layer>
		<layer id="136" name="/model.2/m.0/cv1/act/Mul" type="Multiply" version="opset1">
			<data auto_broadcast="numpy" />
			<input>
				<port id="0" precision="FP32">
					<dim>1</dim>
					<dim>32</dim>
					<dim>120</dim>
					<dim>120</dim>
				</port>
				<port id="1" precision="FP32">
					<dim>1</dim>
					<dim>32</dim>
					<dim>120</dim>
					<dim>120</dim>
				</port>
			</input>
			<output>
				<port id="2" precision="FP32" names="/model.2/m.0/cv1/act/Mul_output_0">
					<dim>1</dim>
					<dim>32</dim>
					<dim>120</dim>
					<dim>120</dim>
				</port>
			</output>
		</layer>
		<layer id="137" name="/model.2/m.0/cv1/act/Mul/fq_output_0/input_low" type="Const" version="opset1">
			<data element_type="f32" shape="" offset="72052" size="4" />
			<output>
				<port id="0" precision="FP32" />
			</output>
		</layer>
		<layer id="138" name="/model.2/m.0/cv1/act/Mul/fq_output_0/input_high" type="Const" version="opset1">
			<data element_type="f32" shape="" offset="72056" size="4" />
			<output>
				<port id="0" precision="FP32" />
			</output>
		</layer>
		<layer id="139" name="/model.2/m.0/cv1/act/Mul/fq_output_0/output_low" type="Const" version="opset1">
			<data element_type="f32" shape="" offset="72052" size="4" />
			<output>
				<port id="0" precision="FP32" />
			</output>
		</layer>
		<layer id="140" name="/model.2/m.0/cv1/act/Mul/fq_output_0/output_high" type="Const" version="opset1">
			<data element_type="f32" shape="" offset="72056" size="4" />
			<output>
				<port id="0" precision="FP32" />
			</output>
		</layer>
		<layer id="141" name="/model.2/m.0/cv1/act/Mul/fq_output_0" type="FakeQuantize" version="opset1">
			<data levels="256" auto_broadcast="numpy" />
			<input>
				<port id="0" precision="FP32">
					<dim>1</dim>
					<dim>32</dim>
					<dim>120</dim>
					<dim>120</dim>
				</port>
				<port id="1" precision="FP32" />
				<port id="2" precision="FP32" />
				<port id="3" precision="FP32" />
				<port id="4" precision="FP32" />
			</input>
			<output>
				<port id="5" precision="FP32">
					<dim>1</dim>
					<dim>32</dim>
					<dim>120</dim>
					<dim>120</dim>
				</port>
			</output>
		</layer>
		<layer id="142" name="Constant_423151" type="Const" version="opset1">
			<data element_type="i8" shape="32, 32, 3, 3" offset="72060" size="9216" />
			<output>
				<port id="0" precision="I8">
					<dim>32</dim>
					<dim>32</dim>
					<dim>3</dim>
					<dim>3</dim>
				</port>
			</output>
		</layer>
		<layer id="143" name="Convert_423152" type="Convert" version="opset1">
			<data destination_type="f32" />
			<input>
				<port id="0" precision="I8">
					<dim>32</dim>
					<dim>32</dim>
					<dim>3</dim>
					<dim>3</dim>
				</port>
			</input>
			<output>
				<port id="1" precision="FP32">
					<dim>32</dim>
					<dim>32</dim>
					<dim>3</dim>
					<dim>3</dim>
				</port>
			</output>
		</layer>
		<layer id="144" name="Constant_423153" type="Const" version="opset1">
			<data element_type="f32" shape="32, 1, 1, 1" offset="81276" size="128" />
			<output>
				<port id="0" precision="FP32">
					<dim>32</dim>
					<dim>1</dim>
					<dim>1</dim>
					<dim>1</dim>
				</port>
			</output>
		</layer>
		<layer id="145" name="/model.2/m.0/cv2/conv/Conv/WithoutBiases/fq_weights_1" type="Multiply" version="opset1">
			<data auto_broadcast="numpy" />
			<input>
				<port id="0" precision="FP32">
					<dim>32</dim>
					<dim>32</dim>
					<dim>3</dim>
					<dim>3</dim>
				</port>
				<port id="1" precision="FP32">
					<dim>32</dim>
					<dim>1</dim>
					<dim>1</dim>
					<dim>1</dim>
				</port>
			</input>
			<output>
				<port id="2" precision="FP32">
					<dim>32</dim>
					<dim>32</dim>
					<dim>3</dim>
					<dim>3</dim>
				</port>
			</output>
		</layer>
		<layer id="146" name="/model.2/m.0/cv2/conv/Conv/WithoutBiases" type="Convolution" version="opset1">
			<data strides="1, 1" dilations="1, 1" pads_begin="1, 1" pads_end="1, 1" auto_pad="explicit" />
			<input>
				<port id="0" precision="FP32">
					<dim>1</dim>
					<dim>32</dim>
					<dim>120</dim>
					<dim>120</dim>
				</port>
				<port id="1" precision="FP32">
					<dim>32</dim>
					<dim>32</dim>
					<dim>3</dim>
					<dim>3</dim>
				</port>
			</input>
			<output>
				<port id="2" precision="FP32">
					<dim>1</dim>
					<dim>32</dim>
					<dim>120</dim>
					<dim>120</dim>
				</port>
			</output>
		</layer>
		<layer id="147" name="model.2.m.0.cv2.conv.bias" type="Const" version="opset1">
			<data element_type="f32" shape="32" offset="81404" size="128" />
			<output>
				<port id="0" precision="FP32" names="model.2.m.0.cv2.conv.bias">
					<dim>32</dim>
				</port>
			</output>
		</layer>
		<layer id="148" name="Constant_336897" type="Const" version="opset1">
			<data element_type="i64" shape="1" offset="38928" size="8" />
			<output>
				<port id="0" precision="I64">
					<dim>1</dim>
				</port>
			</output>
		</layer>
		<layer id="149" name="ShapeOf_336904" type="ShapeOf" version="opset3">
			<data output_type="i64" />
			<input>
				<port id="0" precision="FP32">
					<dim>32</dim>
				</port>
			</input>
			<output>
				<port id="1" precision="I64">
					<dim>1</dim>
				</port>
			</output>
		</layer>
		<layer id="150" name="ShapeOf_336895" type="ShapeOf" version="opset3">
			<data output_type="i64" />
			<input>
				<port id="0" precision="FP32">
					<dim>1</dim>
					<dim>32</dim>
					<dim>120</dim>
					<dim>120</dim>
				</port>
			</input>
			<output>
				<port id="1" precision="I64">
					<dim>4</dim>
				</port>
			</output>
		</layer>
		<layer id="151" name="ShapeOf_336896" type="ShapeOf" version="opset3">
			<data output_type="i64" />
			<input>
				<port id="0" precision="I64">
					<dim>4</dim>
				</port>
			</input>
			<output>
				<port id="1" precision="I64">
					<dim>1</dim>
				</port>
			</output>
		</layer>
		<layer id="152" name="Constant_336898" type="Const" version="opset1">
			<data element_type="i64" shape="1" offset="38936" size="8" />
			<output>
				<port id="0" precision="I64">
					<dim>1</dim>
				</port>
			</output>
		</layer>
		<layer id="153" name="Subtract_336899" type="Subtract" version="opset1">
			<data auto_broadcast="numpy" />
			<input>
				<port id="0" precision="I64">
					<dim>1</dim>
				</port>
				<port id="1" precision="I64">
					<dim>1</dim>
				</port>
			</input>
			<output>
				<port id="2" precision="I64">
					<dim>1</dim>
				</port>
			</output>
		</layer>
		<layer id="154" name="Broadcast_336900" type="Broadcast" version="opset3">
			<data mode="numpy" />
			<input>
				<port id="0" precision="I64">
					<dim>1</dim>
				</port>
				<port id="1" precision="I64">
					<dim>1</dim>
				</port>
			</input>
			<output>
				<port id="2" precision="I64">
					<dim>2</dim>
				</port>
			</output>
		</layer>
		<layer id="155" name="Concat_336905" type="Concat" version="opset1">
			<data axis="0" />
			<input>
				<port id="0" precision="I64">
					<dim>1</dim>
				</port>
				<port id="1" precision="I64">
					<dim>1</dim>
				</port>
				<port id="2" precision="I64">
					<dim>2</dim>
				</port>
			</input>
			<output>
				<port id="3" precision="I64">
					<dim>4</dim>
				</port>
			</output>
		</layer>
		<layer id="156" name="Reshape_336906" type="Reshape" version="opset1">
			<data special_zero="false" />
			<input>
				<port id="0" precision="FP32">
					<dim>32</dim>
				</port>
				<port id="1" precision="I64">
					<dim>4</dim>
				</port>
			</input>
			<output>
				<port id="2" precision="FP32">
					<dim>1</dim>
					<dim>32</dim>
					<dim>1</dim>
					<dim>1</dim>
				</port>
			</output>
		</layer>
		<layer id="157" name="/model.2/m.0/cv2/conv/Conv" type="Add" version="opset1">
			<data auto_broadcast="numpy" />
			<input>
				<port id="0" precision="FP32">
					<dim>1</dim>
					<dim>32</dim>
					<dim>120</dim>
					<dim>120</dim>
				</port>
				<port id="1" precision="FP32">
					<dim>1</dim>
					<dim>32</dim>
					<dim>1</dim>
					<dim>1</dim>
				</port>
			</input>
			<output>
				<port id="2" precision="FP32" names="/model.2/m.0/cv2/conv/Conv_output_0">
					<dim>1</dim>
					<dim>32</dim>
					<dim>120</dim>
					<dim>120</dim>
				</port>
			</output>
		</layer>
		<layer id="158" name="/model.2/m.0/cv2/act/Mul/fq_input_0/input_low" type="Const" version="opset1">
			<data element_type="f32" shape="" offset="81532" size="4" />
			<output>
				<port id="0" precision="FP32" />
			</output>
		</layer>
		<layer id="159" name="/model.2/m.0/cv2/act/Mul/fq_input_0/input_high" type="Const" version="opset1">
			<data element_type="f32" shape="" offset="81536" size="4" />
			<output>
				<port id="0" precision="FP32" />
			</output>
		</layer>
		<layer id="160" name="/model.2/m.0/cv2/act/Mul/fq_input_0/output_low" type="Const" version="opset1">
			<data element_type="f32" shape="" offset="81532" size="4" />
			<output>
				<port id="0" precision="FP32" />
			</output>
		</layer>
		<layer id="161" name="/model.2/m.0/cv2/act/Mul/fq_input_0/output_high" type="Const" version="opset1">
			<data element_type="f32" shape="" offset="81536" size="4" />
			<output>
				<port id="0" precision="FP32" />
			</output>
		</layer>
		<layer id="162" name="/model.2/m.0/cv2/act/Mul/fq_input_0" type="FakeQuantize" version="opset1">
			<data levels="256" auto_broadcast="numpy" />
			<input>
				<port id="0" precision="FP32">
					<dim>1</dim>
					<dim>32</dim>
					<dim>120</dim>
					<dim>120</dim>
				</port>
				<port id="1" precision="FP32" />
				<port id="2" precision="FP32" />
				<port id="3" precision="FP32" />
				<port id="4" precision="FP32" />
			</input>
			<output>
				<port id="5" precision="FP32">
					<dim>1</dim>
					<dim>32</dim>
					<dim>120</dim>
					<dim>120</dim>
				</port>
			</output>
		</layer>
		<layer id="163" name="/model.2/m.0/cv2/act/Sigmoid" type="Sigmoid" version="opset1">
			<input>
				<port id="0" precision="FP32">
					<dim>1</dim>
					<dim>32</dim>
					<dim>120</dim>
					<dim>120</dim>
				</port>
			</input>
			<output>
				<port id="1" precision="FP32" names="/model.2/m.0/cv2/act/Sigmoid_output_0">
					<dim>1</dim>
					<dim>32</dim>
					<dim>120</dim>
					<dim>120</dim>
				</port>
			</output>
		</layer>
		<layer id="164" name="/model.2/m.0/cv2/act/Sigmoid/fq_output_0/input_low" type="Const" version="opset1">
			<data element_type="f32" shape="" offset="37800" size="4" />
			<output>
				<port id="0" precision="FP32" />
			</output>
		</layer>
		<layer id="165" name="/model.2/m.0/cv2/act/Sigmoid/fq_output_0/input_high" type="Const" version="opset1">
			<data element_type="f32" shape="" offset="81540" size="4" />
			<output>
				<port id="0" precision="FP32" />
			</output>
		</layer>
		<layer id="166" name="/model.2/m.0/cv2/act/Sigmoid/fq_output_0/output_low" type="Const" version="opset1">
			<data element_type="f32" shape="" offset="37800" size="4" />
			<output>
				<port id="0" precision="FP32" />
			</output>
		</layer>
		<layer id="167" name="/model.2/m.0/cv2/act/Sigmoid/fq_output_0/output_high" type="Const" version="opset1">
			<data element_type="f32" shape="" offset="81540" size="4" />
			<output>
				<port id="0" precision="FP32" />
			</output>
		</layer>
		<layer id="168" name="/model.2/m.0/cv2/act/Sigmoid/fq_output_0" type="FakeQuantize" version="opset1">
			<data levels="256" auto_broadcast="numpy" />
			<input>
				<port id="0" precision="FP32">
					<dim>1</dim>
					<dim>32</dim>
					<dim>120</dim>
					<dim>120</dim>
				</port>
				<port id="1" precision="FP32" />
				<port id="2" precision="FP32" />
				<port id="3" precision="FP32" />
				<port id="4" precision="FP32" />
			</input>
			<output>
				<port id="5" precision="FP32">
					<dim>1</dim>
					<dim>32</dim>
					<dim>120</dim>
					<dim>120</dim>
				</port>
			</output>
		</layer>
		<layer id="169" name="/model.2/m.0/cv2/act/Mul" type="Multiply" version="opset1">
			<data auto_broadcast="numpy" />
			<input>
				<port id="0" precision="FP32">
					<dim>1</dim>
					<dim>32</dim>
					<dim>120</dim>
					<dim>120</dim>
				</port>
				<port id="1" precision="FP32">
					<dim>1</dim>
					<dim>32</dim>
					<dim>120</dim>
					<dim>120</dim>
				</port>
			</input>
			<output>
				<port id="2" precision="FP32" names="/model.2/m.0/cv2/act/Mul_output_0">
					<dim>1</dim>
					<dim>32</dim>
					<dim>120</dim>
					<dim>120</dim>
				</port>
			</output>
		</layer>
		<layer id="170" name="/model.2/m.0/cv2/act/Mul/fq_output_0/input_low" type="Const" version="opset1">
			<data element_type="f32" shape="" offset="81544" size="4" />
			<output>
				<port id="0" precision="FP32" />
			</output>
		</layer>
		<layer id="171" name="/model.2/m.0/cv2/act/Mul/fq_output_0/input_high" type="Const" version="opset1">
			<data element_type="f32" shape="" offset="81548" size="4" />
			<output>
				<port id="0" precision="FP32" />
			</output>
		</layer>
		<layer id="172" name="/model.2/m.0/cv2/act/Mul/fq_output_0/output_low" type="Const" version="opset1">
			<data element_type="f32" shape="" offset="81544" size="4" />
			<output>
				<port id="0" precision="FP32" />
			</output>
		</layer>
		<layer id="173" name="/model.2/m.0/cv2/act/Mul/fq_output_0/output_high" type="Const" version="opset1">
			<data element_type="f32" shape="" offset="81548" size="4" />
			<output>
				<port id="0" precision="FP32" />
			</output>
		</layer>
		<layer id="174" name="/model.2/m.0/cv2/act/Mul/fq_output_0" type="FakeQuantize" version="opset1">
			<data levels="256" auto_broadcast="numpy" />
			<input>
				<port id="0" precision="FP32">
					<dim>1</dim>
					<dim>32</dim>
					<dim>120</dim>
					<dim>120</dim>
				</port>
				<port id="1" precision="FP32" />
				<port id="2" precision="FP32" />
				<port id="3" precision="FP32" />
				<port id="4" precision="FP32" />
			</input>
			<output>
				<port id="5" precision="FP32">
					<dim>1</dim>
					<dim>32</dim>
					<dim>120</dim>
					<dim>120</dim>
				</port>
			</output>
		</layer>
		<layer id="175" name="/model.2/m.0/Add" type="Add" version="opset1">
			<data auto_broadcast="numpy" />
			<input>
				<port id="0" precision="FP32">
					<dim>1</dim>
					<dim>32</dim>
					<dim>120</dim>
					<dim>120</dim>
				</port>
				<port id="1" precision="FP32">
					<dim>1</dim>
					<dim>32</dim>
					<dim>120</dim>
					<dim>120</dim>
				</port>
			</input>
			<output>
				<port id="2" precision="FP32" names="/model.2/m.0/Add_output_0">
					<dim>1</dim>
					<dim>32</dim>
					<dim>120</dim>
					<dim>120</dim>
				</port>
			</output>
		</layer>
		<layer id="176" name="/model.2/m.0/Add/fq_output_0/input_low" type="Const" version="opset1">
			<data element_type="f32" shape="" offset="62544" size="4" />
			<output>
				<port id="0" precision="FP32" />
			</output>
		</layer>
		<layer id="177" name="/model.2/m.0/Add/fq_output_0/input_high" type="Const" version="opset1">
			<data element_type="f32" shape="" offset="62548" size="4" />
			<output>
				<port id="0" precision="FP32" />
			</output>
		</layer>
		<layer id="178" name="/model.2/m.0/Add/fq_output_0/output_low" type="Const" version="opset1">
			<data element_type="f32" shape="" offset="62544" size="4" />
			<output>
				<port id="0" precision="FP32" />
			</output>
		</layer>
		<layer id="179" name="/model.2/m.0/Add/fq_output_0/output_high" type="Const" version="opset1">
			<data element_type="f32" shape="" offset="62548" size="4" />
			<output>
				<port id="0" precision="FP32" />
			</output>
		</layer>
		<layer id="180" name="/model.2/m.0/Add/fq_output_0" type="FakeQuantize" version="opset1">
			<data levels="256" auto_broadcast="numpy" />
			<input>
				<port id="0" precision="FP32">
					<dim>1</dim>
					<dim>32</dim>
					<dim>120</dim>
					<dim>120</dim>
				</port>
				<port id="1" precision="FP32" />
				<port id="2" precision="FP32" />
				<port id="3" precision="FP32" />
				<port id="4" precision="FP32" />
			</input>
			<output>
				<port id="5" precision="FP32">
					<dim>1</dim>
					<dim>32</dim>
					<dim>120</dim>
					<dim>120</dim>
				</port>
			</output>
		</layer>
		<layer id="181" name="/model.2/Concat" type="Concat" version="opset1">
			<data axis="1" />
			<input>
				<port id="0" precision="FP32">
					<dim>1</dim>
					<dim>32</dim>
					<dim>120</dim>
					<dim>120</dim>
				</port>
				<port id="1" precision="FP32">
					<dim>1</dim>
					<dim>32</dim>
					<dim>120</dim>
					<dim>120</dim>
				</port>
				<port id="2" precision="FP32">
					<dim>1</dim>
					<dim>32</dim>
					<dim>120</dim>
					<dim>120</dim>
				</port>
			</input>
			<output>
				<port id="3" precision="FP32" names="/model.2/Concat_output_0">
					<dim>1</dim>
					<dim>96</dim>
					<dim>120</dim>
					<dim>120</dim>
				</port>
			</output>
		</layer>
		<layer id="182" name="Constant_423155" type="Const" version="opset1">
			<data element_type="i8" shape="64, 96, 1, 1" offset="81552" size="6144" />
			<output>
				<port id="0" precision="I8">
					<dim>64</dim>
					<dim>96</dim>
					<dim>1</dim>
					<dim>1</dim>
				</port>
			</output>
		</layer>
		<layer id="183" name="Convert_423156" type="Convert" version="opset1">
			<data destination_type="f32" />
			<input>
				<port id="0" precision="I8">
					<dim>64</dim>
					<dim>96</dim>
					<dim>1</dim>
					<dim>1</dim>
				</port>
			</input>
			<output>
				<port id="1" precision="FP32">
					<dim>64</dim>
					<dim>96</dim>
					<dim>1</dim>
					<dim>1</dim>
				</port>
			</output>
		</layer>
		<layer id="184" name="Constant_423157" type="Const" version="opset1">
			<data element_type="f32" shape="64, 1, 1, 1" offset="87696" size="256" />
			<output>
				<port id="0" precision="FP32">
					<dim>64</dim>
					<dim>1</dim>
					<dim>1</dim>
					<dim>1</dim>
				</port>
			</output>
		</layer>
		<layer id="185" name="/model.2/cv2/conv/Conv/WithoutBiases/fq_weights_1" type="Multiply" version="opset1">
			<data auto_broadcast="numpy" />
			<input>
				<port id="0" precision="FP32">
					<dim>64</dim>
					<dim>96</dim>
					<dim>1</dim>
					<dim>1</dim>
				</port>
				<port id="1" precision="FP32">
					<dim>64</dim>
					<dim>1</dim>
					<dim>1</dim>
					<dim>1</dim>
				</port>
			</input>
			<output>
				<port id="2" precision="FP32">
					<dim>64</dim>
					<dim>96</dim>
					<dim>1</dim>
					<dim>1</dim>
				</port>
			</output>
		</layer>
		<layer id="186" name="/model.2/cv2/conv/Conv/WithoutBiases" type="Convolution" version="opset1">
			<data strides="1, 1" dilations="1, 1" pads_begin="0, 0" pads_end="0, 0" auto_pad="explicit" />
			<input>
				<port id="0" precision="FP32">
					<dim>1</dim>
					<dim>96</dim>
					<dim>120</dim>
					<dim>120</dim>
				</port>
				<port id="1" precision="FP32">
					<dim>64</dim>
					<dim>96</dim>
					<dim>1</dim>
					<dim>1</dim>
				</port>
			</input>
			<output>
				<port id="2" precision="FP32">
					<dim>1</dim>
					<dim>64</dim>
					<dim>120</dim>
					<dim>120</dim>
				</port>
			</output>
		</layer>
		<layer id="187" name="model.2.cv2.conv.bias" type="Const" version="opset1">
			<data element_type="f32" shape="64" offset="87952" size="256" />
			<output>
				<port id="0" precision="FP32" names="model.2.cv2.conv.bias">
					<dim>64</dim>
				</port>
			</output>
		</layer>
		<layer id="188" name="Constant_336917" type="Const" version="opset1">
			<data element_type="i64" shape="1" offset="38928" size="8" />
			<output>
				<port id="0" precision="I64">
					<dim>1</dim>
				</port>
			</output>
		</layer>
		<layer id="189" name="ShapeOf_336924" type="ShapeOf" version="opset3">
			<data output_type="i64" />
			<input>
				<port id="0" precision="FP32">
					<dim>64</dim>
				</port>
			</input>
			<output>
				<port id="1" precision="I64">
					<dim>1</dim>
				</port>
			</output>
		</layer>
		<layer id="190" name="ShapeOf_336915" type="ShapeOf" version="opset3">
			<data output_type="i64" />
			<input>
				<port id="0" precision="FP32">
					<dim>1</dim>
					<dim>64</dim>
					<dim>120</dim>
					<dim>120</dim>
				</port>
			</input>
			<output>
				<port id="1" precision="I64">
					<dim>4</dim>
				</port>
			</output>
		</layer>
		<layer id="191" name="ShapeOf_336916" type="ShapeOf" version="opset3">
			<data output_type="i64" />
			<input>
				<port id="0" precision="I64">
					<dim>4</dim>
				</port>
			</input>
			<output>
				<port id="1" precision="I64">
					<dim>1</dim>
				</port>
			</output>
		</layer>
		<layer id="192" name="Constant_336918" type="Const" version="opset1">
			<data element_type="i64" shape="1" offset="38936" size="8" />
			<output>
				<port id="0" precision="I64">
					<dim>1</dim>
				</port>
			</output>
		</layer>
		<layer id="193" name="Subtract_336919" type="Subtract" version="opset1">
			<data auto_broadcast="numpy" />
			<input>
				<port id="0" precision="I64">
					<dim>1</dim>
				</port>
				<port id="1" precision="I64">
					<dim>1</dim>
				</port>
			</input>
			<output>
				<port id="2" precision="I64">
					<dim>1</dim>
				</port>
			</output>
		</layer>
		<layer id="194" name="Broadcast_336920" type="Broadcast" version="opset3">
			<data mode="numpy" />
			<input>
				<port id="0" precision="I64">
					<dim>1</dim>
				</port>
				<port id="1" precision="I64">
					<dim>1</dim>
				</port>
			</input>
			<output>
				<port id="2" precision="I64">
					<dim>2</dim>
				</port>
			</output>
		</layer>
		<layer id="195" name="Concat_336925" type="Concat" version="opset1">
			<data axis="0" />
			<input>
				<port id="0" precision="I64">
					<dim>1</dim>
				</port>
				<port id="1" precision="I64">
					<dim>1</dim>
				</port>
				<port id="2" precision="I64">
					<dim>2</dim>
				</port>
			</input>
			<output>
				<port id="3" precision="I64">
					<dim>4</dim>
				</port>
			</output>
		</layer>
		<layer id="196" name="Reshape_336926" type="Reshape" version="opset1">
			<data special_zero="false" />
			<input>
				<port id="0" precision="FP32">
					<dim>64</dim>
				</port>
				<port id="1" precision="I64">
					<dim>4</dim>
				</port>
			</input>
			<output>
				<port id="2" precision="FP32">
					<dim>1</dim>
					<dim>64</dim>
					<dim>1</dim>
					<dim>1</dim>
				</port>
			</output>
		</layer>
		<layer id="197" name="/model.2/cv2/conv/Conv" type="Add" version="opset1">
			<data auto_broadcast="numpy" />
			<input>
				<port id="0" precision="FP32">
					<dim>1</dim>
					<dim>64</dim>
					<dim>120</dim>
					<dim>120</dim>
				</port>
				<port id="1" precision="FP32">
					<dim>1</dim>
					<dim>64</dim>
					<dim>1</dim>
					<dim>1</dim>
				</port>
			</input>
			<output>
				<port id="2" precision="FP32" names="/model.2/cv2/conv/Conv_output_0">
					<dim>1</dim>
					<dim>64</dim>
					<dim>120</dim>
					<dim>120</dim>
				</port>
			</output>
		</layer>
		<layer id="198" name="/model.2/cv2/act/Mul/fq_input_0/input_low" type="Const" version="opset1">
			<data element_type="f32" shape="" offset="88208" size="4" />
			<output>
				<port id="0" precision="FP32" />
			</output>
		</layer>
		<layer id="199" name="/model.2/cv2/act/Mul/fq_input_0/input_high" type="Const" version="opset1">
			<data element_type="f32" shape="" offset="88212" size="4" />
			<output>
				<port id="0" precision="FP32" />
			</output>
		</layer>
		<layer id="200" name="/model.2/cv2/act/Mul/fq_input_0/output_low" type="Const" version="opset1">
			<data element_type="f32" shape="" offset="88208" size="4" />
			<output>
				<port id="0" precision="FP32" />
			</output>
		</layer>
		<layer id="201" name="/model.2/cv2/act/Mul/fq_input_0/output_high" type="Const" version="opset1">
			<data element_type="f32" shape="" offset="88212" size="4" />
			<output>
				<port id="0" precision="FP32" />
			</output>
		</layer>
		<layer id="202" name="/model.2/cv2/act/Mul/fq_input_0" type="FakeQuantize" version="opset1">
			<data levels="256" auto_broadcast="numpy" />
			<input>
				<port id="0" precision="FP32">
					<dim>1</dim>
					<dim>64</dim>
					<dim>120</dim>
					<dim>120</dim>
				</port>
				<port id="1" precision="FP32" />
				<port id="2" precision="FP32" />
				<port id="3" precision="FP32" />
				<port id="4" precision="FP32" />
			</input>
			<output>
				<port id="5" precision="FP32">
					<dim>1</dim>
					<dim>64</dim>
					<dim>120</dim>
					<dim>120</dim>
				</port>
			</output>
		</layer>
		<layer id="203" name="/model.2/cv2/act/Sigmoid" type="Sigmoid" version="opset1">
			<input>
				<port id="0" precision="FP32">
					<dim>1</dim>
					<dim>64</dim>
					<dim>120</dim>
					<dim>120</dim>
				</port>
			</input>
			<output>
				<port id="1" precision="FP32" names="/model.2/cv2/act/Sigmoid_output_0">
					<dim>1</dim>
					<dim>64</dim>
					<dim>120</dim>
					<dim>120</dim>
				</port>
			</output>
		</layer>
		<layer id="204" name="/model.2/cv2/act/Sigmoid/fq_output_0/input_low" type="Const" version="opset1">
			<data element_type="f32" shape="" offset="37800" size="4" />
			<output>
				<port id="0" precision="FP32" />
			</output>
		</layer>
		<layer id="205" name="/model.2/cv2/act/Sigmoid/fq_output_0/input_high" type="Const" version="opset1">
			<data element_type="f32" shape="" offset="88216" size="4" />
			<output>
				<port id="0" precision="FP32" />
			</output>
		</layer>
		<layer id="206" name="/model.2/cv2/act/Sigmoid/fq_output_0/output_low" type="Const" version="opset1">
			<data element_type="f32" shape="" offset="37800" size="4" />
			<output>
				<port id="0" precision="FP32" />
			</output>
		</layer>
		<layer id="207" name="/model.2/cv2/act/Sigmoid/fq_output_0/output_high" type="Const" version="opset1">
			<data element_type="f32" shape="" offset="88216" size="4" />
			<output>
				<port id="0" precision="FP32" />
			</output>
		</layer>
		<layer id="208" name="/model.2/cv2/act/Sigmoid/fq_output_0" type="FakeQuantize" version="opset1">
			<data levels="256" auto_broadcast="numpy" />
			<input>
				<port id="0" precision="FP32">
					<dim>1</dim>
					<dim>64</dim>
					<dim>120</dim>
					<dim>120</dim>
				</port>
				<port id="1" precision="FP32" />
				<port id="2" precision="FP32" />
				<port id="3" precision="FP32" />
				<port id="4" precision="FP32" />
			</input>
			<output>
				<port id="5" precision="FP32">
					<dim>1</dim>
					<dim>64</dim>
					<dim>120</dim>
					<dim>120</dim>
				</port>
			</output>
		</layer>
		<layer id="209" name="/model.2/cv2/act/Mul" type="Multiply" version="opset1">
			<data auto_broadcast="numpy" />
			<input>
				<port id="0" precision="FP32">
					<dim>1</dim>
					<dim>64</dim>
					<dim>120</dim>
					<dim>120</dim>
				</port>
				<port id="1" precision="FP32">
					<dim>1</dim>
					<dim>64</dim>
					<dim>120</dim>
					<dim>120</dim>
				</port>
			</input>
			<output>
				<port id="2" precision="FP32" names="/model.2/cv2/act/Mul_output_0">
					<dim>1</dim>
					<dim>64</dim>
					<dim>120</dim>
					<dim>120</dim>
				</port>
			</output>
		</layer>
		<layer id="210" name="/model.2/cv2/act/Mul/fq_output_0/input_low" type="Const" version="opset1">
			<data element_type="f32" shape="" offset="88220" size="4" />
			<output>
				<port id="0" precision="FP32" />
			</output>
		</layer>
		<layer id="211" name="/model.2/cv2/act/Mul/fq_output_0/input_high" type="Const" version="opset1">
			<data element_type="f32" shape="" offset="88224" size="4" />
			<output>
				<port id="0" precision="FP32" />
			</output>
		</layer>
		<layer id="212" name="/model.2/cv2/act/Mul/fq_output_0/output_low" type="Const" version="opset1">
			<data element_type="f32" shape="" offset="88220" size="4" />
			<output>
				<port id="0" precision="FP32" />
			</output>
		</layer>
		<layer id="213" name="/model.2/cv2/act/Mul/fq_output_0/output_high" type="Const" version="opset1">
			<data element_type="f32" shape="" offset="88224" size="4" />
			<output>
				<port id="0" precision="FP32" />
			</output>
		</layer>
		<layer id="214" name="/model.2/cv2/act/Mul/fq_output_0" type="FakeQuantize" version="opset1">
			<data levels="256" auto_broadcast="numpy" />
			<input>
				<port id="0" precision="FP32">
					<dim>1</dim>
					<dim>64</dim>
					<dim>120</dim>
					<dim>120</dim>
				</port>
				<port id="1" precision="FP32" />
				<port id="2" precision="FP32" />
				<port id="3" precision="FP32" />
				<port id="4" precision="FP32" />
			</input>
			<output>
				<port id="5" precision="FP32">
					<dim>1</dim>
					<dim>64</dim>
					<dim>120</dim>
					<dim>120</dim>
				</port>
			</output>
		</layer>
		<layer id="215" name="Constant_423159" type="Const" version="opset1">
			<data element_type="i8" shape="128, 64, 3, 3" offset="88228" size="73728" />
			<output>
				<port id="0" precision="I8">
					<dim>128</dim>
					<dim>64</dim>
					<dim>3</dim>
					<dim>3</dim>
				</port>
			</output>
		</layer>
		<layer id="216" name="Convert_423160" type="Convert" version="opset1">
			<data destination_type="f32" />
			<input>
				<port id="0" precision="I8">
					<dim>128</dim>
					<dim>64</dim>
					<dim>3</dim>
					<dim>3</dim>
				</port>
			</input>
			<output>
				<port id="1" precision="FP32">
					<dim>128</dim>
					<dim>64</dim>
					<dim>3</dim>
					<dim>3</dim>
				</port>
			</output>
		</layer>
		<layer id="217" name="Constant_423161" type="Const" version="opset1">
			<data element_type="f32" shape="128, 1, 1, 1" offset="161956" size="512" />
			<output>
				<port id="0" precision="FP32">
					<dim>128</dim>
					<dim>1</dim>
					<dim>1</dim>
					<dim>1</dim>
				</port>
			</output>
		</layer>
		<layer id="218" name="/model.3/conv/Conv/WithoutBiases/fq_weights_1" type="Multiply" version="opset1">
			<data auto_broadcast="numpy" />
			<input>
				<port id="0" precision="FP32">
					<dim>128</dim>
					<dim>64</dim>
					<dim>3</dim>
					<dim>3</dim>
				</port>
				<port id="1" precision="FP32">
					<dim>128</dim>
					<dim>1</dim>
					<dim>1</dim>
					<dim>1</dim>
				</port>
			</input>
			<output>
				<port id="2" precision="FP32">
					<dim>128</dim>
					<dim>64</dim>
					<dim>3</dim>
					<dim>3</dim>
				</port>
			</output>
		</layer>
		<layer id="219" name="/model.3/conv/Conv/WithoutBiases" type="Convolution" version="opset1">
			<data strides="2, 2" dilations="1, 1" pads_begin="1, 1" pads_end="1, 1" auto_pad="explicit" />
			<input>
				<port id="0" precision="FP32">
					<dim>1</dim>
					<dim>64</dim>
					<dim>120</dim>
					<dim>120</dim>
				</port>
				<port id="1" precision="FP32">
					<dim>128</dim>
					<dim>64</dim>
					<dim>3</dim>
					<dim>3</dim>
				</port>
			</input>
			<output>
				<port id="2" precision="FP32">
					<dim>1</dim>
					<dim>128</dim>
					<dim>60</dim>
					<dim>60</dim>
				</port>
			</output>
		</layer>
		<layer id="220" name="model.3.conv.bias" type="Const" version="opset1">
			<data element_type="f32" shape="128" offset="162468" size="512" />
			<output>
				<port id="0" precision="FP32" names="model.3.conv.bias">
					<dim>128</dim>
				</port>
			</output>
		</layer>
		<layer id="221" name="Constant_336935" type="Const" version="opset1">
			<data element_type="i64" shape="1" offset="38928" size="8" />
			<output>
				<port id="0" precision="I64">
					<dim>1</dim>
				</port>
			</output>
		</layer>
		<layer id="222" name="ShapeOf_336942" type="ShapeOf" version="opset3">
			<data output_type="i64" />
			<input>
				<port id="0" precision="FP32">
					<dim>128</dim>
				</port>
			</input>
			<output>
				<port id="1" precision="I64">
					<dim>1</dim>
				</port>
			</output>
		</layer>
		<layer id="223" name="ShapeOf_336933" type="ShapeOf" version="opset3">
			<data output_type="i64" />
			<input>
				<port id="0" precision="FP32">
					<dim>1</dim>
					<dim>128</dim>
					<dim>60</dim>
					<dim>60</dim>
				</port>
			</input>
			<output>
				<port id="1" precision="I64">
					<dim>4</dim>
				</port>
			</output>
		</layer>
		<layer id="224" name="ShapeOf_336934" type="ShapeOf" version="opset3">
			<data output_type="i64" />
			<input>
				<port id="0" precision="I64">
					<dim>4</dim>
				</port>
			</input>
			<output>
				<port id="1" precision="I64">
					<dim>1</dim>
				</port>
			</output>
		</layer>
		<layer id="225" name="Constant_336936" type="Const" version="opset1">
			<data element_type="i64" shape="1" offset="38936" size="8" />
			<output>
				<port id="0" precision="I64">
					<dim>1</dim>
				</port>
			</output>
		</layer>
		<layer id="226" name="Subtract_336937" type="Subtract" version="opset1">
			<data auto_broadcast="numpy" />
			<input>
				<port id="0" precision="I64">
					<dim>1</dim>
				</port>
				<port id="1" precision="I64">
					<dim>1</dim>
				</port>
			</input>
			<output>
				<port id="2" precision="I64">
					<dim>1</dim>
				</port>
			</output>
		</layer>
		<layer id="227" name="Broadcast_336938" type="Broadcast" version="opset3">
			<data mode="numpy" />
			<input>
				<port id="0" precision="I64">
					<dim>1</dim>
				</port>
				<port id="1" precision="I64">
					<dim>1</dim>
				</port>
			</input>
			<output>
				<port id="2" precision="I64">
					<dim>2</dim>
				</port>
			</output>
		</layer>
		<layer id="228" name="Concat_336943" type="Concat" version="opset1">
			<data axis="0" />
			<input>
				<port id="0" precision="I64">
					<dim>1</dim>
				</port>
				<port id="1" precision="I64">
					<dim>1</dim>
				</port>
				<port id="2" precision="I64">
					<dim>2</dim>
				</port>
			</input>
			<output>
				<port id="3" precision="I64">
					<dim>4</dim>
				</port>
			</output>
		</layer>
		<layer id="229" name="Reshape_336944" type="Reshape" version="opset1">
			<data special_zero="false" />
			<input>
				<port id="0" precision="FP32">
					<dim>128</dim>
				</port>
				<port id="1" precision="I64">
					<dim>4</dim>
				</port>
			</input>
			<output>
				<port id="2" precision="FP32">
					<dim>1</dim>
					<dim>128</dim>
					<dim>1</dim>
					<dim>1</dim>
				</port>
			</output>
		</layer>
		<layer id="230" name="/model.3/conv/Conv" type="Add" version="opset1">
			<data auto_broadcast="numpy" />
			<input>
				<port id="0" precision="FP32">
					<dim>1</dim>
					<dim>128</dim>
					<dim>60</dim>
					<dim>60</dim>
				</port>
				<port id="1" precision="FP32">
					<dim>1</dim>
					<dim>128</dim>
					<dim>1</dim>
					<dim>1</dim>
				</port>
			</input>
			<output>
				<port id="2" precision="FP32" names="/model.3/conv/Conv_output_0">
					<dim>1</dim>
					<dim>128</dim>
					<dim>60</dim>
					<dim>60</dim>
				</port>
			</output>
		</layer>
		<layer id="231" name="/model.3/act/Mul/fq_input_0/input_low" type="Const" version="opset1">
			<data element_type="f32" shape="" offset="162980" size="4" />
			<output>
				<port id="0" precision="FP32" />
			</output>
		</layer>
		<layer id="232" name="/model.3/act/Mul/fq_input_0/input_high" type="Const" version="opset1">
			<data element_type="f32" shape="" offset="162984" size="4" />
			<output>
				<port id="0" precision="FP32" />
			</output>
		</layer>
		<layer id="233" name="/model.3/act/Mul/fq_input_0/output_low" type="Const" version="opset1">
			<data element_type="f32" shape="" offset="162980" size="4" />
			<output>
				<port id="0" precision="FP32" />
			</output>
		</layer>
		<layer id="234" name="/model.3/act/Mul/fq_input_0/output_high" type="Const" version="opset1">
			<data element_type="f32" shape="" offset="162984" size="4" />
			<output>
				<port id="0" precision="FP32" />
			</output>
		</layer>
		<layer id="235" name="/model.3/act/Mul/fq_input_0" type="FakeQuantize" version="opset1">
			<data levels="256" auto_broadcast="numpy" />
			<input>
				<port id="0" precision="FP32">
					<dim>1</dim>
					<dim>128</dim>
					<dim>60</dim>
					<dim>60</dim>
				</port>
				<port id="1" precision="FP32" />
				<port id="2" precision="FP32" />
				<port id="3" precision="FP32" />
				<port id="4" precision="FP32" />
			</input>
			<output>
				<port id="5" precision="FP32">
					<dim>1</dim>
					<dim>128</dim>
					<dim>60</dim>
					<dim>60</dim>
				</port>
			</output>
		</layer>
		<layer id="236" name="/model.3/act/Sigmoid" type="Sigmoid" version="opset1">
			<input>
				<port id="0" precision="FP32">
					<dim>1</dim>
					<dim>128</dim>
					<dim>60</dim>
					<dim>60</dim>
				</port>
			</input>
			<output>
				<port id="1" precision="FP32" names="/model.3/act/Sigmoid_output_0">
					<dim>1</dim>
					<dim>128</dim>
					<dim>60</dim>
					<dim>60</dim>
				</port>
			</output>
		</layer>
		<layer id="237" name="/model.3/act/Sigmoid/fq_output_0/input_low" type="Const" version="opset1">
			<data element_type="f32" shape="" offset="37800" size="4" />
			<output>
				<port id="0" precision="FP32" />
			</output>
		</layer>
		<layer id="238" name="/model.3/act/Sigmoid/fq_output_0/input_high" type="Const" version="opset1">
			<data element_type="f32" shape="" offset="162988" size="4" />
			<output>
				<port id="0" precision="FP32" />
			</output>
		</layer>
		<layer id="239" name="/model.3/act/Sigmoid/fq_output_0/output_low" type="Const" version="opset1">
			<data element_type="f32" shape="" offset="37800" size="4" />
			<output>
				<port id="0" precision="FP32" />
			</output>
		</layer>
		<layer id="240" name="/model.3/act/Sigmoid/fq_output_0/output_high" type="Const" version="opset1">
			<data element_type="f32" shape="" offset="162988" size="4" />
			<output>
				<port id="0" precision="FP32" />
			</output>
		</layer>
		<layer id="241" name="/model.3/act/Sigmoid/fq_output_0" type="FakeQuantize" version="opset1">
			<data levels="256" auto_broadcast="numpy" />
			<input>
				<port id="0" precision="FP32">
					<dim>1</dim>
					<dim>128</dim>
					<dim>60</dim>
					<dim>60</dim>
				</port>
				<port id="1" precision="FP32" />
				<port id="2" precision="FP32" />
				<port id="3" precision="FP32" />
				<port id="4" precision="FP32" />
			</input>
			<output>
				<port id="5" precision="FP32">
					<dim>1</dim>
					<dim>128</dim>
					<dim>60</dim>
					<dim>60</dim>
				</port>
			</output>
		</layer>
		<layer id="242" name="/model.3/act/Mul" type="Multiply" version="opset1">
			<data auto_broadcast="numpy" />
			<input>
				<port id="0" precision="FP32">
					<dim>1</dim>
					<dim>128</dim>
					<dim>60</dim>
					<dim>60</dim>
				</port>
				<port id="1" precision="FP32">
					<dim>1</dim>
					<dim>128</dim>
					<dim>60</dim>
					<dim>60</dim>
				</port>
			</input>
			<output>
				<port id="2" precision="FP32" names="/model.3/act/Mul_output_0">
					<dim>1</dim>
					<dim>128</dim>
					<dim>60</dim>
					<dim>60</dim>
				</port>
			</output>
		</layer>
		<layer id="243" name="/model.3/act/Mul/fq_output_0/input_low" type="Const" version="opset1">
			<data element_type="f32" shape="" offset="162992" size="4" />
			<output>
				<port id="0" precision="FP32" />
			</output>
		</layer>
		<layer id="244" name="/model.3/act/Mul/fq_output_0/input_high" type="Const" version="opset1">
			<data element_type="f32" shape="" offset="162996" size="4" />
			<output>
				<port id="0" precision="FP32" />
			</output>
		</layer>
		<layer id="245" name="/model.3/act/Mul/fq_output_0/output_low" type="Const" version="opset1">
			<data element_type="f32" shape="" offset="162992" size="4" />
			<output>
				<port id="0" precision="FP32" />
			</output>
		</layer>
		<layer id="246" name="/model.3/act/Mul/fq_output_0/output_high" type="Const" version="opset1">
			<data element_type="f32" shape="" offset="162996" size="4" />
			<output>
				<port id="0" precision="FP32" />
			</output>
		</layer>
		<layer id="247" name="/model.3/act/Mul/fq_output_0" type="FakeQuantize" version="opset1">
			<data levels="256" auto_broadcast="numpy" />
			<input>
				<port id="0" precision="FP32">
					<dim>1</dim>
					<dim>128</dim>
					<dim>60</dim>
					<dim>60</dim>
				</port>
				<port id="1" precision="FP32" />
				<port id="2" precision="FP32" />
				<port id="3" precision="FP32" />
				<port id="4" precision="FP32" />
			</input>
			<output>
				<port id="5" precision="FP32">
					<dim>1</dim>
					<dim>128</dim>
					<dim>60</dim>
					<dim>60</dim>
				</port>
			</output>
		</layer>
		<layer id="248" name="Constant_423163" type="Const" version="opset1">
			<data element_type="i8" shape="128, 128, 1, 1" offset="163000" size="16384" />
			<output>
				<port id="0" precision="I8">
					<dim>128</dim>
					<dim>128</dim>
					<dim>1</dim>
					<dim>1</dim>
				</port>
			</output>
		</layer>
		<layer id="249" name="Convert_423164" type="Convert" version="opset1">
			<data destination_type="f32" />
			<input>
				<port id="0" precision="I8">
					<dim>128</dim>
					<dim>128</dim>
					<dim>1</dim>
					<dim>1</dim>
				</port>
			</input>
			<output>
				<port id="1" precision="FP32">
					<dim>128</dim>
					<dim>128</dim>
					<dim>1</dim>
					<dim>1</dim>
				</port>
			</output>
		</layer>
		<layer id="250" name="Constant_423165" type="Const" version="opset1">
			<data element_type="f32" shape="128, 1, 1, 1" offset="179384" size="512" />
			<output>
				<port id="0" precision="FP32">
					<dim>128</dim>
					<dim>1</dim>
					<dim>1</dim>
					<dim>1</dim>
				</port>
			</output>
		</layer>
		<layer id="251" name="/model.4/cv1/conv/Conv/WithoutBiases/fq_weights_1" type="Multiply" version="opset1">
			<data auto_broadcast="numpy" />
			<input>
				<port id="0" precision="FP32">
					<dim>128</dim>
					<dim>128</dim>
					<dim>1</dim>
					<dim>1</dim>
				</port>
				<port id="1" precision="FP32">
					<dim>128</dim>
					<dim>1</dim>
					<dim>1</dim>
					<dim>1</dim>
				</port>
			</input>
			<output>
				<port id="2" precision="FP32">
					<dim>128</dim>
					<dim>128</dim>
					<dim>1</dim>
					<dim>1</dim>
				</port>
			</output>
		</layer>
		<layer id="252" name="/model.4/cv1/conv/Conv/WithoutBiases" type="Convolution" version="opset1">
			<data strides="1, 1" dilations="1, 1" pads_begin="0, 0" pads_end="0, 0" auto_pad="explicit" />
			<input>
				<port id="0" precision="FP32">
					<dim>1</dim>
					<dim>128</dim>
					<dim>60</dim>
					<dim>60</dim>
				</port>
				<port id="1" precision="FP32">
					<dim>128</dim>
					<dim>128</dim>
					<dim>1</dim>
					<dim>1</dim>
				</port>
			</input>
			<output>
				<port id="2" precision="FP32">
					<dim>1</dim>
					<dim>128</dim>
					<dim>60</dim>
					<dim>60</dim>
				</port>
			</output>
		</layer>
		<layer id="253" name="model.4.cv1.conv.bias" type="Const" version="opset1">
			<data element_type="f32" shape="128" offset="179896" size="512" />
			<output>
				<port id="0" precision="FP32" names="model.4.cv1.conv.bias">
					<dim>128</dim>
				</port>
			</output>
		</layer>
		<layer id="254" name="Constant_336953" type="Const" version="opset1">
			<data element_type="i64" shape="1" offset="38928" size="8" />
			<output>
				<port id="0" precision="I64">
					<dim>1</dim>
				</port>
			</output>
		</layer>
		<layer id="255" name="ShapeOf_336960" type="ShapeOf" version="opset3">
			<data output_type="i64" />
			<input>
				<port id="0" precision="FP32">
					<dim>128</dim>
				</port>
			</input>
			<output>
				<port id="1" precision="I64">
					<dim>1</dim>
				</port>
			</output>
		</layer>
		<layer id="256" name="ShapeOf_336951" type="ShapeOf" version="opset3">
			<data output_type="i64" />
			<input>
				<port id="0" precision="FP32">
					<dim>1</dim>
					<dim>128</dim>
					<dim>60</dim>
					<dim>60</dim>
				</port>
			</input>
			<output>
				<port id="1" precision="I64">
					<dim>4</dim>
				</port>
			</output>
		</layer>
		<layer id="257" name="ShapeOf_336952" type="ShapeOf" version="opset3">
			<data output_type="i64" />
			<input>
				<port id="0" precision="I64">
					<dim>4</dim>
				</port>
			</input>
			<output>
				<port id="1" precision="I64">
					<dim>1</dim>
				</port>
			</output>
		</layer>
		<layer id="258" name="Constant_336954" type="Const" version="opset1">
			<data element_type="i64" shape="1" offset="38936" size="8" />
			<output>
				<port id="0" precision="I64">
					<dim>1</dim>
				</port>
			</output>
		</layer>
		<layer id="259" name="Subtract_336955" type="Subtract" version="opset1">
			<data auto_broadcast="numpy" />
			<input>
				<port id="0" precision="I64">
					<dim>1</dim>
				</port>
				<port id="1" precision="I64">
					<dim>1</dim>
				</port>
			</input>
			<output>
				<port id="2" precision="I64">
					<dim>1</dim>
				</port>
			</output>
		</layer>
		<layer id="260" name="Broadcast_336956" type="Broadcast" version="opset3">
			<data mode="numpy" />
			<input>
				<port id="0" precision="I64">
					<dim>1</dim>
				</port>
				<port id="1" precision="I64">
					<dim>1</dim>
				</port>
			</input>
			<output>
				<port id="2" precision="I64">
					<dim>2</dim>
				</port>
			</output>
		</layer>
		<layer id="261" name="Concat_336961" type="Concat" version="opset1">
			<data axis="0" />
			<input>
				<port id="0" precision="I64">
					<dim>1</dim>
				</port>
				<port id="1" precision="I64">
					<dim>1</dim>
				</port>
				<port id="2" precision="I64">
					<dim>2</dim>
				</port>
			</input>
			<output>
				<port id="3" precision="I64">
					<dim>4</dim>
				</port>
			</output>
		</layer>
		<layer id="262" name="Reshape_336962" type="Reshape" version="opset1">
			<data special_zero="false" />
			<input>
				<port id="0" precision="FP32">
					<dim>128</dim>
				</port>
				<port id="1" precision="I64">
					<dim>4</dim>
				</port>
			</input>
			<output>
				<port id="2" precision="FP32">
					<dim>1</dim>
					<dim>128</dim>
					<dim>1</dim>
					<dim>1</dim>
				</port>
			</output>
		</layer>
		<layer id="263" name="/model.4/cv1/conv/Conv" type="Add" version="opset1">
			<data auto_broadcast="numpy" />
			<input>
				<port id="0" precision="FP32">
					<dim>1</dim>
					<dim>128</dim>
					<dim>60</dim>
					<dim>60</dim>
				</port>
				<port id="1" precision="FP32">
					<dim>1</dim>
					<dim>128</dim>
					<dim>1</dim>
					<dim>1</dim>
				</port>
			</input>
			<output>
				<port id="2" precision="FP32" names="/model.4/cv1/conv/Conv_output_0">
					<dim>1</dim>
					<dim>128</dim>
					<dim>60</dim>
					<dim>60</dim>
				</port>
			</output>
		</layer>
		<layer id="264" name="/model.4/cv1/act/Mul/fq_input_0/input_low" type="Const" version="opset1">
			<data element_type="f32" shape="" offset="180408" size="4" />
			<output>
				<port id="0" precision="FP32" />
			</output>
		</layer>
		<layer id="265" name="/model.4/cv1/act/Mul/fq_input_0/input_high" type="Const" version="opset1">
			<data element_type="f32" shape="" offset="180412" size="4" />
			<output>
				<port id="0" precision="FP32" />
			</output>
		</layer>
		<layer id="266" name="/model.4/cv1/act/Mul/fq_input_0/output_low" type="Const" version="opset1">
			<data element_type="f32" shape="" offset="180408" size="4" />
			<output>
				<port id="0" precision="FP32" />
			</output>
		</layer>
		<layer id="267" name="/model.4/cv1/act/Mul/fq_input_0/output_high" type="Const" version="opset1">
			<data element_type="f32" shape="" offset="180412" size="4" />
			<output>
				<port id="0" precision="FP32" />
			</output>
		</layer>
		<layer id="268" name="/model.4/cv1/act/Mul/fq_input_0" type="FakeQuantize" version="opset1">
			<data levels="256" auto_broadcast="numpy" />
			<input>
				<port id="0" precision="FP32">
					<dim>1</dim>
					<dim>128</dim>
					<dim>60</dim>
					<dim>60</dim>
				</port>
				<port id="1" precision="FP32" />
				<port id="2" precision="FP32" />
				<port id="3" precision="FP32" />
				<port id="4" precision="FP32" />
			</input>
			<output>
				<port id="5" precision="FP32">
					<dim>1</dim>
					<dim>128</dim>
					<dim>60</dim>
					<dim>60</dim>
				</port>
			</output>
		</layer>
		<layer id="269" name="/model.4/cv1/act/Sigmoid" type="Sigmoid" version="opset1">
			<input>
				<port id="0" precision="FP32">
					<dim>1</dim>
					<dim>128</dim>
					<dim>60</dim>
					<dim>60</dim>
				</port>
			</input>
			<output>
				<port id="1" precision="FP32" names="/model.4/cv1/act/Sigmoid_output_0">
					<dim>1</dim>
					<dim>128</dim>
					<dim>60</dim>
					<dim>60</dim>
				</port>
			</output>
		</layer>
		<layer id="270" name="/model.4/cv1/act/Sigmoid/fq_output_0/input_low" type="Const" version="opset1">
			<data element_type="f32" shape="" offset="37800" size="4" />
			<output>
				<port id="0" precision="FP32" />
			</output>
		</layer>
		<layer id="271" name="/model.4/cv1/act/Sigmoid/fq_output_0/input_high" type="Const" version="opset1">
			<data element_type="f32" shape="" offset="180416" size="4" />
			<output>
				<port id="0" precision="FP32" />
			</output>
		</layer>
		<layer id="272" name="/model.4/cv1/act/Sigmoid/fq_output_0/output_low" type="Const" version="opset1">
			<data element_type="f32" shape="" offset="37800" size="4" />
			<output>
				<port id="0" precision="FP32" />
			</output>
		</layer>
		<layer id="273" name="/model.4/cv1/act/Sigmoid/fq_output_0/output_high" type="Const" version="opset1">
			<data element_type="f32" shape="" offset="180416" size="4" />
			<output>
				<port id="0" precision="FP32" />
			</output>
		</layer>
		<layer id="274" name="/model.4/cv1/act/Sigmoid/fq_output_0" type="FakeQuantize" version="opset1">
			<data levels="256" auto_broadcast="numpy" />
			<input>
				<port id="0" precision="FP32">
					<dim>1</dim>
					<dim>128</dim>
					<dim>60</dim>
					<dim>60</dim>
				</port>
				<port id="1" precision="FP32" />
				<port id="2" precision="FP32" />
				<port id="3" precision="FP32" />
				<port id="4" precision="FP32" />
			</input>
			<output>
				<port id="5" precision="FP32">
					<dim>1</dim>
					<dim>128</dim>
					<dim>60</dim>
					<dim>60</dim>
				</port>
			</output>
		</layer>
		<layer id="275" name="/model.4/cv1/act/Mul" type="Multiply" version="opset1">
			<data auto_broadcast="numpy" />
			<input>
				<port id="0" precision="FP32">
					<dim>1</dim>
					<dim>128</dim>
					<dim>60</dim>
					<dim>60</dim>
				</port>
				<port id="1" precision="FP32">
					<dim>1</dim>
					<dim>128</dim>
					<dim>60</dim>
					<dim>60</dim>
				</port>
			</input>
			<output>
				<port id="2" precision="FP32" names="/model.4/cv1/act/Mul_output_0">
					<dim>1</dim>
					<dim>128</dim>
					<dim>60</dim>
					<dim>60</dim>
				</port>
			</output>
		</layer>
		<layer id="276" name="/model.4/cv1/act/Mul/fq_output_0/input_low" type="Const" version="opset1">
			<data element_type="f32" shape="" offset="180420" size="4" />
			<output>
				<port id="0" precision="FP32" />
			</output>
		</layer>
		<layer id="277" name="/model.4/cv1/act/Mul/fq_output_0/input_high" type="Const" version="opset1">
			<data element_type="f32" shape="" offset="180424" size="4" />
			<output>
				<port id="0" precision="FP32" />
			</output>
		</layer>
		<layer id="278" name="/model.4/cv1/act/Mul/fq_output_0/output_low" type="Const" version="opset1">
			<data element_type="f32" shape="" offset="180420" size="4" />
			<output>
				<port id="0" precision="FP32" />
			</output>
		</layer>
		<layer id="279" name="/model.4/cv1/act/Mul/fq_output_0/output_high" type="Const" version="opset1">
			<data element_type="f32" shape="" offset="180424" size="4" />
			<output>
				<port id="0" precision="FP32" />
			</output>
		</layer>
		<layer id="280" name="/model.4/cv1/act/Mul/fq_output_0" type="FakeQuantize" version="opset1">
			<data levels="256" auto_broadcast="numpy" />
			<input>
				<port id="0" precision="FP32">
					<dim>1</dim>
					<dim>128</dim>
					<dim>60</dim>
					<dim>60</dim>
				</port>
				<port id="1" precision="FP32" />
				<port id="2" precision="FP32" />
				<port id="3" precision="FP32" />
				<port id="4" precision="FP32" />
			</input>
			<output>
				<port id="5" precision="FP32">
					<dim>1</dim>
					<dim>128</dim>
					<dim>60</dim>
					<dim>60</dim>
				</port>
			</output>
		</layer>
		<layer id="281" name="Constant_336969" type="Const" version="opset1">
			<data element_type="i64" shape="" offset="38928" size="8" />
			<output>
				<port id="0" precision="I64" />
			</output>
		</layer>
		<layer id="282" name="Constant_28" type="Const" version="opset1">
			<data element_type="i64" shape="2" offset="180428" size="16" />
			<output>
				<port id="0" precision="I64" names="onnx::Split_250">
					<dim>2</dim>
				</port>
			</output>
		</layer>
		<layer id="283" name="/model.4/Split" type="VariadicSplit" version="opset1">
			<input>
				<port id="0" precision="FP32">
					<dim>1</dim>
					<dim>128</dim>
					<dim>60</dim>
					<dim>60</dim>
				</port>
				<port id="1" precision="I64" />
				<port id="2" precision="I64">
					<dim>2</dim>
				</port>
			</input>
			<output>
				<port id="3" precision="FP32" names="/model.4/Split_output_0">
					<dim>1</dim>
					<dim>64</dim>
					<dim>60</dim>
					<dim>60</dim>
				</port>
				<port id="4" precision="FP32" names="/model.4/Split_output_1">
					<dim>1</dim>
					<dim>64</dim>
					<dim>60</dim>
					<dim>60</dim>
				</port>
			</output>
		</layer>
		<layer id="284" name="Constant_423167" type="Const" version="opset1">
			<data element_type="i8" shape="64, 64, 3, 3" offset="180444" size="36864" />
			<output>
				<port id="0" precision="I8">
					<dim>64</dim>
					<dim>64</dim>
					<dim>3</dim>
					<dim>3</dim>
				</port>
			</output>
		</layer>
		<layer id="285" name="Convert_423168" type="Convert" version="opset1">
			<data destination_type="f32" />
			<input>
				<port id="0" precision="I8">
					<dim>64</dim>
					<dim>64</dim>
					<dim>3</dim>
					<dim>3</dim>
				</port>
			</input>
			<output>
				<port id="1" precision="FP32">
					<dim>64</dim>
					<dim>64</dim>
					<dim>3</dim>
					<dim>3</dim>
				</port>
			</output>
		</layer>
		<layer id="286" name="Constant_423169" type="Const" version="opset1">
			<data element_type="f32" shape="64, 1, 1, 1" offset="217308" size="256" />
			<output>
				<port id="0" precision="FP32">
					<dim>64</dim>
					<dim>1</dim>
					<dim>1</dim>
					<dim>1</dim>
				</port>
			</output>
		</layer>
		<layer id="287" name="/model.4/m.0/cv1/conv/Conv/WithoutBiases/fq_weights_1" type="Multiply" version="opset1">
			<data auto_broadcast="numpy" />
			<input>
				<port id="0" precision="FP32">
					<dim>64</dim>
					<dim>64</dim>
					<dim>3</dim>
					<dim>3</dim>
				</port>
				<port id="1" precision="FP32">
					<dim>64</dim>
					<dim>1</dim>
					<dim>1</dim>
					<dim>1</dim>
				</port>
			</input>
			<output>
				<port id="2" precision="FP32">
					<dim>64</dim>
					<dim>64</dim>
					<dim>3</dim>
					<dim>3</dim>
				</port>
			</output>
		</layer>
		<layer id="288" name="/model.4/m.0/cv1/conv/Conv/WithoutBiases" type="Convolution" version="opset1">
			<data strides="1, 1" dilations="1, 1" pads_begin="1, 1" pads_end="1, 1" auto_pad="explicit" />
			<input>
				<port id="0" precision="FP32">
					<dim>1</dim>
					<dim>64</dim>
					<dim>60</dim>
					<dim>60</dim>
				</port>
				<port id="1" precision="FP32">
					<dim>64</dim>
					<dim>64</dim>
					<dim>3</dim>
					<dim>3</dim>
				</port>
			</input>
			<output>
				<port id="2" precision="FP32">
					<dim>1</dim>
					<dim>64</dim>
					<dim>60</dim>
					<dim>60</dim>
				</port>
			</output>
		</layer>
		<layer id="289" name="model.4.m.0.cv1.conv.bias" type="Const" version="opset1">
			<data element_type="f32" shape="64" offset="217564" size="256" />
			<output>
				<port id="0" precision="FP32" names="model.4.m.0.cv1.conv.bias">
					<dim>64</dim>
				</port>
			</output>
		</layer>
		<layer id="290" name="Constant_336974" type="Const" version="opset1">
			<data element_type="i64" shape="1" offset="38928" size="8" />
			<output>
				<port id="0" precision="I64">
					<dim>1</dim>
				</port>
			</output>
		</layer>
		<layer id="291" name="ShapeOf_336981" type="ShapeOf" version="opset3">
			<data output_type="i64" />
			<input>
				<port id="0" precision="FP32">
					<dim>64</dim>
				</port>
			</input>
			<output>
				<port id="1" precision="I64">
					<dim>1</dim>
				</port>
			</output>
		</layer>
		<layer id="292" name="ShapeOf_336972" type="ShapeOf" version="opset3">
			<data output_type="i64" />
			<input>
				<port id="0" precision="FP32">
					<dim>1</dim>
					<dim>64</dim>
					<dim>60</dim>
					<dim>60</dim>
				</port>
			</input>
			<output>
				<port id="1" precision="I64">
					<dim>4</dim>
				</port>
			</output>
		</layer>
		<layer id="293" name="ShapeOf_336973" type="ShapeOf" version="opset3">
			<data output_type="i64" />
			<input>
				<port id="0" precision="I64">
					<dim>4</dim>
				</port>
			</input>
			<output>
				<port id="1" precision="I64">
					<dim>1</dim>
				</port>
			</output>
		</layer>
		<layer id="294" name="Constant_336975" type="Const" version="opset1">
			<data element_type="i64" shape="1" offset="38936" size="8" />
			<output>
				<port id="0" precision="I64">
					<dim>1</dim>
				</port>
			</output>
		</layer>
		<layer id="295" name="Subtract_336976" type="Subtract" version="opset1">
			<data auto_broadcast="numpy" />
			<input>
				<port id="0" precision="I64">
					<dim>1</dim>
				</port>
				<port id="1" precision="I64">
					<dim>1</dim>
				</port>
			</input>
			<output>
				<port id="2" precision="I64">
					<dim>1</dim>
				</port>
			</output>
		</layer>
		<layer id="296" name="Broadcast_336977" type="Broadcast" version="opset3">
			<data mode="numpy" />
			<input>
				<port id="0" precision="I64">
					<dim>1</dim>
				</port>
				<port id="1" precision="I64">
					<dim>1</dim>
				</port>
			</input>
			<output>
				<port id="2" precision="I64">
					<dim>2</dim>
				</port>
			</output>
		</layer>
		<layer id="297" name="Concat_336982" type="Concat" version="opset1">
			<data axis="0" />
			<input>
				<port id="0" precision="I64">
					<dim>1</dim>
				</port>
				<port id="1" precision="I64">
					<dim>1</dim>
				</port>
				<port id="2" precision="I64">
					<dim>2</dim>
				</port>
			</input>
			<output>
				<port id="3" precision="I64">
					<dim>4</dim>
				</port>
			</output>
		</layer>
		<layer id="298" name="Reshape_336983" type="Reshape" version="opset1">
			<data special_zero="false" />
			<input>
				<port id="0" precision="FP32">
					<dim>64</dim>
				</port>
				<port id="1" precision="I64">
					<dim>4</dim>
				</port>
			</input>
			<output>
				<port id="2" precision="FP32">
					<dim>1</dim>
					<dim>64</dim>
					<dim>1</dim>
					<dim>1</dim>
				</port>
			</output>
		</layer>
		<layer id="299" name="/model.4/m.0/cv1/conv/Conv" type="Add" version="opset1">
			<data auto_broadcast="numpy" />
			<input>
				<port id="0" precision="FP32">
					<dim>1</dim>
					<dim>64</dim>
					<dim>60</dim>
					<dim>60</dim>
				</port>
				<port id="1" precision="FP32">
					<dim>1</dim>
					<dim>64</dim>
					<dim>1</dim>
					<dim>1</dim>
				</port>
			</input>
			<output>
				<port id="2" precision="FP32" names="/model.4/m.0/cv1/conv/Conv_output_0">
					<dim>1</dim>
					<dim>64</dim>
					<dim>60</dim>
					<dim>60</dim>
				</port>
			</output>
		</layer>
		<layer id="300" name="/model.4/m.0/cv1/act/Mul/fq_input_0/input_low" type="Const" version="opset1">
			<data element_type="f32" shape="" offset="217820" size="4" />
			<output>
				<port id="0" precision="FP32" />
			</output>
		</layer>
		<layer id="301" name="/model.4/m.0/cv1/act/Mul/fq_input_0/input_high" type="Const" version="opset1">
			<data element_type="f32" shape="" offset="217824" size="4" />
			<output>
				<port id="0" precision="FP32" />
			</output>
		</layer>
		<layer id="302" name="/model.4/m.0/cv1/act/Mul/fq_input_0/output_low" type="Const" version="opset1">
			<data element_type="f32" shape="" offset="217820" size="4" />
			<output>
				<port id="0" precision="FP32" />
			</output>
		</layer>
		<layer id="303" name="/model.4/m.0/cv1/act/Mul/fq_input_0/output_high" type="Const" version="opset1">
			<data element_type="f32" shape="" offset="217824" size="4" />
			<output>
				<port id="0" precision="FP32" />
			</output>
		</layer>
		<layer id="304" name="/model.4/m.0/cv1/act/Mul/fq_input_0" type="FakeQuantize" version="opset1">
			<data levels="256" auto_broadcast="numpy" />
			<input>
				<port id="0" precision="FP32">
					<dim>1</dim>
					<dim>64</dim>
					<dim>60</dim>
					<dim>60</dim>
				</port>
				<port id="1" precision="FP32" />
				<port id="2" precision="FP32" />
				<port id="3" precision="FP32" />
				<port id="4" precision="FP32" />
			</input>
			<output>
				<port id="5" precision="FP32">
					<dim>1</dim>
					<dim>64</dim>
					<dim>60</dim>
					<dim>60</dim>
				</port>
			</output>
		</layer>
		<layer id="305" name="/model.4/m.0/cv1/act/Sigmoid" type="Sigmoid" version="opset1">
			<input>
				<port id="0" precision="FP32">
					<dim>1</dim>
					<dim>64</dim>
					<dim>60</dim>
					<dim>60</dim>
				</port>
			</input>
			<output>
				<port id="1" precision="FP32" names="/model.4/m.0/cv1/act/Sigmoid_output_0">
					<dim>1</dim>
					<dim>64</dim>
					<dim>60</dim>
					<dim>60</dim>
				</port>
			</output>
		</layer>
		<layer id="306" name="/model.4/m.0/cv1/act/Sigmoid/fq_output_0/input_low" type="Const" version="opset1">
			<data element_type="f32" shape="" offset="37800" size="4" />
			<output>
				<port id="0" precision="FP32" />
			</output>
		</layer>
		<layer id="307" name="/model.4/m.0/cv1/act/Sigmoid/fq_output_0/input_high" type="Const" version="opset1">
			<data element_type="f32" shape="" offset="217828" size="4" />
			<output>
				<port id="0" precision="FP32" />
			</output>
		</layer>
		<layer id="308" name="/model.4/m.0/cv1/act/Sigmoid/fq_output_0/output_low" type="Const" version="opset1">
			<data element_type="f32" shape="" offset="37800" size="4" />
			<output>
				<port id="0" precision="FP32" />
			</output>
		</layer>
		<layer id="309" name="/model.4/m.0/cv1/act/Sigmoid/fq_output_0/output_high" type="Const" version="opset1">
			<data element_type="f32" shape="" offset="217828" size="4" />
			<output>
				<port id="0" precision="FP32" />
			</output>
		</layer>
		<layer id="310" name="/model.4/m.0/cv1/act/Sigmoid/fq_output_0" type="FakeQuantize" version="opset1">
			<data levels="256" auto_broadcast="numpy" />
			<input>
				<port id="0" precision="FP32">
					<dim>1</dim>
					<dim>64</dim>
					<dim>60</dim>
					<dim>60</dim>
				</port>
				<port id="1" precision="FP32" />
				<port id="2" precision="FP32" />
				<port id="3" precision="FP32" />
				<port id="4" precision="FP32" />
			</input>
			<output>
				<port id="5" precision="FP32">
					<dim>1</dim>
					<dim>64</dim>
					<dim>60</dim>
					<dim>60</dim>
				</port>
			</output>
		</layer>
		<layer id="311" name="/model.4/m.0/cv1/act/Mul" type="Multiply" version="opset1">
			<data auto_broadcast="numpy" />
			<input>
				<port id="0" precision="FP32">
					<dim>1</dim>
					<dim>64</dim>
					<dim>60</dim>
					<dim>60</dim>
				</port>
				<port id="1" precision="FP32">
					<dim>1</dim>
					<dim>64</dim>
					<dim>60</dim>
					<dim>60</dim>
				</port>
			</input>
			<output>
				<port id="2" precision="FP32" names="/model.4/m.0/cv1/act/Mul_output_0">
					<dim>1</dim>
					<dim>64</dim>
					<dim>60</dim>
					<dim>60</dim>
				</port>
			</output>
		</layer>
		<layer id="312" name="/model.4/m.0/cv1/act/Mul/fq_output_0/input_low" type="Const" version="opset1">
			<data element_type="f32" shape="" offset="217832" size="4" />
			<output>
				<port id="0" precision="FP32" />
			</output>
		</layer>
		<layer id="313" name="/model.4/m.0/cv1/act/Mul/fq_output_0/input_high" type="Const" version="opset1">
			<data element_type="f32" shape="" offset="217836" size="4" />
			<output>
				<port id="0" precision="FP32" />
			</output>
		</layer>
		<layer id="314" name="/model.4/m.0/cv1/act/Mul/fq_output_0/output_low" type="Const" version="opset1">
			<data element_type="f32" shape="" offset="217832" size="4" />
			<output>
				<port id="0" precision="FP32" />
			</output>
		</layer>
		<layer id="315" name="/model.4/m.0/cv1/act/Mul/fq_output_0/output_high" type="Const" version="opset1">
			<data element_type="f32" shape="" offset="217836" size="4" />
			<output>
				<port id="0" precision="FP32" />
			</output>
		</layer>
		<layer id="316" name="/model.4/m.0/cv1/act/Mul/fq_output_0" type="FakeQuantize" version="opset1">
			<data levels="256" auto_broadcast="numpy" />
			<input>
				<port id="0" precision="FP32">
					<dim>1</dim>
					<dim>64</dim>
					<dim>60</dim>
					<dim>60</dim>
				</port>
				<port id="1" precision="FP32" />
				<port id="2" precision="FP32" />
				<port id="3" precision="FP32" />
				<port id="4" precision="FP32" />
			</input>
			<output>
				<port id="5" precision="FP32">
					<dim>1</dim>
					<dim>64</dim>
					<dim>60</dim>
					<dim>60</dim>
				</port>
			</output>
		</layer>
		<layer id="317" name="Constant_423171" type="Const" version="opset1">
			<data element_type="i8" shape="64, 64, 3, 3" offset="217840" size="36864" />
			<output>
				<port id="0" precision="I8">
					<dim>64</dim>
					<dim>64</dim>
					<dim>3</dim>
					<dim>3</dim>
				</port>
			</output>
		</layer>
		<layer id="318" name="Convert_423172" type="Convert" version="opset1">
			<data destination_type="f32" />
			<input>
				<port id="0" precision="I8">
					<dim>64</dim>
					<dim>64</dim>
					<dim>3</dim>
					<dim>3</dim>
				</port>
			</input>
			<output>
				<port id="1" precision="FP32">
					<dim>64</dim>
					<dim>64</dim>
					<dim>3</dim>
					<dim>3</dim>
				</port>
			</output>
		</layer>
		<layer id="319" name="Constant_423173" type="Const" version="opset1">
			<data element_type="f32" shape="64, 1, 1, 1" offset="254704" size="256" />
			<output>
				<port id="0" precision="FP32">
					<dim>64</dim>
					<dim>1</dim>
					<dim>1</dim>
					<dim>1</dim>
				</port>
			</output>
		</layer>
		<layer id="320" name="/model.4/m.0/cv2/conv/Conv/WithoutBiases/fq_weights_1" type="Multiply" version="opset1">
			<data auto_broadcast="numpy" />
			<input>
				<port id="0" precision="FP32">
					<dim>64</dim>
					<dim>64</dim>
					<dim>3</dim>
					<dim>3</dim>
				</port>
				<port id="1" precision="FP32">
					<dim>64</dim>
					<dim>1</dim>
					<dim>1</dim>
					<dim>1</dim>
				</port>
			</input>
			<output>
				<port id="2" precision="FP32">
					<dim>64</dim>
					<dim>64</dim>
					<dim>3</dim>
					<dim>3</dim>
				</port>
			</output>
		</layer>
		<layer id="321" name="/model.4/m.0/cv2/conv/Conv/WithoutBiases" type="Convolution" version="opset1">
			<data strides="1, 1" dilations="1, 1" pads_begin="1, 1" pads_end="1, 1" auto_pad="explicit" />
			<input>
				<port id="0" precision="FP32">
					<dim>1</dim>
					<dim>64</dim>
					<dim>60</dim>
					<dim>60</dim>
				</port>
				<port id="1" precision="FP32">
					<dim>64</dim>
					<dim>64</dim>
					<dim>3</dim>
					<dim>3</dim>
				</port>
			</input>
			<output>
				<port id="2" precision="FP32">
					<dim>1</dim>
					<dim>64</dim>
					<dim>60</dim>
					<dim>60</dim>
				</port>
			</output>
		</layer>
		<layer id="322" name="model.4.m.0.cv2.conv.bias" type="Const" version="opset1">
			<data element_type="f32" shape="64" offset="254960" size="256" />
			<output>
				<port id="0" precision="FP32" names="model.4.m.0.cv2.conv.bias">
					<dim>64</dim>
				</port>
			</output>
		</layer>
		<layer id="323" name="Constant_336992" type="Const" version="opset1">
			<data element_type="i64" shape="1" offset="38928" size="8" />
			<output>
				<port id="0" precision="I64">
					<dim>1</dim>
				</port>
			</output>
		</layer>
		<layer id="324" name="ShapeOf_336999" type="ShapeOf" version="opset3">
			<data output_type="i64" />
			<input>
				<port id="0" precision="FP32">
					<dim>64</dim>
				</port>
			</input>
			<output>
				<port id="1" precision="I64">
					<dim>1</dim>
				</port>
			</output>
		</layer>
		<layer id="325" name="ShapeOf_336990" type="ShapeOf" version="opset3">
			<data output_type="i64" />
			<input>
				<port id="0" precision="FP32">
					<dim>1</dim>
					<dim>64</dim>
					<dim>60</dim>
					<dim>60</dim>
				</port>
			</input>
			<output>
				<port id="1" precision="I64">
					<dim>4</dim>
				</port>
			</output>
		</layer>
		<layer id="326" name="ShapeOf_336991" type="ShapeOf" version="opset3">
			<data output_type="i64" />
			<input>
				<port id="0" precision="I64">
					<dim>4</dim>
				</port>
			</input>
			<output>
				<port id="1" precision="I64">
					<dim>1</dim>
				</port>
			</output>
		</layer>
		<layer id="327" name="Constant_336993" type="Const" version="opset1">
			<data element_type="i64" shape="1" offset="38936" size="8" />
			<output>
				<port id="0" precision="I64">
					<dim>1</dim>
				</port>
			</output>
		</layer>
		<layer id="328" name="Subtract_336994" type="Subtract" version="opset1">
			<data auto_broadcast="numpy" />
			<input>
				<port id="0" precision="I64">
					<dim>1</dim>
				</port>
				<port id="1" precision="I64">
					<dim>1</dim>
				</port>
			</input>
			<output>
				<port id="2" precision="I64">
					<dim>1</dim>
				</port>
			</output>
		</layer>
		<layer id="329" name="Broadcast_336995" type="Broadcast" version="opset3">
			<data mode="numpy" />
			<input>
				<port id="0" precision="I64">
					<dim>1</dim>
				</port>
				<port id="1" precision="I64">
					<dim>1</dim>
				</port>
			</input>
			<output>
				<port id="2" precision="I64">
					<dim>2</dim>
				</port>
			</output>
		</layer>
		<layer id="330" name="Concat_337000" type="Concat" version="opset1">
			<data axis="0" />
			<input>
				<port id="0" precision="I64">
					<dim>1</dim>
				</port>
				<port id="1" precision="I64">
					<dim>1</dim>
				</port>
				<port id="2" precision="I64">
					<dim>2</dim>
				</port>
			</input>
			<output>
				<port id="3" precision="I64">
					<dim>4</dim>
				</port>
			</output>
		</layer>
		<layer id="331" name="Reshape_337001" type="Reshape" version="opset1">
			<data special_zero="false" />
			<input>
				<port id="0" precision="FP32">
					<dim>64</dim>
				</port>
				<port id="1" precision="I64">
					<dim>4</dim>
				</port>
			</input>
			<output>
				<port id="2" precision="FP32">
					<dim>1</dim>
					<dim>64</dim>
					<dim>1</dim>
					<dim>1</dim>
				</port>
			</output>
		</layer>
		<layer id="332" name="/model.4/m.0/cv2/conv/Conv" type="Add" version="opset1">
			<data auto_broadcast="numpy" />
			<input>
				<port id="0" precision="FP32">
					<dim>1</dim>
					<dim>64</dim>
					<dim>60</dim>
					<dim>60</dim>
				</port>
				<port id="1" precision="FP32">
					<dim>1</dim>
					<dim>64</dim>
					<dim>1</dim>
					<dim>1</dim>
				</port>
			</input>
			<output>
				<port id="2" precision="FP32" names="/model.4/m.0/cv2/conv/Conv_output_0">
					<dim>1</dim>
					<dim>64</dim>
					<dim>60</dim>
					<dim>60</dim>
				</port>
			</output>
		</layer>
		<layer id="333" name="/model.4/m.0/cv2/act/Mul/fq_input_0/input_low" type="Const" version="opset1">
			<data element_type="f32" shape="" offset="255216" size="4" />
			<output>
				<port id="0" precision="FP32" />
			</output>
		</layer>
		<layer id="334" name="/model.4/m.0/cv2/act/Mul/fq_input_0/input_high" type="Const" version="opset1">
			<data element_type="f32" shape="" offset="255220" size="4" />
			<output>
				<port id="0" precision="FP32" />
			</output>
		</layer>
		<layer id="335" name="/model.4/m.0/cv2/act/Mul/fq_input_0/output_low" type="Const" version="opset1">
			<data element_type="f32" shape="" offset="255216" size="4" />
			<output>
				<port id="0" precision="FP32" />
			</output>
		</layer>
		<layer id="336" name="/model.4/m.0/cv2/act/Mul/fq_input_0/output_high" type="Const" version="opset1">
			<data element_type="f32" shape="" offset="255220" size="4" />
			<output>
				<port id="0" precision="FP32" />
			</output>
		</layer>
		<layer id="337" name="/model.4/m.0/cv2/act/Mul/fq_input_0" type="FakeQuantize" version="opset1">
			<data levels="256" auto_broadcast="numpy" />
			<input>
				<port id="0" precision="FP32">
					<dim>1</dim>
					<dim>64</dim>
					<dim>60</dim>
					<dim>60</dim>
				</port>
				<port id="1" precision="FP32" />
				<port id="2" precision="FP32" />
				<port id="3" precision="FP32" />
				<port id="4" precision="FP32" />
			</input>
			<output>
				<port id="5" precision="FP32">
					<dim>1</dim>
					<dim>64</dim>
					<dim>60</dim>
					<dim>60</dim>
				</port>
			</output>
		</layer>
		<layer id="338" name="/model.4/m.0/cv2/act/Sigmoid" type="Sigmoid" version="opset1">
			<input>
				<port id="0" precision="FP32">
					<dim>1</dim>
					<dim>64</dim>
					<dim>60</dim>
					<dim>60</dim>
				</port>
			</input>
			<output>
				<port id="1" precision="FP32" names="/model.4/m.0/cv2/act/Sigmoid_output_0">
					<dim>1</dim>
					<dim>64</dim>
					<dim>60</dim>
					<dim>60</dim>
				</port>
			</output>
		</layer>
		<layer id="339" name="/model.4/m.0/cv2/act/Sigmoid/fq_output_0/input_low" type="Const" version="opset1">
			<data element_type="f32" shape="" offset="37800" size="4" />
			<output>
				<port id="0" precision="FP32" />
			</output>
		</layer>
		<layer id="340" name="/model.4/m.0/cv2/act/Sigmoid/fq_output_0/input_high" type="Const" version="opset1">
			<data element_type="f32" shape="" offset="255224" size="4" />
			<output>
				<port id="0" precision="FP32" />
			</output>
		</layer>
		<layer id="341" name="/model.4/m.0/cv2/act/Sigmoid/fq_output_0/output_low" type="Const" version="opset1">
			<data element_type="f32" shape="" offset="37800" size="4" />
			<output>
				<port id="0" precision="FP32" />
			</output>
		</layer>
		<layer id="342" name="/model.4/m.0/cv2/act/Sigmoid/fq_output_0/output_high" type="Const" version="opset1">
			<data element_type="f32" shape="" offset="255224" size="4" />
			<output>
				<port id="0" precision="FP32" />
			</output>
		</layer>
		<layer id="343" name="/model.4/m.0/cv2/act/Sigmoid/fq_output_0" type="FakeQuantize" version="opset1">
			<data levels="256" auto_broadcast="numpy" />
			<input>
				<port id="0" precision="FP32">
					<dim>1</dim>
					<dim>64</dim>
					<dim>60</dim>
					<dim>60</dim>
				</port>
				<port id="1" precision="FP32" />
				<port id="2" precision="FP32" />
				<port id="3" precision="FP32" />
				<port id="4" precision="FP32" />
			</input>
			<output>
				<port id="5" precision="FP32">
					<dim>1</dim>
					<dim>64</dim>
					<dim>60</dim>
					<dim>60</dim>
				</port>
			</output>
		</layer>
		<layer id="344" name="/model.4/m.0/cv2/act/Mul" type="Multiply" version="opset1">
			<data auto_broadcast="numpy" />
			<input>
				<port id="0" precision="FP32">
					<dim>1</dim>
					<dim>64</dim>
					<dim>60</dim>
					<dim>60</dim>
				</port>
				<port id="1" precision="FP32">
					<dim>1</dim>
					<dim>64</dim>
					<dim>60</dim>
					<dim>60</dim>
				</port>
			</input>
			<output>
				<port id="2" precision="FP32" names="/model.4/m.0/cv2/act/Mul_output_0">
					<dim>1</dim>
					<dim>64</dim>
					<dim>60</dim>
					<dim>60</dim>
				</port>
			</output>
		</layer>
		<layer id="345" name="/model.4/m.0/cv2/act/Mul/fq_output_0/input_low" type="Const" version="opset1">
			<data element_type="f32" shape="" offset="255228" size="4" />
			<output>
				<port id="0" precision="FP32" />
			</output>
		</layer>
		<layer id="346" name="/model.4/m.0/cv2/act/Mul/fq_output_0/input_high" type="Const" version="opset1">
			<data element_type="f32" shape="" offset="255232" size="4" />
			<output>
				<port id="0" precision="FP32" />
			</output>
		</layer>
		<layer id="347" name="/model.4/m.0/cv2/act/Mul/fq_output_0/output_low" type="Const" version="opset1">
			<data element_type="f32" shape="" offset="255228" size="4" />
			<output>
				<port id="0" precision="FP32" />
			</output>
		</layer>
		<layer id="348" name="/model.4/m.0/cv2/act/Mul/fq_output_0/output_high" type="Const" version="opset1">
			<data element_type="f32" shape="" offset="255232" size="4" />
			<output>
				<port id="0" precision="FP32" />
			</output>
		</layer>
		<layer id="349" name="/model.4/m.0/cv2/act/Mul/fq_output_0" type="FakeQuantize" version="opset1">
			<data levels="256" auto_broadcast="numpy" />
			<input>
				<port id="0" precision="FP32">
					<dim>1</dim>
					<dim>64</dim>
					<dim>60</dim>
					<dim>60</dim>
				</port>
				<port id="1" precision="FP32" />
				<port id="2" precision="FP32" />
				<port id="3" precision="FP32" />
				<port id="4" precision="FP32" />
			</input>
			<output>
				<port id="5" precision="FP32">
					<dim>1</dim>
					<dim>64</dim>
					<dim>60</dim>
					<dim>60</dim>
				</port>
			</output>
		</layer>
		<layer id="350" name="/model.4/m.0/Add" type="Add" version="opset1">
			<data auto_broadcast="numpy" />
			<input>
				<port id="0" precision="FP32">
					<dim>1</dim>
					<dim>64</dim>
					<dim>60</dim>
					<dim>60</dim>
				</port>
				<port id="1" precision="FP32">
					<dim>1</dim>
					<dim>64</dim>
					<dim>60</dim>
					<dim>60</dim>
				</port>
			</input>
			<output>
				<port id="2" precision="FP32" names="/model.4/m.0/Add_output_0">
					<dim>1</dim>
					<dim>64</dim>
					<dim>60</dim>
					<dim>60</dim>
				</port>
			</output>
		</layer>
		<layer id="351" name="/model.4/m.0/Add/fq_output_0/input_low" type="Const" version="opset1">
			<data element_type="f32" shape="" offset="180420" size="4" />
			<output>
				<port id="0" precision="FP32" />
			</output>
		</layer>
		<layer id="352" name="/model.4/m.0/Add/fq_output_0/input_high" type="Const" version="opset1">
			<data element_type="f32" shape="" offset="180424" size="4" />
			<output>
				<port id="0" precision="FP32" />
			</output>
		</layer>
		<layer id="353" name="/model.4/m.0/Add/fq_output_0/output_low" type="Const" version="opset1">
			<data element_type="f32" shape="" offset="180420" size="4" />
			<output>
				<port id="0" precision="FP32" />
			</output>
		</layer>
		<layer id="354" name="/model.4/m.0/Add/fq_output_0/output_high" type="Const" version="opset1">
			<data element_type="f32" shape="" offset="180424" size="4" />
			<output>
				<port id="0" precision="FP32" />
			</output>
		</layer>
		<layer id="355" name="/model.4/m.0/Add/fq_output_0" type="FakeQuantize" version="opset1">
			<data levels="256" auto_broadcast="numpy" />
			<input>
				<port id="0" precision="FP32">
					<dim>1</dim>
					<dim>64</dim>
					<dim>60</dim>
					<dim>60</dim>
				</port>
				<port id="1" precision="FP32" />
				<port id="2" precision="FP32" />
				<port id="3" precision="FP32" />
				<port id="4" precision="FP32" />
			</input>
			<output>
				<port id="5" precision="FP32">
					<dim>1</dim>
					<dim>64</dim>
					<dim>60</dim>
					<dim>60</dim>
				</port>
			</output>
		</layer>
		<layer id="356" name="Constant_423175" type="Const" version="opset1">
			<data element_type="i8" shape="64, 64, 3, 3" offset="255236" size="36864" />
			<output>
				<port id="0" precision="I8">
					<dim>64</dim>
					<dim>64</dim>
					<dim>3</dim>
					<dim>3</dim>
				</port>
			</output>
		</layer>
		<layer id="357" name="Convert_423176" type="Convert" version="opset1">
			<data destination_type="f32" />
			<input>
				<port id="0" precision="I8">
					<dim>64</dim>
					<dim>64</dim>
					<dim>3</dim>
					<dim>3</dim>
				</port>
			</input>
			<output>
				<port id="1" precision="FP32">
					<dim>64</dim>
					<dim>64</dim>
					<dim>3</dim>
					<dim>3</dim>
				</port>
			</output>
		</layer>
		<layer id="358" name="Constant_423177" type="Const" version="opset1">
			<data element_type="f32" shape="64, 1, 1, 1" offset="292100" size="256" />
			<output>
				<port id="0" precision="FP32">
					<dim>64</dim>
					<dim>1</dim>
					<dim>1</dim>
					<dim>1</dim>
				</port>
			</output>
		</layer>
		<layer id="359" name="/model.4/m.1/cv1/conv/Conv/WithoutBiases/fq_weights_1" type="Multiply" version="opset1">
			<data auto_broadcast="numpy" />
			<input>
				<port id="0" precision="FP32">
					<dim>64</dim>
					<dim>64</dim>
					<dim>3</dim>
					<dim>3</dim>
				</port>
				<port id="1" precision="FP32">
					<dim>64</dim>
					<dim>1</dim>
					<dim>1</dim>
					<dim>1</dim>
				</port>
			</input>
			<output>
				<port id="2" precision="FP32">
					<dim>64</dim>
					<dim>64</dim>
					<dim>3</dim>
					<dim>3</dim>
				</port>
			</output>
		</layer>
		<layer id="360" name="/model.4/m.1/cv1/conv/Conv/WithoutBiases" type="Convolution" version="opset1">
			<data strides="1, 1" dilations="1, 1" pads_begin="1, 1" pads_end="1, 1" auto_pad="explicit" />
			<input>
				<port id="0" precision="FP32">
					<dim>1</dim>
					<dim>64</dim>
					<dim>60</dim>
					<dim>60</dim>
				</port>
				<port id="1" precision="FP32">
					<dim>64</dim>
					<dim>64</dim>
					<dim>3</dim>
					<dim>3</dim>
				</port>
			</input>
			<output>
				<port id="2" precision="FP32">
					<dim>1</dim>
					<dim>64</dim>
					<dim>60</dim>
					<dim>60</dim>
				</port>
			</output>
		</layer>
		<layer id="361" name="model.4.m.1.cv1.conv.bias" type="Const" version="opset1">
			<data element_type="f32" shape="64" offset="292356" size="256" />
			<output>
				<port id="0" precision="FP32" names="model.4.m.1.cv1.conv.bias">
					<dim>64</dim>
				</port>
			</output>
		</layer>
		<layer id="362" name="Constant_337011" type="Const" version="opset1">
			<data element_type="i64" shape="1" offset="38928" size="8" />
			<output>
				<port id="0" precision="I64">
					<dim>1</dim>
				</port>
			</output>
		</layer>
		<layer id="363" name="ShapeOf_337018" type="ShapeOf" version="opset3">
			<data output_type="i64" />
			<input>
				<port id="0" precision="FP32">
					<dim>64</dim>
				</port>
			</input>
			<output>
				<port id="1" precision="I64">
					<dim>1</dim>
				</port>
			</output>
		</layer>
		<layer id="364" name="ShapeOf_337009" type="ShapeOf" version="opset3">
			<data output_type="i64" />
			<input>
				<port id="0" precision="FP32">
					<dim>1</dim>
					<dim>64</dim>
					<dim>60</dim>
					<dim>60</dim>
				</port>
			</input>
			<output>
				<port id="1" precision="I64">
					<dim>4</dim>
				</port>
			</output>
		</layer>
		<layer id="365" name="ShapeOf_337010" type="ShapeOf" version="opset3">
			<data output_type="i64" />
			<input>
				<port id="0" precision="I64">
					<dim>4</dim>
				</port>
			</input>
			<output>
				<port id="1" precision="I64">
					<dim>1</dim>
				</port>
			</output>
		</layer>
		<layer id="366" name="Constant_337012" type="Const" version="opset1">
			<data element_type="i64" shape="1" offset="38936" size="8" />
			<output>
				<port id="0" precision="I64">
					<dim>1</dim>
				</port>
			</output>
		</layer>
		<layer id="367" name="Subtract_337013" type="Subtract" version="opset1">
			<data auto_broadcast="numpy" />
			<input>
				<port id="0" precision="I64">
					<dim>1</dim>
				</port>
				<port id="1" precision="I64">
					<dim>1</dim>
				</port>
			</input>
			<output>
				<port id="2" precision="I64">
					<dim>1</dim>
				</port>
			</output>
		</layer>
		<layer id="368" name="Broadcast_337014" type="Broadcast" version="opset3">
			<data mode="numpy" />
			<input>
				<port id="0" precision="I64">
					<dim>1</dim>
				</port>
				<port id="1" precision="I64">
					<dim>1</dim>
				</port>
			</input>
			<output>
				<port id="2" precision="I64">
					<dim>2</dim>
				</port>
			</output>
		</layer>
		<layer id="369" name="Concat_337019" type="Concat" version="opset1">
			<data axis="0" />
			<input>
				<port id="0" precision="I64">
					<dim>1</dim>
				</port>
				<port id="1" precision="I64">
					<dim>1</dim>
				</port>
				<port id="2" precision="I64">
					<dim>2</dim>
				</port>
			</input>
			<output>
				<port id="3" precision="I64">
					<dim>4</dim>
				</port>
			</output>
		</layer>
		<layer id="370" name="Reshape_337020" type="Reshape" version="opset1">
			<data special_zero="false" />
			<input>
				<port id="0" precision="FP32">
					<dim>64</dim>
				</port>
				<port id="1" precision="I64">
					<dim>4</dim>
				</port>
			</input>
			<output>
				<port id="2" precision="FP32">
					<dim>1</dim>
					<dim>64</dim>
					<dim>1</dim>
					<dim>1</dim>
				</port>
			</output>
		</layer>
		<layer id="371" name="/model.4/m.1/cv1/conv/Conv" type="Add" version="opset1">
			<data auto_broadcast="numpy" />
			<input>
				<port id="0" precision="FP32">
					<dim>1</dim>
					<dim>64</dim>
					<dim>60</dim>
					<dim>60</dim>
				</port>
				<port id="1" precision="FP32">
					<dim>1</dim>
					<dim>64</dim>
					<dim>1</dim>
					<dim>1</dim>
				</port>
			</input>
			<output>
				<port id="2" precision="FP32" names="/model.4/m.1/cv1/conv/Conv_output_0">
					<dim>1</dim>
					<dim>64</dim>
					<dim>60</dim>
					<dim>60</dim>
				</port>
			</output>
		</layer>
		<layer id="372" name="/model.4/m.1/cv1/act/Mul/fq_input_0/input_low" type="Const" version="opset1">
			<data element_type="f32" shape="" offset="292612" size="4" />
			<output>
				<port id="0" precision="FP32" />
			</output>
		</layer>
		<layer id="373" name="/model.4/m.1/cv1/act/Mul/fq_input_0/input_high" type="Const" version="opset1">
			<data element_type="f32" shape="" offset="292616" size="4" />
			<output>
				<port id="0" precision="FP32" />
			</output>
		</layer>
		<layer id="374" name="/model.4/m.1/cv1/act/Mul/fq_input_0/output_low" type="Const" version="opset1">
			<data element_type="f32" shape="" offset="292612" size="4" />
			<output>
				<port id="0" precision="FP32" />
			</output>
		</layer>
		<layer id="375" name="/model.4/m.1/cv1/act/Mul/fq_input_0/output_high" type="Const" version="opset1">
			<data element_type="f32" shape="" offset="292616" size="4" />
			<output>
				<port id="0" precision="FP32" />
			</output>
		</layer>
		<layer id="376" name="/model.4/m.1/cv1/act/Mul/fq_input_0" type="FakeQuantize" version="opset1">
			<data levels="256" auto_broadcast="numpy" />
			<input>
				<port id="0" precision="FP32">
					<dim>1</dim>
					<dim>64</dim>
					<dim>60</dim>
					<dim>60</dim>
				</port>
				<port id="1" precision="FP32" />
				<port id="2" precision="FP32" />
				<port id="3" precision="FP32" />
				<port id="4" precision="FP32" />
			</input>
			<output>
				<port id="5" precision="FP32">
					<dim>1</dim>
					<dim>64</dim>
					<dim>60</dim>
					<dim>60</dim>
				</port>
			</output>
		</layer>
		<layer id="377" name="/model.4/m.1/cv1/act/Sigmoid" type="Sigmoid" version="opset1">
			<input>
				<port id="0" precision="FP32">
					<dim>1</dim>
					<dim>64</dim>
					<dim>60</dim>
					<dim>60</dim>
				</port>
			</input>
			<output>
				<port id="1" precision="FP32" names="/model.4/m.1/cv1/act/Sigmoid_output_0">
					<dim>1</dim>
					<dim>64</dim>
					<dim>60</dim>
					<dim>60</dim>
				</port>
			</output>
		</layer>
		<layer id="378" name="/model.4/m.1/cv1/act/Sigmoid/fq_output_0/input_low" type="Const" version="opset1">
			<data element_type="f32" shape="" offset="37800" size="4" />
			<output>
				<port id="0" precision="FP32" />
			</output>
		</layer>
		<layer id="379" name="/model.4/m.1/cv1/act/Sigmoid/fq_output_0/input_high" type="Const" version="opset1">
			<data element_type="f32" shape="" offset="292620" size="4" />
			<output>
				<port id="0" precision="FP32" />
			</output>
		</layer>
		<layer id="380" name="/model.4/m.1/cv1/act/Sigmoid/fq_output_0/output_low" type="Const" version="opset1">
			<data element_type="f32" shape="" offset="37800" size="4" />
			<output>
				<port id="0" precision="FP32" />
			</output>
		</layer>
		<layer id="381" name="/model.4/m.1/cv1/act/Sigmoid/fq_output_0/output_high" type="Const" version="opset1">
			<data element_type="f32" shape="" offset="292620" size="4" />
			<output>
				<port id="0" precision="FP32" />
			</output>
		</layer>
		<layer id="382" name="/model.4/m.1/cv1/act/Sigmoid/fq_output_0" type="FakeQuantize" version="opset1">
			<data levels="256" auto_broadcast="numpy" />
			<input>
				<port id="0" precision="FP32">
					<dim>1</dim>
					<dim>64</dim>
					<dim>60</dim>
					<dim>60</dim>
				</port>
				<port id="1" precision="FP32" />
				<port id="2" precision="FP32" />
				<port id="3" precision="FP32" />
				<port id="4" precision="FP32" />
			</input>
			<output>
				<port id="5" precision="FP32">
					<dim>1</dim>
					<dim>64</dim>
					<dim>60</dim>
					<dim>60</dim>
				</port>
			</output>
		</layer>
		<layer id="383" name="/model.4/m.1/cv1/act/Mul" type="Multiply" version="opset1">
			<data auto_broadcast="numpy" />
			<input>
				<port id="0" precision="FP32">
					<dim>1</dim>
					<dim>64</dim>
					<dim>60</dim>
					<dim>60</dim>
				</port>
				<port id="1" precision="FP32">
					<dim>1</dim>
					<dim>64</dim>
					<dim>60</dim>
					<dim>60</dim>
				</port>
			</input>
			<output>
				<port id="2" precision="FP32" names="/model.4/m.1/cv1/act/Mul_output_0">
					<dim>1</dim>
					<dim>64</dim>
					<dim>60</dim>
					<dim>60</dim>
				</port>
			</output>
		</layer>
		<layer id="384" name="/model.4/m.1/cv1/act/Mul/fq_output_0/input_low" type="Const" version="opset1">
			<data element_type="f32" shape="" offset="292624" size="4" />
			<output>
				<port id="0" precision="FP32" />
			</output>
		</layer>
		<layer id="385" name="/model.4/m.1/cv1/act/Mul/fq_output_0/input_high" type="Const" version="opset1">
			<data element_type="f32" shape="" offset="292628" size="4" />
			<output>
				<port id="0" precision="FP32" />
			</output>
		</layer>
		<layer id="386" name="/model.4/m.1/cv1/act/Mul/fq_output_0/output_low" type="Const" version="opset1">
			<data element_type="f32" shape="" offset="292624" size="4" />
			<output>
				<port id="0" precision="FP32" />
			</output>
		</layer>
		<layer id="387" name="/model.4/m.1/cv1/act/Mul/fq_output_0/output_high" type="Const" version="opset1">
			<data element_type="f32" shape="" offset="292628" size="4" />
			<output>
				<port id="0" precision="FP32" />
			</output>
		</layer>
		<layer id="388" name="/model.4/m.1/cv1/act/Mul/fq_output_0" type="FakeQuantize" version="opset1">
			<data levels="256" auto_broadcast="numpy" />
			<input>
				<port id="0" precision="FP32">
					<dim>1</dim>
					<dim>64</dim>
					<dim>60</dim>
					<dim>60</dim>
				</port>
				<port id="1" precision="FP32" />
				<port id="2" precision="FP32" />
				<port id="3" precision="FP32" />
				<port id="4" precision="FP32" />
			</input>
			<output>
				<port id="5" precision="FP32">
					<dim>1</dim>
					<dim>64</dim>
					<dim>60</dim>
					<dim>60</dim>
				</port>
			</output>
		</layer>
		<layer id="389" name="Constant_423179" type="Const" version="opset1">
			<data element_type="i8" shape="64, 64, 3, 3" offset="292632" size="36864" />
			<output>
				<port id="0" precision="I8">
					<dim>64</dim>
					<dim>64</dim>
					<dim>3</dim>
					<dim>3</dim>
				</port>
			</output>
		</layer>
		<layer id="390" name="Convert_423180" type="Convert" version="opset1">
			<data destination_type="f32" />
			<input>
				<port id="0" precision="I8">
					<dim>64</dim>
					<dim>64</dim>
					<dim>3</dim>
					<dim>3</dim>
				</port>
			</input>
			<output>
				<port id="1" precision="FP32">
					<dim>64</dim>
					<dim>64</dim>
					<dim>3</dim>
					<dim>3</dim>
				</port>
			</output>
		</layer>
		<layer id="391" name="Constant_423181" type="Const" version="opset1">
			<data element_type="f32" shape="64, 1, 1, 1" offset="329496" size="256" />
			<output>
				<port id="0" precision="FP32">
					<dim>64</dim>
					<dim>1</dim>
					<dim>1</dim>
					<dim>1</dim>
				</port>
			</output>
		</layer>
		<layer id="392" name="/model.4/m.1/cv2/conv/Conv/WithoutBiases/fq_weights_1" type="Multiply" version="opset1">
			<data auto_broadcast="numpy" />
			<input>
				<port id="0" precision="FP32">
					<dim>64</dim>
					<dim>64</dim>
					<dim>3</dim>
					<dim>3</dim>
				</port>
				<port id="1" precision="FP32">
					<dim>64</dim>
					<dim>1</dim>
					<dim>1</dim>
					<dim>1</dim>
				</port>
			</input>
			<output>
				<port id="2" precision="FP32">
					<dim>64</dim>
					<dim>64</dim>
					<dim>3</dim>
					<dim>3</dim>
				</port>
			</output>
		</layer>
		<layer id="393" name="/model.4/m.1/cv2/conv/Conv/WithoutBiases" type="Convolution" version="opset1">
			<data strides="1, 1" dilations="1, 1" pads_begin="1, 1" pads_end="1, 1" auto_pad="explicit" />
			<input>
				<port id="0" precision="FP32">
					<dim>1</dim>
					<dim>64</dim>
					<dim>60</dim>
					<dim>60</dim>
				</port>
				<port id="1" precision="FP32">
					<dim>64</dim>
					<dim>64</dim>
					<dim>3</dim>
					<dim>3</dim>
				</port>
			</input>
			<output>
				<port id="2" precision="FP32">
					<dim>1</dim>
					<dim>64</dim>
					<dim>60</dim>
					<dim>60</dim>
				</port>
			</output>
		</layer>
		<layer id="394" name="model.4.m.1.cv2.conv.bias" type="Const" version="opset1">
			<data element_type="f32" shape="64" offset="329752" size="256" />
			<output>
				<port id="0" precision="FP32" names="model.4.m.1.cv2.conv.bias">
					<dim>64</dim>
				</port>
			</output>
		</layer>
		<layer id="395" name="Constant_337029" type="Const" version="opset1">
			<data element_type="i64" shape="1" offset="38928" size="8" />
			<output>
				<port id="0" precision="I64">
					<dim>1</dim>
				</port>
			</output>
		</layer>
		<layer id="396" name="ShapeOf_337036" type="ShapeOf" version="opset3">
			<data output_type="i64" />
			<input>
				<port id="0" precision="FP32">
					<dim>64</dim>
				</port>
			</input>
			<output>
				<port id="1" precision="I64">
					<dim>1</dim>
				</port>
			</output>
		</layer>
		<layer id="397" name="ShapeOf_337027" type="ShapeOf" version="opset3">
			<data output_type="i64" />
			<input>
				<port id="0" precision="FP32">
					<dim>1</dim>
					<dim>64</dim>
					<dim>60</dim>
					<dim>60</dim>
				</port>
			</input>
			<output>
				<port id="1" precision="I64">
					<dim>4</dim>
				</port>
			</output>
		</layer>
		<layer id="398" name="ShapeOf_337028" type="ShapeOf" version="opset3">
			<data output_type="i64" />
			<input>
				<port id="0" precision="I64">
					<dim>4</dim>
				</port>
			</input>
			<output>
				<port id="1" precision="I64">
					<dim>1</dim>
				</port>
			</output>
		</layer>
		<layer id="399" name="Constant_337030" type="Const" version="opset1">
			<data element_type="i64" shape="1" offset="38936" size="8" />
			<output>
				<port id="0" precision="I64">
					<dim>1</dim>
				</port>
			</output>
		</layer>
		<layer id="400" name="Subtract_337031" type="Subtract" version="opset1">
			<data auto_broadcast="numpy" />
			<input>
				<port id="0" precision="I64">
					<dim>1</dim>
				</port>
				<port id="1" precision="I64">
					<dim>1</dim>
				</port>
			</input>
			<output>
				<port id="2" precision="I64">
					<dim>1</dim>
				</port>
			</output>
		</layer>
		<layer id="401" name="Broadcast_337032" type="Broadcast" version="opset3">
			<data mode="numpy" />
			<input>
				<port id="0" precision="I64">
					<dim>1</dim>
				</port>
				<port id="1" precision="I64">
					<dim>1</dim>
				</port>
			</input>
			<output>
				<port id="2" precision="I64">
					<dim>2</dim>
				</port>
			</output>
		</layer>
		<layer id="402" name="Concat_337037" type="Concat" version="opset1">
			<data axis="0" />
			<input>
				<port id="0" precision="I64">
					<dim>1</dim>
				</port>
				<port id="1" precision="I64">
					<dim>1</dim>
				</port>
				<port id="2" precision="I64">
					<dim>2</dim>
				</port>
			</input>
			<output>
				<port id="3" precision="I64">
					<dim>4</dim>
				</port>
			</output>
		</layer>
		<layer id="403" name="Reshape_337038" type="Reshape" version="opset1">
			<data special_zero="false" />
			<input>
				<port id="0" precision="FP32">
					<dim>64</dim>
				</port>
				<port id="1" precision="I64">
					<dim>4</dim>
				</port>
			</input>
			<output>
				<port id="2" precision="FP32">
					<dim>1</dim>
					<dim>64</dim>
					<dim>1</dim>
					<dim>1</dim>
				</port>
			</output>
		</layer>
		<layer id="404" name="/model.4/m.1/cv2/conv/Conv" type="Add" version="opset1">
			<data auto_broadcast="numpy" />
			<input>
				<port id="0" precision="FP32">
					<dim>1</dim>
					<dim>64</dim>
					<dim>60</dim>
					<dim>60</dim>
				</port>
				<port id="1" precision="FP32">
					<dim>1</dim>
					<dim>64</dim>
					<dim>1</dim>
					<dim>1</dim>
				</port>
			</input>
			<output>
				<port id="2" precision="FP32" names="/model.4/m.1/cv2/conv/Conv_output_0">
					<dim>1</dim>
					<dim>64</dim>
					<dim>60</dim>
					<dim>60</dim>
				</port>
			</output>
		</layer>
		<layer id="405" name="/model.4/m.1/cv2/act/Mul/fq_input_0/input_low" type="Const" version="opset1">
			<data element_type="f32" shape="" offset="330008" size="4" />
			<output>
				<port id="0" precision="FP32" />
			</output>
		</layer>
		<layer id="406" name="/model.4/m.1/cv2/act/Mul/fq_input_0/input_high" type="Const" version="opset1">
			<data element_type="f32" shape="" offset="330012" size="4" />
			<output>
				<port id="0" precision="FP32" />
			</output>
		</layer>
		<layer id="407" name="/model.4/m.1/cv2/act/Mul/fq_input_0/output_low" type="Const" version="opset1">
			<data element_type="f32" shape="" offset="330008" size="4" />
			<output>
				<port id="0" precision="FP32" />
			</output>
		</layer>
		<layer id="408" name="/model.4/m.1/cv2/act/Mul/fq_input_0/output_high" type="Const" version="opset1">
			<data element_type="f32" shape="" offset="330012" size="4" />
			<output>
				<port id="0" precision="FP32" />
			</output>
		</layer>
		<layer id="409" name="/model.4/m.1/cv2/act/Mul/fq_input_0" type="FakeQuantize" version="opset1">
			<data levels="256" auto_broadcast="numpy" />
			<input>
				<port id="0" precision="FP32">
					<dim>1</dim>
					<dim>64</dim>
					<dim>60</dim>
					<dim>60</dim>
				</port>
				<port id="1" precision="FP32" />
				<port id="2" precision="FP32" />
				<port id="3" precision="FP32" />
				<port id="4" precision="FP32" />
			</input>
			<output>
				<port id="5" precision="FP32">
					<dim>1</dim>
					<dim>64</dim>
					<dim>60</dim>
					<dim>60</dim>
				</port>
			</output>
		</layer>
		<layer id="410" name="/model.4/m.1/cv2/act/Sigmoid" type="Sigmoid" version="opset1">
			<input>
				<port id="0" precision="FP32">
					<dim>1</dim>
					<dim>64</dim>
					<dim>60</dim>
					<dim>60</dim>
				</port>
			</input>
			<output>
				<port id="1" precision="FP32" names="/model.4/m.1/cv2/act/Sigmoid_output_0">
					<dim>1</dim>
					<dim>64</dim>
					<dim>60</dim>
					<dim>60</dim>
				</port>
			</output>
		</layer>
		<layer id="411" name="/model.4/m.1/cv2/act/Sigmoid/fq_output_0/input_low" type="Const" version="opset1">
			<data element_type="f32" shape="" offset="37800" size="4" />
			<output>
				<port id="0" precision="FP32" />
			</output>
		</layer>
		<layer id="412" name="/model.4/m.1/cv2/act/Sigmoid/fq_output_0/input_high" type="Const" version="opset1">
			<data element_type="f32" shape="" offset="330016" size="4" />
			<output>
				<port id="0" precision="FP32" />
			</output>
		</layer>
		<layer id="413" name="/model.4/m.1/cv2/act/Sigmoid/fq_output_0/output_low" type="Const" version="opset1">
			<data element_type="f32" shape="" offset="37800" size="4" />
			<output>
				<port id="0" precision="FP32" />
			</output>
		</layer>
		<layer id="414" name="/model.4/m.1/cv2/act/Sigmoid/fq_output_0/output_high" type="Const" version="opset1">
			<data element_type="f32" shape="" offset="330016" size="4" />
			<output>
				<port id="0" precision="FP32" />
			</output>
		</layer>
		<layer id="415" name="/model.4/m.1/cv2/act/Sigmoid/fq_output_0" type="FakeQuantize" version="opset1">
			<data levels="256" auto_broadcast="numpy" />
			<input>
				<port id="0" precision="FP32">
					<dim>1</dim>
					<dim>64</dim>
					<dim>60</dim>
					<dim>60</dim>
				</port>
				<port id="1" precision="FP32" />
				<port id="2" precision="FP32" />
				<port id="3" precision="FP32" />
				<port id="4" precision="FP32" />
			</input>
			<output>
				<port id="5" precision="FP32">
					<dim>1</dim>
					<dim>64</dim>
					<dim>60</dim>
					<dim>60</dim>
				</port>
			</output>
		</layer>
		<layer id="416" name="/model.4/m.1/cv2/act/Mul" type="Multiply" version="opset1">
			<data auto_broadcast="numpy" />
			<input>
				<port id="0" precision="FP32">
					<dim>1</dim>
					<dim>64</dim>
					<dim>60</dim>
					<dim>60</dim>
				</port>
				<port id="1" precision="FP32">
					<dim>1</dim>
					<dim>64</dim>
					<dim>60</dim>
					<dim>60</dim>
				</port>
			</input>
			<output>
				<port id="2" precision="FP32" names="/model.4/m.1/cv2/act/Mul_output_0">
					<dim>1</dim>
					<dim>64</dim>
					<dim>60</dim>
					<dim>60</dim>
				</port>
			</output>
		</layer>
		<layer id="417" name="/model.4/m.1/cv2/act/Mul/fq_output_0/input_low" type="Const" version="opset1">
			<data element_type="f32" shape="" offset="330020" size="4" />
			<output>
				<port id="0" precision="FP32" />
			</output>
		</layer>
		<layer id="418" name="/model.4/m.1/cv2/act/Mul/fq_output_0/input_high" type="Const" version="opset1">
			<data element_type="f32" shape="" offset="330024" size="4" />
			<output>
				<port id="0" precision="FP32" />
			</output>
		</layer>
		<layer id="419" name="/model.4/m.1/cv2/act/Mul/fq_output_0/output_low" type="Const" version="opset1">
			<data element_type="f32" shape="" offset="330020" size="4" />
			<output>
				<port id="0" precision="FP32" />
			</output>
		</layer>
		<layer id="420" name="/model.4/m.1/cv2/act/Mul/fq_output_0/output_high" type="Const" version="opset1">
			<data element_type="f32" shape="" offset="330024" size="4" />
			<output>
				<port id="0" precision="FP32" />
			</output>
		</layer>
		<layer id="421" name="/model.4/m.1/cv2/act/Mul/fq_output_0" type="FakeQuantize" version="opset1">
			<data levels="256" auto_broadcast="numpy" />
			<input>
				<port id="0" precision="FP32">
					<dim>1</dim>
					<dim>64</dim>
					<dim>60</dim>
					<dim>60</dim>
				</port>
				<port id="1" precision="FP32" />
				<port id="2" precision="FP32" />
				<port id="3" precision="FP32" />
				<port id="4" precision="FP32" />
			</input>
			<output>
				<port id="5" precision="FP32">
					<dim>1</dim>
					<dim>64</dim>
					<dim>60</dim>
					<dim>60</dim>
				</port>
			</output>
		</layer>
		<layer id="422" name="/model.4/m.1/Add" type="Add" version="opset1">
			<data auto_broadcast="numpy" />
			<input>
				<port id="0" precision="FP32">
					<dim>1</dim>
					<dim>64</dim>
					<dim>60</dim>
					<dim>60</dim>
				</port>
				<port id="1" precision="FP32">
					<dim>1</dim>
					<dim>64</dim>
					<dim>60</dim>
					<dim>60</dim>
				</port>
			</input>
			<output>
…
		<edge from-layer="2434" from-port="1" to-layer="2439" to-port="0" />
		<edge from-layer="2435" from-port="0" to-layer="2439" to-port="1" />
		<edge from-layer="2436" from-port="0" to-layer="2439" to-port="2" />
		<edge from-layer="2437" from-port="0" to-layer="2439" to-port="3" />
		<edge from-layer="2438" from-port="0" to-layer="2439" to-port="4" />
		<edge from-layer="2439" from-port="5" to-layer="2440" to-port="1" />
		<edge from-layer="2440" from-port="2" to-layer="2445" to-port="0" />
		<edge from-layer="2441" from-port="0" to-layer="2445" to-port="1" />
		<edge from-layer="2442" from-port="0" to-layer="2445" to-port="2" />
		<edge from-layer="2443" from-port="0" to-layer="2445" to-port="3" />
		<edge from-layer="2444" from-port="0" to-layer="2445" to-port="4" />
		<edge from-layer="2445" from-port="5" to-layer="2447" to-port="0" />
		<edge from-layer="2446" from-port="0" to-layer="2447" to-port="1" />
		<edge from-layer="2447" from-port="4" to-layer="2643" to-port="0" />
		<edge from-layer="2447" from-port="3" to-layer="2649" to-port="0" />
		<edge from-layer="2447" from-port="4" to-layer="2649" to-port="1" />
		<edge from-layer="2447" from-port="4" to-layer="2462" to-port="0" />
		<edge from-layer="2448" from-port="0" to-layer="2456" to-port="0" />
		<edge from-layer="2448" from-port="0" to-layer="2450" to-port="0" />
		<edge from-layer="2449" from-port="0" to-layer="2454" to-port="1" />
		<edge from-layer="2449" from-port="0" to-layer="2455" to-port="0" />
		<edge from-layer="2450" from-port="1" to-layer="2453" to-port="0" />
		<edge from-layer="2451" from-port="0" to-layer="2453" to-port="1" />
		<edge from-layer="2452" from-port="0" to-layer="2453" to-port="2" />
		<edge from-layer="2453" from-port="3" to-layer="2454" to-port="0" />
		<edge from-layer="2453" from-port="4" to-layer="2455" to-port="2" />
		<edge from-layer="2454" from-port="2" to-layer="2455" to-port="1" />
		<edge from-layer="2455" from-port="3" to-layer="2456" to-port="1" />
		<edge from-layer="2456" from-port="2" to-layer="2461" to-port="0" />
		<edge from-layer="2457" from-port="0" to-layer="2461" to-port="1" />
		<edge from-layer="2458" from-port="0" to-layer="2461" to-port="2" />
		<edge from-layer="2459" from-port="0" to-layer="2461" to-port="3" />
		<edge from-layer="2460" from-port="0" to-layer="2461" to-port="4" />
		<edge from-layer="2461" from-port="5" to-layer="2462" to-port="1" />
		<edge from-layer="2462" from-port="2" to-layer="2466" to-port="0" />
		<edge from-layer="2462" from-port="2" to-layer="2473" to-port="0" />
		<edge from-layer="2463" from-port="0" to-layer="2465" to-port="0" />
		<edge from-layer="2463" from-port="0" to-layer="2472" to-port="0" />
		<edge from-layer="2464" from-port="0" to-layer="2470" to-port="0" />
		<edge from-layer="2464" from-port="0" to-layer="2471" to-port="0" />
		<edge from-layer="2465" from-port="1" to-layer="2471" to-port="1" />
		<edge from-layer="2466" from-port="1" to-layer="2467" to-port="0" />
		<edge from-layer="2467" from-port="1" to-layer="2469" to-port="0" />
		<edge from-layer="2468" from-port="0" to-layer="2469" to-port="1" />
		<edge from-layer="2469" from-port="2" to-layer="2470" to-port="1" />
		<edge from-layer="2470" from-port="2" to-layer="2471" to-port="2" />
		<edge from-layer="2471" from-port="3" to-layer="2472" to-port="1" />
		<edge from-layer="2472" from-port="2" to-layer="2473" to-port="1" />
		<edge from-layer="2473" from-port="2" to-layer="2479" to-port="0" />
		<edge from-layer="2473" from-port="2" to-layer="2478" to-port="0" />
		<edge from-layer="2474" from-port="0" to-layer="2478" to-port="1" />
		<edge from-layer="2475" from-port="0" to-layer="2478" to-port="2" />
		<edge from-layer="2476" from-port="0" to-layer="2478" to-port="3" />
		<edge from-layer="2477" from-port="0" to-layer="2478" to-port="4" />
		<edge from-layer="2478" from-port="5" to-layer="2485" to-port="0" />
		<edge from-layer="2479" from-port="1" to-layer="2484" to-port="0" />
		<edge from-layer="2480" from-port="0" to-layer="2484" to-port="1" />
		<edge from-layer="2481" from-port="0" to-layer="2484" to-port="2" />
		<edge from-layer="2482" from-port="0" to-layer="2484" to-port="3" />
		<edge from-layer="2483" from-port="0" to-layer="2484" to-port="4" />
		<edge from-layer="2484" from-port="5" to-layer="2485" to-port="1" />
		<edge from-layer="2485" from-port="2" to-layer="2490" to-port="0" />
		<edge from-layer="2486" from-port="0" to-layer="2490" to-port="1" />
		<edge from-layer="2487" from-port="0" to-layer="2490" to-port="2" />
		<edge from-layer="2488" from-port="0" to-layer="2490" to-port="3" />
		<edge from-layer="2489" from-port="0" to-layer="2490" to-port="4" />
		<edge from-layer="2490" from-port="5" to-layer="2495" to-port="0" />
		<edge from-layer="2491" from-port="0" to-layer="2492" to-port="0" />
		<edge from-layer="2492" from-port="1" to-layer="2494" to-port="0" />
		<edge from-layer="2493" from-port="0" to-layer="2494" to-port="1" />
		<edge from-layer="2494" from-port="2" to-layer="2495" to-port="1" />
		<edge from-layer="2495" from-port="2" to-layer="2499" to-port="0" />
		<edge from-layer="2495" from-port="2" to-layer="2506" to-port="0" />
		<edge from-layer="2496" from-port="0" to-layer="2498" to-port="0" />
		<edge from-layer="2496" from-port="0" to-layer="2505" to-port="0" />
		<edge from-layer="2497" from-port="0" to-layer="2503" to-port="0" />
		<edge from-layer="2497" from-port="0" to-layer="2504" to-port="0" />
		<edge from-layer="2498" from-port="1" to-layer="2504" to-port="1" />
		<edge from-layer="2499" from-port="1" to-layer="2500" to-port="0" />
		<edge from-layer="2500" from-port="1" to-layer="2502" to-port="0" />
		<edge from-layer="2501" from-port="0" to-layer="2502" to-port="1" />
		<edge from-layer="2502" from-port="2" to-layer="2503" to-port="1" />
		<edge from-layer="2503" from-port="2" to-layer="2504" to-port="2" />
		<edge from-layer="2504" from-port="3" to-layer="2505" to-port="1" />
		<edge from-layer="2505" from-port="2" to-layer="2506" to-port="1" />
		<edge from-layer="2506" from-port="2" to-layer="2512" to-port="0" />
		<edge from-layer="2506" from-port="2" to-layer="2511" to-port="0" />
		<edge from-layer="2507" from-port="0" to-layer="2511" to-port="1" />
		<edge from-layer="2508" from-port="0" to-layer="2511" to-port="2" />
		<edge from-layer="2509" from-port="0" to-layer="2511" to-port="3" />
		<edge from-layer="2510" from-port="0" to-layer="2511" to-port="4" />
		<edge from-layer="2511" from-port="5" to-layer="2518" to-port="0" />
		<edge from-layer="2512" from-port="1" to-layer="2517" to-port="0" />
		<edge from-layer="2513" from-port="0" to-layer="2517" to-port="1" />
		<edge from-layer="2514" from-port="0" to-layer="2517" to-port="2" />
		<edge from-layer="2515" from-port="0" to-layer="2517" to-port="3" />
		<edge from-layer="2516" from-port="0" to-layer="2517" to-port="4" />
		<edge from-layer="2517" from-port="5" to-layer="2518" to-port="1" />
		<edge from-layer="2518" from-port="2" to-layer="2523" to-port="0" />
		<edge from-layer="2519" from-port="0" to-layer="2523" to-port="1" />
		<edge from-layer="2520" from-port="0" to-layer="2523" to-port="2" />
		<edge from-layer="2521" from-port="0" to-layer="2523" to-port="3" />
		<edge from-layer="2522" from-port="0" to-layer="2523" to-port="4" />
		<edge from-layer="2523" from-port="5" to-layer="2538" to-port="0" />
		<edge from-layer="2524" from-port="0" to-layer="2532" to-port="0" />
		<edge from-layer="2524" from-port="0" to-layer="2526" to-port="0" />
		<edge from-layer="2525" from-port="0" to-layer="2530" to-port="1" />
		<edge from-layer="2525" from-port="0" to-layer="2531" to-port="0" />
		<edge from-layer="2526" from-port="1" to-layer="2529" to-port="0" />
		<edge from-layer="2527" from-port="0" to-layer="2529" to-port="1" />
		<edge from-layer="2528" from-port="0" to-layer="2529" to-port="2" />
		<edge from-layer="2529" from-port="3" to-layer="2530" to-port="0" />
		<edge from-layer="2529" from-port="4" to-layer="2531" to-port="2" />
		<edge from-layer="2530" from-port="2" to-layer="2531" to-port="1" />
		<edge from-layer="2531" from-port="3" to-layer="2532" to-port="1" />
		<edge from-layer="2532" from-port="2" to-layer="2537" to-port="0" />
		<edge from-layer="2533" from-port="0" to-layer="2537" to-port="1" />
		<edge from-layer="2534" from-port="0" to-layer="2537" to-port="2" />
		<edge from-layer="2535" from-port="0" to-layer="2537" to-port="3" />
		<edge from-layer="2536" from-port="0" to-layer="2537" to-port="4" />
		<edge from-layer="2537" from-port="5" to-layer="2538" to-port="1" />
		<edge from-layer="2538" from-port="2" to-layer="2542" to-port="0" />
		<edge from-layer="2538" from-port="2" to-layer="2549" to-port="0" />
		<edge from-layer="2539" from-port="0" to-layer="2541" to-port="0" />
		<edge from-layer="2539" from-port="0" to-layer="2548" to-port="0" />
		<edge from-layer="2540" from-port="0" to-layer="2546" to-port="0" />
		<edge from-layer="2540" from-port="0" to-layer="2547" to-port="0" />
		<edge from-layer="2541" from-port="1" to-layer="2547" to-port="1" />
		<edge from-layer="2542" from-port="1" to-layer="2543" to-port="0" />
		<edge from-layer="2543" from-port="1" to-layer="2545" to-port="0" />
		<edge from-layer="2544" from-port="0" to-layer="2545" to-port="1" />
		<edge from-layer="2545" from-port="2" to-layer="2546" to-port="1" />
		<edge from-layer="2546" from-port="2" to-layer="2547" to-port="2" />
		<edge from-layer="2547" from-port="3" to-layer="2548" to-port="1" />
		<edge from-layer="2548" from-port="2" to-layer="2549" to-port="1" />
		<edge from-layer="2549" from-port="2" to-layer="2554" to-port="0" />
		<edge from-layer="2549" from-port="2" to-layer="2555" to-port="0" />
		<edge from-layer="2550" from-port="0" to-layer="2554" to-port="1" />
		<edge from-layer="2551" from-port="0" to-layer="2554" to-port="2" />
		<edge from-layer="2552" from-port="0" to-layer="2554" to-port="3" />
		<edge from-layer="2553" from-port="0" to-layer="2554" to-port="4" />
		<edge from-layer="2554" from-port="5" to-layer="2561" to-port="0" />
		<edge from-layer="2555" from-port="1" to-layer="2560" to-port="0" />
		<edge from-layer="2556" from-port="0" to-layer="2560" to-port="1" />
		<edge from-layer="2557" from-port="0" to-layer="2560" to-port="2" />
		<edge from-layer="2558" from-port="0" to-layer="2560" to-port="3" />
		<edge from-layer="2559" from-port="0" to-layer="2560" to-port="4" />
		<edge from-layer="2560" from-port="5" to-layer="2561" to-port="1" />
		<edge from-layer="2561" from-port="2" to-layer="2566" to-port="0" />
		<edge from-layer="2562" from-port="0" to-layer="2566" to-port="1" />
		<edge from-layer="2563" from-port="0" to-layer="2566" to-port="2" />
		<edge from-layer="2564" from-port="0" to-layer="2566" to-port="3" />
		<edge from-layer="2565" from-port="0" to-layer="2566" to-port="4" />
		<edge from-layer="2566" from-port="5" to-layer="2571" to-port="0" />
		<edge from-layer="2567" from-port="0" to-layer="2568" to-port="0" />
		<edge from-layer="2568" from-port="1" to-layer="2570" to-port="0" />
		<edge from-layer="2569" from-port="0" to-layer="2570" to-port="1" />
		<edge from-layer="2570" from-port="2" to-layer="2571" to-port="1" />
		<edge from-layer="2571" from-port="2" to-layer="2582" to-port="0" />
		<edge from-layer="2571" from-port="2" to-layer="2575" to-port="0" />
		<edge from-layer="2572" from-port="0" to-layer="2581" to-port="0" />
		<edge from-layer="2572" from-port="0" to-layer="2574" to-port="0" />
		<edge from-layer="2573" from-port="0" to-layer="2580" to-port="0" />
		<edge from-layer="2573" from-port="0" to-layer="2579" to-port="0" />
		<edge from-layer="2574" from-port="1" to-layer="2580" to-port="1" />
		<edge from-layer="2575" from-port="1" to-layer="2576" to-port="0" />
		<edge from-layer="2576" from-port="1" to-layer="2578" to-port="0" />
		<edge from-layer="2577" from-port="0" to-layer="2578" to-port="1" />
		<edge from-layer="2578" from-port="2" to-layer="2579" to-port="1" />
		<edge from-layer="2579" from-port="2" to-layer="2580" to-port="2" />
		<edge from-layer="2580" from-port="3" to-layer="2581" to-port="1" />
		<edge from-layer="2581" from-port="2" to-layer="2582" to-port="1" />
		<edge from-layer="2582" from-port="2" to-layer="2587" to-port="0" />
		<edge from-layer="2582" from-port="2" to-layer="2588" to-port="0" />
		<edge from-layer="2583" from-port="0" to-layer="2587" to-port="1" />
		<edge from-layer="2584" from-port="0" to-layer="2587" to-port="2" />
		<edge from-layer="2585" from-port="0" to-layer="2587" to-port="3" />
		<edge from-layer="2586" from-port="0" to-layer="2587" to-port="4" />
		<edge from-layer="2587" from-port="5" to-layer="2594" to-port="0" />
		<edge from-layer="2588" from-port="1" to-layer="2593" to-port="0" />
		<edge from-layer="2589" from-port="0" to-layer="2593" to-port="1" />
		<edge from-layer="2590" from-port="0" to-layer="2593" to-port="2" />
		<edge from-layer="2591" from-port="0" to-layer="2593" to-port="3" />
		<edge from-layer="2592" from-port="0" to-layer="2593" to-port="4" />
		<edge from-layer="2593" from-port="5" to-layer="2594" to-port="1" />
		<edge from-layer="2594" from-port="2" to-layer="2599" to-port="0" />
		<edge from-layer="2595" from-port="0" to-layer="2599" to-port="1" />
		<edge from-layer="2596" from-port="0" to-layer="2599" to-port="2" />
		<edge from-layer="2597" from-port="0" to-layer="2599" to-port="3" />
		<edge from-layer="2598" from-port="0" to-layer="2599" to-port="4" />
		<edge from-layer="2599" from-port="5" to-layer="2614" to-port="0" />
		<edge from-layer="2600" from-port="0" to-layer="2608" to-port="0" />
		<edge from-layer="2600" from-port="0" to-layer="2602" to-port="0" />
		<edge from-layer="2601" from-port="0" to-layer="2606" to-port="1" />
		<edge from-layer="2601" from-port="0" to-layer="2607" to-port="0" />
		<edge from-layer="2602" from-port="1" to-layer="2605" to-port="0" />
		<edge from-layer="2603" from-port="0" to-layer="2605" to-port="1" />
		<edge from-layer="2604" from-port="0" to-layer="2605" to-port="2" />
		<edge from-layer="2605" from-port="3" to-layer="2606" to-port="0" />
		<edge from-layer="2605" from-port="4" to-layer="2607" to-port="2" />
		<edge from-layer="2606" from-port="2" to-layer="2607" to-port="1" />
		<edge from-layer="2607" from-port="3" to-layer="2608" to-port="1" />
		<edge from-layer="2608" from-port="2" to-layer="2613" to-port="0" />
		<edge from-layer="2609" from-port="0" to-layer="2613" to-port="1" />
		<edge from-layer="2610" from-port="0" to-layer="2613" to-port="2" />
		<edge from-layer="2611" from-port="0" to-layer="2613" to-port="3" />
		<edge from-layer="2612" from-port="0" to-layer="2613" to-port="4" />
		<edge from-layer="2613" from-port="5" to-layer="2614" to-port="1" />
		<edge from-layer="2614" from-port="2" to-layer="2618" to-port="0" />
		<edge from-layer="2614" from-port="2" to-layer="2625" to-port="0" />
		<edge from-layer="2615" from-port="0" to-layer="2624" to-port="0" />
		<edge from-layer="2615" from-port="0" to-layer="2617" to-port="0" />
		<edge from-layer="2616" from-port="0" to-layer="2623" to-port="0" />
		<edge from-layer="2616" from-port="0" to-layer="2622" to-port="0" />
		<edge from-layer="2617" from-port="1" to-layer="2623" to-port="1" />
		<edge from-layer="2618" from-port="1" to-layer="2619" to-port="0" />
		<edge from-layer="2619" from-port="1" to-layer="2621" to-port="0" />
		<edge from-layer="2620" from-port="0" to-layer="2621" to-port="1" />
		<edge from-layer="2621" from-port="2" to-layer="2622" to-port="1" />
		<edge from-layer="2622" from-port="2" to-layer="2623" to-port="2" />
		<edge from-layer="2623" from-port="3" to-layer="2624" to-port="1" />
		<edge from-layer="2624" from-port="2" to-layer="2625" to-port="1" />
		<edge from-layer="2625" from-port="2" to-layer="2630" to-port="0" />
		<edge from-layer="2625" from-port="2" to-layer="2631" to-port="0" />
		<edge from-layer="2626" from-port="0" to-layer="2630" to-port="1" />
		<edge from-layer="2627" from-port="0" to-layer="2630" to-port="2" />
		<edge from-layer="2628" from-port="0" to-layer="2630" to-port="3" />
		<edge from-layer="2629" from-port="0" to-layer="2630" to-port="4" />
		<edge from-layer="2630" from-port="5" to-layer="2637" to-port="0" />
		<edge from-layer="2631" from-port="1" to-layer="2636" to-port="0" />
		<edge from-layer="2632" from-port="0" to-layer="2636" to-port="1" />
		<edge from-layer="2633" from-port="0" to-layer="2636" to-port="2" />
		<edge from-layer="2634" from-port="0" to-layer="2636" to-port="3" />
		<edge from-layer="2635" from-port="0" to-layer="2636" to-port="4" />
		<edge from-layer="2636" from-port="5" to-layer="2637" to-port="1" />
		<edge from-layer="2637" from-port="2" to-layer="2642" to-port="0" />
		<edge from-layer="2638" from-port="0" to-layer="2642" to-port="1" />
		<edge from-layer="2639" from-port="0" to-layer="2642" to-port="2" />
		<edge from-layer="2640" from-port="0" to-layer="2642" to-port="3" />
		<edge from-layer="2641" from-port="0" to-layer="2642" to-port="4" />
		<edge from-layer="2642" from-port="5" to-layer="2643" to-port="1" />
		<edge from-layer="2643" from-port="2" to-layer="2648" to-port="0" />
		<edge from-layer="2644" from-port="0" to-layer="2648" to-port="1" />
		<edge from-layer="2645" from-port="0" to-layer="2648" to-port="2" />
		<edge from-layer="2646" from-port="0" to-layer="2648" to-port="3" />
		<edge from-layer="2647" from-port="0" to-layer="2648" to-port="4" />
		<edge from-layer="2648" from-port="5" to-layer="2649" to-port="2" />
		<edge from-layer="2649" from-port="3" to-layer="2654" to-port="0" />
		<edge from-layer="2650" from-port="0" to-layer="2651" to-port="0" />
		<edge from-layer="2651" from-port="1" to-layer="2653" to-port="0" />
		<edge from-layer="2652" from-port="0" to-layer="2653" to-port="1" />
		<edge from-layer="2653" from-port="2" to-layer="2654" to-port="1" />
		<edge from-layer="2654" from-port="2" to-layer="2658" to-port="0" />
		<edge from-layer="2654" from-port="2" to-layer="2665" to-port="0" />
		<edge from-layer="2655" from-port="0" to-layer="2657" to-port="0" />
		<edge from-layer="2655" from-port="0" to-layer="2664" to-port="0" />
		<edge from-layer="2656" from-port="0" to-layer="2662" to-port="0" />
		<edge from-layer="2656" from-port="0" to-layer="2663" to-port="0" />
		<edge from-layer="2657" from-port="1" to-layer="2663" to-port="1" />
		<edge from-layer="2658" from-port="1" to-layer="2659" to-port="0" />
		<edge from-layer="2659" from-port="1" to-layer="2661" to-port="0" />
		<edge from-layer="2660" from-port="0" to-layer="2661" to-port="1" />
		<edge from-layer="2661" from-port="2" to-layer="2662" to-port="1" />
		<edge from-layer="2662" from-port="2" to-layer="2663" to-port="2" />
		<edge from-layer="2663" from-port="3" to-layer="2664" to-port="1" />
		<edge from-layer="2664" from-port="2" to-layer="2665" to-port="1" />
		<edge from-layer="2665" from-port="2" to-layer="2670" to-port="0" />
		<edge from-layer="2665" from-port="2" to-layer="2671" to-port="0" />
		<edge from-layer="2666" from-port="0" to-layer="2670" to-port="1" />
		<edge from-layer="2667" from-port="0" to-layer="2670" to-port="2" />
		<edge from-layer="2668" from-port="0" to-layer="2670" to-port="3" />
		<edge from-layer="2669" from-port="0" to-layer="2670" to-port="4" />
		<edge from-layer="2670" from-port="5" to-layer="2677" to-port="0" />
		<edge from-layer="2671" from-port="1" to-layer="2676" to-port="0" />
		<edge from-layer="2672" from-port="0" to-layer="2676" to-port="1" />
		<edge from-layer="2673" from-port="0" to-layer="2676" to-port="2" />
		<edge from-layer="2674" from-port="0" to-layer="2676" to-port="3" />
		<edge from-layer="2675" from-port="0" to-layer="2676" to-port="4" />
		<edge from-layer="2676" from-port="5" to-layer="2677" to-port="1" />
		<edge from-layer="2677" from-port="2" to-layer="2682" to-port="0" />
		<edge from-layer="2678" from-port="0" to-layer="2682" to-port="1" />
		<edge from-layer="2679" from-port="0" to-layer="2682" to-port="2" />
		<edge from-layer="2680" from-port="0" to-layer="2682" to-port="3" />
		<edge from-layer="2681" from-port="0" to-layer="2682" to-port="4" />
		<edge from-layer="2682" from-port="5" to-layer="2779" to-port="0" />
		<edge from-layer="2682" from-port="5" to-layer="2687" to-port="0" />
		<edge from-layer="2683" from-port="0" to-layer="2684" to-port="0" />
		<edge from-layer="2684" from-port="1" to-layer="2686" to-port="0" />
		<edge from-layer="2685" from-port="0" to-layer="2686" to-port="1" />
		<edge from-layer="2686" from-port="2" to-layer="2687" to-port="1" />
		<edge from-layer="2687" from-port="2" to-layer="2691" to-port="0" />
		<edge from-layer="2687" from-port="2" to-layer="2698" to-port="0" />
		<edge from-layer="2688" from-port="0" to-layer="2690" to-port="0" />
		<edge from-layer="2688" from-port="0" to-layer="2697" to-port="0" />
		<edge from-layer="2689" from-port="0" to-layer="2696" to-port="0" />
		<edge from-layer="2689" from-port="0" to-layer="2695" to-port="0" />
		<edge from-layer="2690" from-port="1" to-layer="2696" to-port="1" />
		<edge from-layer="2691" from-port="1" to-layer="2692" to-port="0" />
		<edge from-layer="2692" from-port="1" to-layer="2694" to-port="0" />
		<edge from-layer="2693" from-port="0" to-layer="2694" to-port="1" />
		<edge from-layer="2694" from-port="2" to-layer="2695" to-port="1" />
		<edge from-layer="2695" from-port="2" to-layer="2696" to-port="2" />
		<edge from-layer="2696" from-port="3" to-layer="2697" to-port="1" />
		<edge from-layer="2697" from-port="2" to-layer="2698" to-port="1" />
		<edge from-layer="2698" from-port="2" to-layer="2704" to-port="0" />
		<edge from-layer="2698" from-port="2" to-layer="2703" to-port="0" />
		<edge from-layer="2699" from-port="0" to-layer="2703" to-port="1" />
		<edge from-layer="2700" from-port="0" to-layer="2703" to-port="2" />
		<edge from-layer="2701" from-port="0" to-layer="2703" to-port="3" />
		<edge from-layer="2702" from-port="0" to-layer="2703" to-port="4" />
		<edge from-layer="2703" from-port="5" to-layer="2710" to-port="0" />
		<edge from-layer="2704" from-port="1" to-layer="2709" to-port="0" />
		<edge from-layer="2705" from-port="0" to-layer="2709" to-port="1" />
		<edge from-layer="2706" from-port="0" to-layer="2709" to-port="2" />
		<edge from-layer="2707" from-port="0" to-layer="2709" to-port="3" />
		<edge from-layer="2708" from-port="0" to-layer="2709" to-port="4" />
		<edge from-layer="2709" from-port="5" to-layer="2710" to-port="1" />
		<edge from-layer="2710" from-port="2" to-layer="2715" to-port="0" />
		<edge from-layer="2711" from-port="0" to-layer="2715" to-port="1" />
		<edge from-layer="2712" from-port="0" to-layer="2715" to-port="2" />
		<edge from-layer="2713" from-port="0" to-layer="2715" to-port="3" />
		<edge from-layer="2714" from-port="0" to-layer="2715" to-port="4" />
		<edge from-layer="2715" from-port="5" to-layer="2720" to-port="0" />
		<edge from-layer="2716" from-port="0" to-layer="2717" to-port="0" />
		<edge from-layer="2717" from-port="1" to-layer="2719" to-port="0" />
		<edge from-layer="2718" from-port="0" to-layer="2719" to-port="1" />
		<edge from-layer="2719" from-port="2" to-layer="2720" to-port="1" />
		<edge from-layer="2720" from-port="2" to-layer="2731" to-port="0" />
		<edge from-layer="2720" from-port="2" to-layer="2724" to-port="0" />
		<edge from-layer="2721" from-port="0" to-layer="2730" to-port="0" />
		<edge from-layer="2721" from-port="0" to-layer="2723" to-port="0" />
		<edge from-layer="2722" from-port="0" to-layer="2729" to-port="0" />
		<edge from-layer="2722" from-port="0" to-layer="2728" to-port="0" />
		<edge from-layer="2723" from-port="1" to-layer="2729" to-port="1" />
		<edge from-layer="2724" from-port="1" to-layer="2725" to-port="0" />
		<edge from-layer="2725" from-port="1" to-layer="2727" to-port="0" />
		<edge from-layer="2726" from-port="0" to-layer="2727" to-port="1" />
		<edge from-layer="2727" from-port="2" to-layer="2728" to-port="1" />
		<edge from-layer="2728" from-port="2" to-layer="2729" to-port="2" />
		<edge from-layer="2729" from-port="3" to-layer="2730" to-port="1" />
		<edge from-layer="2730" from-port="2" to-layer="2731" to-port="1" />
		<edge from-layer="2731" from-port="2" to-layer="2736" to-port="0" />
		<edge from-layer="2731" from-port="2" to-layer="2737" to-port="0" />
		<edge from-layer="2732" from-port="0" to-layer="2736" to-port="1" />
		<edge from-layer="2733" from-port="0" to-layer="2736" to-port="2" />
		<edge from-layer="2734" from-port="0" to-layer="2736" to-port="3" />
		<edge from-layer="2735" from-port="0" to-layer="2736" to-port="4" />
		<edge from-layer="2736" from-port="5" to-layer="2743" to-port="0" />
		<edge from-layer="2737" from-port="1" to-layer="2742" to-port="0" />
		<edge from-layer="2738" from-port="0" to-layer="2742" to-port="1" />
		<edge from-layer="2739" from-port="0" to-layer="2742" to-port="2" />
		<edge from-layer="2740" from-port="0" to-layer="2742" to-port="3" />
		<edge from-layer="2741" from-port="0" to-layer="2742" to-port="4" />
		<edge from-layer="2742" from-port="5" to-layer="2743" to-port="1" />
		<edge from-layer="2743" from-port="2" to-layer="2748" to-port="0" />
		<edge from-layer="2744" from-port="0" to-layer="2748" to-port="1" />
		<edge from-layer="2745" from-port="0" to-layer="2748" to-port="2" />
		<edge from-layer="2746" from-port="0" to-layer="2748" to-port="3" />
		<edge from-layer="2747" from-port="0" to-layer="2748" to-port="4" />
		<edge from-layer="2748" from-port="5" to-layer="2753" to-port="0" />
		<edge from-layer="2749" from-port="0" to-layer="2750" to-port="0" />
		<edge from-layer="2750" from-port="1" to-layer="2752" to-port="0" />
		<edge from-layer="2751" from-port="0" to-layer="2752" to-port="1" />
		<edge from-layer="2752" from-port="2" to-layer="2753" to-port="1" />
		<edge from-layer="2753" from-port="2" to-layer="2764" to-port="0" />
		<edge from-layer="2753" from-port="2" to-layer="2757" to-port="0" />
		<edge from-layer="2754" from-port="0" to-layer="2763" to-port="0" />
		<edge from-layer="2754" from-port="0" to-layer="2756" to-port="0" />
		<edge from-layer="2755" from-port="0" to-layer="2761" to-port="0" />
		<edge from-layer="2755" from-port="0" to-layer="2762" to-port="0" />
		<edge from-layer="2756" from-port="1" to-layer="2762" to-port="1" />
		<edge from-layer="2757" from-port="1" to-layer="2758" to-port="0" />
		<edge from-layer="2758" from-port="1" to-layer="2760" to-port="0" />
		<edge from-layer="2759" from-port="0" to-layer="2760" to-port="1" />
		<edge from-layer="2760" from-port="2" to-layer="2761" to-port="1" />
		<edge from-layer="2761" from-port="2" to-layer="2762" to-port="2" />
		<edge from-layer="2762" from-port="3" to-layer="2763" to-port="1" />
		<edge from-layer="2763" from-port="2" to-layer="2764" to-port="1" />
		<edge from-layer="2764" from-port="2" to-layer="2933" to-port="0" />
		<edge from-layer="2765" from-port="0" to-layer="2767" to-port="0" />
		<edge from-layer="2765" from-port="0" to-layer="2773" to-port="0" />
		<edge from-layer="2766" from-port="0" to-layer="2771" to-port="1" />
		<edge from-layer="2766" from-port="0" to-layer="2772" to-port="0" />
		<edge from-layer="2767" from-port="1" to-layer="2770" to-port="0" />
		<edge from-layer="2768" from-port="0" to-layer="2770" to-port="1" />
		<edge from-layer="2769" from-port="0" to-layer="2770" to-port="2" />
		<edge from-layer="2770" from-port="4" to-layer="2772" to-port="2" />
		<edge from-layer="2770" from-port="3" to-layer="2771" to-port="0" />
		<edge from-layer="2771" from-port="2" to-layer="2772" to-port="1" />
		<edge from-layer="2772" from-port="3" to-layer="2773" to-port="1" />
		<edge from-layer="2773" from-port="2" to-layer="2778" to-port="0" />
		<edge from-layer="2774" from-port="0" to-layer="2778" to-port="1" />
		<edge from-layer="2775" from-port="0" to-layer="2778" to-port="2" />
		<edge from-layer="2776" from-port="0" to-layer="2778" to-port="3" />
		<edge from-layer="2777" from-port="0" to-layer="2778" to-port="4" />
		<edge from-layer="2778" from-port="5" to-layer="2779" to-port="1" />
		<edge from-layer="2779" from-port="2" to-layer="2783" to-port="0" />
		<edge from-layer="2779" from-port="2" to-layer="2790" to-port="0" />
		<edge from-layer="2780" from-port="0" to-layer="2782" to-port="0" />
		<edge from-layer="2780" from-port="0" to-layer="2789" to-port="0" />
		<edge from-layer="2781" from-port="0" to-layer="2788" to-port="0" />
		<edge from-layer="2781" from-port="0" to-layer="2787" to-port="0" />
		<edge from-layer="2782" from-port="1" to-layer="2788" to-port="1" />
		<edge from-layer="2783" from-port="1" to-layer="2784" to-port="0" />
		<edge from-layer="2784" from-port="1" to-layer="2786" to-port="0" />
		<edge from-layer="2785" from-port="0" to-layer="2786" to-port="1" />
		<edge from-layer="2786" from-port="2" to-layer="2787" to-port="1" />
		<edge from-layer="2787" from-port="2" to-layer="2788" to-port="2" />
		<edge from-layer="2788" from-port="3" to-layer="2789" to-port="1" />
		<edge from-layer="2789" from-port="2" to-layer="2790" to-port="1" />
		<edge from-layer="2790" from-port="2" to-layer="2795" to-port="0" />
		<edge from-layer="2790" from-port="2" to-layer="2796" to-port="0" />
		<edge from-layer="2791" from-port="0" to-layer="2795" to-port="1" />
		<edge from-layer="2792" from-port="0" to-layer="2795" to-port="2" />
		<edge from-layer="2793" from-port="0" to-layer="2795" to-port="3" />
		<edge from-layer="2794" from-port="0" to-layer="2795" to-port="4" />
		<edge from-layer="2795" from-port="5" to-layer="2802" to-port="0" />
		<edge from-layer="2796" from-port="1" to-layer="2801" to-port="0" />
		<edge from-layer="2797" from-port="0" to-layer="2801" to-port="1" />
		<edge from-layer="2798" from-port="0" to-layer="2801" to-port="2" />
		<edge from-layer="2799" from-port="0" to-layer="2801" to-port="3" />
		<edge from-layer="2800" from-port="0" to-layer="2801" to-port="4" />
		<edge from-layer="2801" from-port="5" to-layer="2802" to-port="1" />
		<edge from-layer="2802" from-port="2" to-layer="2807" to-port="0" />
		<edge from-layer="2803" from-port="0" to-layer="2807" to-port="1" />
		<edge from-layer="2804" from-port="0" to-layer="2807" to-port="2" />
		<edge from-layer="2805" from-port="0" to-layer="2807" to-port="3" />
		<edge from-layer="2806" from-port="0" to-layer="2807" to-port="4" />
		<edge from-layer="2807" from-port="5" to-layer="2812" to-port="0" />
		<edge from-layer="2808" from-port="0" to-layer="2809" to-port="0" />
		<edge from-layer="2809" from-port="1" to-layer="2811" to-port="0" />
		<edge from-layer="2810" from-port="0" to-layer="2811" to-port="1" />
		<edge from-layer="2811" from-port="2" to-layer="2812" to-port="1" />
		<edge from-layer="2812" from-port="2" to-layer="2816" to-port="0" />
		<edge from-layer="2812" from-port="2" to-layer="2823" to-port="0" />
		<edge from-layer="2813" from-port="0" to-layer="2815" to-port="0" />
		<edge from-layer="2813" from-port="0" to-layer="2822" to-port="0" />
		<edge from-layer="2814" from-port="0" to-layer="2820" to-port="0" />
		<edge from-layer="2814" from-port="0" to-layer="2821" to-port="0" />
		<edge from-layer="2815" from-port="1" to-layer="2821" to-port="1" />
		<edge from-layer="2816" from-port="1" to-layer="2817" to-port="0" />
		<edge from-layer="2817" from-port="1" to-layer="2819" to-port="0" />
		<edge from-layer="2818" from-port="0" to-layer="2819" to-port="1" />
		<edge from-layer="2819" from-port="2" to-layer="2820" to-port="1" />
		<edge from-layer="2820" from-port="2" to-layer="2821" to-port="2" />
		<edge from-layer="2821" from-port="3" to-layer="2822" to-port="1" />
		<edge from-layer="2822" from-port="2" to-layer="2823" to-port="1" />
		<edge from-layer="2823" from-port="2" to-layer="2829" to-port="0" />
		<edge from-layer="2823" from-port="2" to-layer="2828" to-port="0" />
		<edge from-layer="2824" from-port="0" to-layer="2828" to-port="1" />
		<edge from-layer="2825" from-port="0" to-layer="2828" to-port="2" />
		<edge from-layer="2826" from-port="0" to-layer="2828" to-port="3" />
		<edge from-layer="2827" from-port="0" to-layer="2828" to-port="4" />
		<edge from-layer="2828" from-port="5" to-layer="2835" to-port="0" />
		<edge from-layer="2829" from-port="1" to-layer="2834" to-port="0" />
		<edge from-layer="2830" from-port="0" to-layer="2834" to-port="1" />
		<edge from-layer="2831" from-port="0" to-layer="2834" to-port="2" />
		<edge from-layer="2832" from-port="0" to-layer="2834" to-port="3" />
		<edge from-layer="2833" from-port="0" to-layer="2834" to-port="4" />
		<edge from-layer="2834" from-port="5" to-layer="2835" to-port="1" />
		<edge from-layer="2835" from-port="2" to-layer="2840" to-port="0" />
		<edge from-layer="2836" from-port="0" to-layer="2840" to-port="1" />
		<edge from-layer="2837" from-port="0" to-layer="2840" to-port="2" />
		<edge from-layer="2838" from-port="0" to-layer="2840" to-port="3" />
		<edge from-layer="2839" from-port="0" to-layer="2840" to-port="4" />
		<edge from-layer="2840" from-port="5" to-layer="2855" to-port="0" />
		<edge from-layer="2841" from-port="0" to-layer="2843" to-port="0" />
		<edge from-layer="2841" from-port="0" to-layer="2849" to-port="0" />
		<edge from-layer="2842" from-port="0" to-layer="2847" to-port="1" />
		<edge from-layer="2842" from-port="0" to-layer="2848" to-port="0" />
		<edge from-layer="2843" from-port="1" to-layer="2846" to-port="0" />
		<edge from-layer="2844" from-port="0" to-layer="2846" to-port="1" />
		<edge from-layer="2845" from-port="0" to-layer="2846" to-port="2" />
		<edge from-layer="2846" from-port="4" to-layer="2848" to-port="2" />
		<edge from-layer="2846" from-port="3" to-layer="2847" to-port="0" />
		<edge from-layer="2847" from-port="2" to-layer="2848" to-port="1" />
		<edge from-layer="2848" from-port="3" to-layer="2849" to-port="1" />
		<edge from-layer="2849" from-port="2" to-layer="2854" to-port="0" />
		<edge from-layer="2850" from-port="0" to-layer="2854" to-port="1" />
		<edge from-layer="2851" from-port="0" to-layer="2854" to-port="2" />
		<edge from-layer="2852" from-port="0" to-layer="2854" to-port="3" />
		<edge from-layer="2853" from-port="0" to-layer="2854" to-port="4" />
		<edge from-layer="2854" from-port="5" to-layer="2855" to-port="1" />
		<edge from-layer="2855" from-port="2" to-layer="2859" to-port="0" />
		<edge from-layer="2855" from-port="2" to-layer="2866" to-port="0" />
		<edge from-layer="2856" from-port="0" to-layer="2858" to-port="0" />
		<edge from-layer="2856" from-port="0" to-layer="2865" to-port="0" />
		<edge from-layer="2857" from-port="0" to-layer="2864" to-port="0" />
		<edge from-layer="2857" from-port="0" to-layer="2863" to-port="0" />
		<edge from-layer="2858" from-port="1" to-layer="2864" to-port="1" />
		<edge from-layer="2859" from-port="1" to-layer="2860" to-port="0" />
		<edge from-layer="2860" from-port="1" to-layer="2862" to-port="0" />
		<edge from-layer="2861" from-port="0" to-layer="2862" to-port="1" />
		<edge from-layer="2862" from-port="2" to-layer="2863" to-port="1" />
		<edge from-layer="2863" from-port="2" to-layer="2864" to-port="2" />
		<edge from-layer="2864" from-port="3" to-layer="2865" to-port="1" />
		<edge from-layer="2865" from-port="2" to-layer="2866" to-port="1" />
		<edge from-layer="2866" from-port="2" to-layer="2872" to-port="0" />
		<edge from-layer="2866" from-port="2" to-layer="2871" to-port="0" />
		<edge from-layer="2867" from-port="0" to-layer="2871" to-port="1" />
		<edge from-layer="2868" from-port="0" to-layer="2871" to-port="2" />
		<edge from-layer="2869" from-port="0" to-layer="2871" to-port="3" />
		<edge from-layer="2870" from-port="0" to-layer="2871" to-port="4" />
		<edge from-layer="2871" from-port="5" to-layer="2878" to-port="0" />
		<edge from-layer="2872" from-port="1" to-layer="2877" to-port="0" />
		<edge from-layer="2873" from-port="0" to-layer="2877" to-port="1" />
		<edge from-layer="2874" from-port="0" to-layer="2877" to-port="2" />
		<edge from-layer="2875" from-port="0" to-layer="2877" to-port="3" />
		<edge from-layer="2876" from-port="0" to-layer="2877" to-port="4" />
		<edge from-layer="2877" from-port="5" to-layer="2878" to-port="1" />
		<edge from-layer="2878" from-port="2" to-layer="2883" to-port="0" />
		<edge from-layer="2879" from-port="0" to-layer="2883" to-port="1" />
		<edge from-layer="2880" from-port="0" to-layer="2883" to-port="2" />
		<edge from-layer="2881" from-port="0" to-layer="2883" to-port="3" />
		<edge from-layer="2882" from-port="0" to-layer="2883" to-port="4" />
		<edge from-layer="2883" from-port="5" to-layer="2888" to-port="0" />
		<edge from-layer="2884" from-port="0" to-layer="2885" to-port="0" />
		<edge from-layer="2885" from-port="1" to-layer="2887" to-port="0" />
		<edge from-layer="2886" from-port="0" to-layer="2887" to-port="1" />
		<edge from-layer="2887" from-port="2" to-layer="2888" to-port="1" />
		<edge from-layer="2888" from-port="2" to-layer="2892" to-port="0" />
		<edge from-layer="2888" from-port="2" to-layer="2899" to-port="0" />
		<edge from-layer="2889" from-port="0" to-layer="2891" to-port="0" />
		<edge from-layer="2889" from-port="0" to-layer="2898" to-port="0" />
		<edge from-layer="2890" from-port="0" to-layer="2896" to-port="0" />
		<edge from-layer="2890" from-port="0" to-layer="2897" to-port="0" />
		<edge from-layer="2891" from-port="1" to-layer="2897" to-port="1" />
		<edge from-layer="2892" from-port="1" to-layer="2893" to-port="0" />
		<edge from-layer="2893" from-port="1" to-layer="2895" to-port="0" />
		<edge from-layer="2894" from-port="0" to-layer="2895" to-port="1" />
		<edge from-layer="2895" from-port="2" to-layer="2896" to-port="1" />
		<edge from-layer="2896" from-port="2" to-layer="2897" to-port="2" />
		<edge from-layer="2897" from-port="3" to-layer="2898" to-port="1" />
		<edge from-layer="2898" from-port="2" to-layer="2899" to-port="1" />
		<edge from-layer="2899" from-port="2" to-layer="2905" to-port="0" />
		<edge from-layer="2899" from-port="2" to-layer="2904" to-port="0" />
		<edge from-layer="2900" from-port="0" to-layer="2904" to-port="1" />
		<edge from-layer="2901" from-port="0" to-layer="2904" to-port="2" />
		<edge from-layer="2902" from-port="0" to-layer="2904" to-port="3" />
		<edge from-layer="2903" from-port="0" to-layer="2904" to-port="4" />
		<edge from-layer="2904" from-port="5" to-layer="2911" to-port="0" />
		<edge from-layer="2905" from-port="1" to-layer="2910" to-port="0" />
		<edge from-layer="2906" from-port="0" to-layer="2910" to-port="1" />
		<edge from-layer="2907" from-port="0" to-layer="2910" to-port="2" />
		<edge from-layer="2908" from-port="0" to-layer="2910" to-port="3" />
		<edge from-layer="2909" from-port="0" to-layer="2910" to-port="4" />
		<edge from-layer="2910" from-port="5" to-layer="2911" to-port="1" />
		<edge from-layer="2911" from-port="2" to-layer="2916" to-port="0" />
		<edge from-layer="2912" from-port="0" to-layer="2916" to-port="1" />
		<edge from-layer="2913" from-port="0" to-layer="2916" to-port="2" />
		<edge from-layer="2914" from-port="0" to-layer="2916" to-port="3" />
		<edge from-layer="2915" from-port="0" to-layer="2916" to-port="4" />
		<edge from-layer="2916" from-port="5" to-layer="2921" to-port="0" />
		<edge from-layer="2917" from-port="0" to-layer="2918" to-port="0" />
		<edge from-layer="2918" from-port="1" to-layer="2920" to-port="0" />
		<edge from-layer="2919" from-port="0" to-layer="2920" to-port="1" />
		<edge from-layer="2920" from-port="2" to-layer="2921" to-port="1" />
		<edge from-layer="2921" from-port="2" to-layer="2925" to-port="0" />
		<edge from-layer="2921" from-port="2" to-layer="2932" to-port="0" />
		<edge from-layer="2922" from-port="0" to-layer="2924" to-port="0" />
		<edge from-layer="2922" from-port="0" to-layer="2931" to-port="0" />
		<edge from-layer="2923" from-port="0" to-layer="2930" to-port="0" />
		<edge from-layer="2923" from-port="0" to-layer="2929" to-port="0" />
		<edge from-layer="2924" from-port="1" to-layer="2930" to-port="1" />
		<edge from-layer="2925" from-port="1" to-layer="2926" to-port="0" />
		<edge from-layer="2926" from-port="1" to-layer="2928" to-port="0" />
		<edge from-layer="2927" from-port="0" to-layer="2928" to-port="1" />
		<edge from-layer="2928" from-port="2" to-layer="2929" to-port="1" />
		<edge from-layer="2929" from-port="2" to-layer="2930" to-port="2" />
		<edge from-layer="2930" from-port="3" to-layer="2931" to-port="1" />
		<edge from-layer="2931" from-port="2" to-layer="2932" to-port="1" />
		<edge from-layer="2932" from-port="2" to-layer="2933" to-port="1" />
		<edge from-layer="2933" from-port="2" to-layer="2935" to-port="0" />
		<edge from-layer="2934" from-port="0" to-layer="2935" to-port="1" />
		<edge from-layer="2935" from-port="2" to-layer="2936" to-port="2" />
		<edge from-layer="2936" from-port="3" to-layer="2939" to-port="0" />
		<edge from-layer="2937" from-port="0" to-layer="2939" to-port="1" />
		<edge from-layer="2938" from-port="0" to-layer="2939" to-port="2" />
		<edge from-layer="2939" from-port="3" to-layer="2941" to-port="0" />
		<edge from-layer="2939" from-port="4" to-layer="2984" to-port="0" />
		<edge from-layer="2940" from-port="0" to-layer="2941" to-port="1" />
		<edge from-layer="2941" from-port="2" to-layer="2943" to-port="0" />
		<edge from-layer="2942" from-port="0" to-layer="2943" to-port="1" />
		<edge from-layer="2943" from-port="2" to-layer="2944" to-port="0" />
		<edge from-layer="2944" from-port="1" to-layer="2949" to-port="0" />
		<edge from-layer="2945" from-port="0" to-layer="2949" to-port="1" />
		<edge from-layer="2946" from-port="0" to-layer="2949" to-port="2" />
		<edge from-layer="2947" from-port="0" to-layer="2949" to-port="3" />
		<edge from-layer="2948" from-port="0" to-layer="2949" to-port="4" />
		<edge from-layer="2949" from-port="5" to-layer="2954" to-port="0" />
		<edge from-layer="2950" from-port="0" to-layer="2951" to-port="0" />
		<edge from-layer="2951" from-port="1" to-layer="2953" to-port="0" />
		<edge from-layer="2952" from-port="0" to-layer="2953" to-port="1" />
		<edge from-layer="2953" from-port="2" to-layer="2954" to-port="1" />
		<edge from-layer="2954" from-port="2" to-layer="2956" to-port="0" />
		<edge from-layer="2955" from-port="0" to-layer="2956" to-port="1" />
		<edge from-layer="2956" from-port="2" to-layer="2958" to-port="0" />
		<edge from-layer="2956" from-port="2" to-layer="2979" to-port="0" />
		<edge from-layer="2956" from-port="2" to-layer="2971" to-port="0" />
		<edge from-layer="2957" from-port="0" to-layer="2969" to-port="0" />
		<edge from-layer="2957" from-port="0" to-layer="2971" to-port="1" />
		<edge from-layer="2958" from-port="1" to-layer="2961" to-port="0" />
		<edge from-layer="2959" from-port="0" to-layer="2979" to-port="4" />
		<edge from-layer="2959" from-port="0" to-layer="2971" to-port="4" />
		<edge from-layer="2959" from-port="0" to-layer="2961" to-port="1" />
		<edge from-layer="2960" from-port="0" to-layer="2961" to-port="2" />
		<edge from-layer="2961" from-port="3" to-layer="2963" to-port="0" />
		<edge from-layer="2962" from-port="0" to-layer="2963" to-port="1" />
		<edge from-layer="2963" from-port="2" to-layer="2965" to-port="0" />
		<edge from-layer="2964" from-port="0" to-layer="2965" to-port="1" />
		<edge from-layer="2965" from-port="2" to-layer="2967" to-port="0" />
		<edge from-layer="2965" from-port="2" to-layer="2975" to-port="0" />
		<edge from-layer="2966" from-port="0" to-layer="2967" to-port="1" />
		<edge from-layer="2967" from-port="2" to-layer="2971" to-port="2" />
		<edge from-layer="2967" from-port="2" to-layer="2979" to-port="1" />
		<edge from-layer="2967" from-port="2" to-layer="2977" to-port="0" />
		<edge from-layer="2968" from-port="0" to-layer="2970" to-port="0" />
		<edge from-layer="2969" from-port="1" to-layer="2970" to-port="1" />
		<edge from-layer="2970" from-port="2" to-layer="2971" to-port="3" />
		<edge from-layer="2971" from-port="5" to-layer="2972" to-port="1" />
		<edge from-layer="2972" from-port="2" to-layer="2981" to-port="0" />
		<edge from-layer="2973" from-port="0" to-layer="2980" to-port="0" />
		<edge from-layer="2974" from-port="0" to-layer="2975" to-port="1" />
		<edge from-layer="2975" from-port="2" to-layer="2979" to-port="2" />
		<edge from-layer="2976" from-port="0" to-layer="2978" to-port="0" />
		<edge from-layer="2977" from-port="1" to-layer="2978" to-port="1" />
		<edge from-layer="2978" from-port="2" to-layer="2979" to-port="3" />
		<edge from-layer="2979" from-port="5" to-layer="2980" to-port="1" />
		<edge from-layer="2980" from-port="2" to-layer="2981" to-port="1" />
		<edge from-layer="2981" from-port="2" to-layer="2983" to-port="0" />
		<edge from-layer="2982" from-port="0" to-layer="2983" to-port="1" />
		<edge from-layer="2983" from-port="2" to-layer="2985" to-port="0" />
		<edge from-layer="2984" from-port="1" to-layer="2985" to-port="1" />
		<edge from-layer="2985" from-port="2" to-layer="2987" to-port="0" />
		<edge from-layer="2986" from-port="0" to-layer="2987" to-port="1" />
		<edge from-layer="2987" from-port="2" to-layer="2990" to-port="0" />
		<edge from-layer="2988" from-port="0" to-layer="2990" to-port="1" />
		<edge from-layer="2989" from-port="0" to-layer="2990" to-port="2" />
		<edge from-layer="2990" from-port="4" to-layer="2992" to-port="0" />
		<edge from-layer="2990" from-port="4" to-layer="3012" to-port="0" />
		<edge from-layer="2990" from-port="3" to-layer="3004" to-port="0" />
		<edge from-layer="2991" from-port="0" to-layer="2992" to-port="1" />
		<edge from-layer="2992" from-port="2" to-layer="2994" to-port="0" />
		<edge from-layer="2993" from-port="0" to-layer="2994" to-port="1" />
		<edge from-layer="2994" from-port="3" to-layer="2996" to-port="0" />
		<edge from-layer="2995" from-port="0" to-layer="2996" to-port="1" />
		<edge from-layer="2996" from-port="2" to-layer="3000" to-port="0" />
		<edge from-layer="2996" from-port="2" to-layer="3008" to-port="0" />
		<edge from-layer="2997" from-port="0" to-layer="2999" to-port="0" />
		<edge from-layer="2998" from-port="0" to-layer="2999" to-port="1" />
		<edge from-layer="2999" from-port="2" to-layer="3000" to-port="1" />
		<edge from-layer="3000" from-port="2" to-layer="3003" to-port="0" />
		<edge from-layer="3001" from-port="0" to-layer="3002" to-port="0" />
		<edge from-layer="3002" from-port="1" to-layer="3003" to-port="1" />
		<edge from-layer="3003" from-port="2" to-layer="3004" to-port="1" />
		<edge from-layer="3004" from-port="2" to-layer="3030" to-port="0" />
		<edge from-layer="3005" from-port="0" to-layer="3007" to-port="0" />
		<edge from-layer="3006" from-port="0" to-layer="3007" to-port="1" />
		<edge from-layer="3007" from-port="2" to-layer="3008" to-port="1" />
		<edge from-layer="3008" from-port="2" to-layer="3011" to-port="0" />
		<edge from-layer="3009" from-port="0" to-layer="3010" to-port="0" />
		<edge from-layer="3010" from-port="1" to-layer="3011" to-port="1" />
		<edge from-layer="3011" from-port="2" to-layer="3012" to-port="1" />
		<edge from-layer="3012" from-port="2" to-layer="3014" to-port="0" />
		<edge from-layer="3013" from-port="0" to-layer="3014" to-port="1" />
		<edge from-layer="3014" from-port="2" to-layer="3016" to-port="0" />
		<edge from-layer="3015" from-port="0" to-layer="3016" to-port="1" />
		<edge from-layer="3016" from-port="3" to-layer="3018" to-port="0" />
		<edge from-layer="3016" from-port="3" to-layer="3034" to-port="0" />
		<edge from-layer="3016" from-port="2" to-layer="3032" to-port="0" />
		<edge from-layer="3017" from-port="0" to-layer="3018" to-port="1" />
		<edge from-layer="3018" from-port="2" to-layer="3019" to-port="0" />
		<edge from-layer="3019" from-port="1" to-layer="3020" to-port="0" />
		<edge from-layer="3020" from-port="1" to-layer="3022" to-port="0" />
		<edge from-layer="3021" from-port="0" to-layer="3022" to-port="1" />
		<edge from-layer="3022" from-port="2" to-layer="3026" to-port="0" />
		<edge from-layer="3023" from-port="0" to-layer="3025" to-port="0" />
		<edge from-layer="3024" from-port="0" to-layer="3025" to-port="1" />
		<edge from-layer="3025" from-port="2" to-layer="3026" to-port="1" />
		<edge from-layer="3026" from-port="2" to-layer="3029" to-port="0" />
		<edge from-layer="3027" from-port="0" to-layer="3028" to-port="0" />
		<edge from-layer="3028" from-port="1" to-layer="3029" to-port="1" />
		<edge from-layer="3029" from-port="2" to-layer="3030" to-port="1" />
		<edge from-layer="3030" from-port="2" to-layer="3038" to-port="0" />
		<edge from-layer="3031" from-port="0" to-layer="3032" to-port="1" />
		<edge from-layer="3032" from-port="2" to-layer="3038" to-port="1" />
		<edge from-layer="3033" from-port="0" to-layer="3034" to-port="1" />
		<edge from-layer="3034" from-port="2" to-layer="3036" to-port="0" />
		<edge from-layer="3035" from-port="0" to-layer="3036" to-port="1" />
		<edge from-layer="3036" from-port="2" to-layer="3037" to-port="0" />
		<edge from-layer="3037" from-port="1" to-layer="3038" to-port="2" />
		<edge from-layer="3038" from-port="3" to-layer="3039" to-port="0" />
	</edges>
	<rt_info>
		<framework>
			<author value="Ultralytics" />
			<batch value="1" />
			<date value="2024-08-12T10:08:31.072221" />
			<description value="Ultralytics YOLOv10s model trained on data.yaml" />
			<docs value="https://docs.ultralytics.com" />
			<imgsz value="[480, 480]" />
			<license value="AGPL-3.0 License (https://ultralytics.com/license)" />
			<names value="{0: 'phantom', 1: 'mavic'}" />
			<stride value="32" />
			<task value="detect" />
			<version value="8.2.73" />
		</framework>
		<nncf>
			<friendly_names_were_updated value="True" />
			<quantization>
				<advanced_parameters value="{}" />
				<fast_bias_correction value="True" />
				<ignored_scope value="None" />
				<model_type value="None" />
				<preset value="None" />
				<subset_size value="300" />
				<target_device value="ANY" />
			</quantization>
		</nncf>
	</rt_info>
</net>
